{"format": "graph-model", "generatedBy": "2.10.0", "convertedBy": "TensorFlow.js Converter v3.20.0", "signature": {"inputs": {"input": {"name": "input:0", "dtype": "DT_FLOAT", "tensorShape": {"dim": [{"size": "1"}, {"size": "-1"}, {"size": "-1"}, {"size": "3"}]}}}, "outputs": {"output": {"name": "Identity:0", "dtype": "DT_FLOAT", "tensorShape": {"dim": [{"size": "1"}, {"size": "19"}]}}}}, "modelTopology": {"node": [{"name": "ConstantFolding/PartitionedCall/split_20-folded-1", "op": "Const", "attr": {"value": {"tensor": {"dtype": "DT_INT32", "tensorShape": {"dim": [{"size": "2"}]}}}, "dtype": {"type": "DT_INT32"}}}, {"name": "PartitionedCall/Const_15", "op": "Const", "attr": {"dtype": {"type": "DT_INT32"}, "value": {"tensor": {"dtype": "DT_INT32", "tensorShape": {"dim": [{"size": "4"}, {"size": "2"}]}}}}}, {"name": "PartitionedCall/transpose_57/perm", "op": "Const", "attr": {"dtype": {"type": "DT_INT32"}, "value": {"tensor": {"dtype": "DT_INT32", "tensorShape": {"dim": [{"size": "4"}]}}}}}, {"name": "PartitionedCall/split_18", "op": "Const", "attr": {"dtype": {"type": "DT_FLOAT"}, "value": {"tensor": {"dtype": "DT_FLOAT", "tensorShape": {"dim": [{"size": "3"}, {"size": "3"}, {"size": "512"}, {"size": "512"}]}}}}}, {"name": "unknown_36", "op": "Const", "attr": {"dtype": {"type": "DT_FLOAT"}, "value": {"tensor": {"dtype": "DT_FLOAT", "tensorShape": {"dim": [{"size": "512"}]}}}}}, {"name": "PartitionedCall/transpose_58/perm", "op": "Const", "attr": {"value": {"tensor": {"dtype": "DT_INT32", "tensorShape": {"dim": [{"size": "4"}]}}}, "dtype": {"type": "DT_INT32"}}}, {"name": "PartitionedCall/Const_16", "op": "Const", "attr": {"dtype": {"type": "DT_INT32"}, "value": {"tensor": {"dtype": "DT_INT32", "tensorShape": {"dim": [{"size": "4"}, {"size": "2"}]}}}}}, {"name": "PartitionedCall/transpose_60/perm", "op": "Const", "attr": {"dtype": {"type": "DT_INT32"}, "value": {"tensor": {"dtype": "DT_INT32", "tensorShape": {"dim": [{"size": "4"}]}}}}}, {"name": "PartitionedCall/split_19", "op": "Const", "attr": {"dtype": {"type": "DT_FLOAT"}, "value": {"tensor": {"dtype": "DT_FLOAT", "tensorShape": {"dim": [{"size": "3"}, {"size": "3"}, {"size": "512"}, {"size": "512"}]}}}}}, {"name": "unknown_38", "op": "Const", "attr": {"dtype": {"type": "DT_FLOAT"}, "value": {"tensor": {"dtype": "DT_FLOAT", "tensorShape": {"dim": [{"size": "512"}]}}}}}, {"name": "PartitionedCall/transpose_61/perm", "op": "Const", "attr": {"value": {"tensor": {"dtype": "DT_INT32", "tensorShape": {"dim": [{"size": "4"}]}}}, "dtype": {"type": "DT_INT32"}}}, {"name": "PartitionedCall/Const_13", "op": "Const", "attr": {"dtype": {"type": "DT_INT32"}, "value": {"tensor": {"dtype": "DT_INT32", "tensorShape": {"dim": [{"size": "4"}, {"size": "2"}]}}}}}, {"name": "PartitionedCall/transpose_48/perm", "op": "Const", "attr": {"value": {"tensor": {"dtype": "DT_INT32", "tensorShape": {"dim": [{"size": "4"}]}}}, "dtype": {"type": "DT_INT32"}}}, {"name": "PartitionedCall/split_15", "op": "Const", "attr": {"dtype": {"type": "DT_FLOAT"}, "value": {"tensor": {"dtype": "DT_FLOAT", "tensorShape": {"dim": [{"size": "3"}, {"size": "3"}, {"size": "256"}, {"size": "512"}]}}}}}, {"name": "unknown_30", "op": "Const", "attr": {"value": {"tensor": {"dtype": "DT_FLOAT", "tensorShape": {"dim": [{"size": "512"}]}}}, "dtype": {"type": "DT_FLOAT"}}}, {"name": "PartitionedCall/transpose_49/perm", "op": "Const", "attr": {"value": {"tensor": {"dtype": "DT_INT32", "tensorShape": {"dim": [{"size": "4"}]}}}, "dtype": {"type": "DT_INT32"}}}, {"name": "PartitionedCall/Const_14", "op": "Const", "attr": {"value": {"tensor": {"dtype": "DT_INT32", "tensorShape": {"dim": [{"size": "4"}, {"size": "2"}]}}}, "dtype": {"type": "DT_INT32"}}}, {"name": "PartitionedCall/transpose_54/perm", "op": "Const", "attr": {"dtype": {"type": "DT_INT32"}, "value": {"tensor": {"dtype": "DT_INT32", "tensorShape": {"dim": [{"size": "4"}]}}}}}, {"name": "PartitionedCall/split_17", "op": "Const", "attr": {"dtype": {"type": "DT_FLOAT"}, "value": {"tensor": {"dtype": "DT_FLOAT", "tensorShape": {"dim": [{"size": "3"}, {"size": "3"}, {"size": "512"}, {"size": "512"}]}}}}}, {"name": "unknown_34", "op": "Const", "attr": {"value": {"tensor": {"dtype": "DT_FLOAT", "tensorShape": {"dim": [{"size": "512"}]}}}, "dtype": {"type": "DT_FLOAT"}}}, {"name": "PartitionedCall/transpose_55/perm", "op": "Const", "attr": {"dtype": {"type": "DT_INT32"}, "value": {"tensor": {"dtype": "DT_INT32", "tensorShape": {"dim": [{"size": "4"}]}}}}}, {"name": "PartitionedCall/Const_11", "op": "Const", "attr": {"value": {"tensor": {"dtype": "DT_INT32", "tensorShape": {"dim": [{"size": "4"}, {"size": "2"}]}}}, "dtype": {"type": "DT_INT32"}}}, {"name": "PartitionedCall/transpose_42/perm", "op": "Const", "attr": {"dtype": {"type": "DT_INT32"}, "value": {"tensor": {"dtype": "DT_INT32", "tensorShape": {"dim": [{"size": "4"}]}}}}}, {"name": "PartitionedCall/split_13", "op": "Const", "attr": {"dtype": {"type": "DT_FLOAT"}, "value": {"tensor": {"dtype": "DT_FLOAT", "tensorShape": {"dim": [{"size": "3"}, {"size": "3"}, {"size": "256"}, {"size": "256"}]}}}}}, {"name": "unknown_26", "op": "Const", "attr": {"dtype": {"type": "DT_FLOAT"}, "value": {"tensor": {"dtype": "DT_FLOAT", "tensorShape": {"dim": [{"size": "256"}]}}}}}, {"name": "PartitionedCall/transpose_43/perm", "op": "Const", "attr": {"dtype": {"type": "DT_INT32"}, "value": {"tensor": {"dtype": "DT_INT32", "tensorShape": {"dim": [{"size": "4"}]}}}}}, {"name": "PartitionedCall/Const_12", "op": "Const", "attr": {"value": {"tensor": {"dtype": "DT_INT32", "tensorShape": {"dim": [{"size": "4"}, {"size": "2"}]}}}, "dtype": {"type": "DT_INT32"}}}, {"name": "PartitionedCall/transpose_45/perm", "op": "Const", "attr": {"dtype": {"type": "DT_INT32"}, "value": {"tensor": {"dtype": "DT_INT32", "tensorShape": {"dim": [{"size": "4"}]}}}}}, {"name": "PartitionedCall/split_14", "op": "Const", "attr": {"value": {"tensor": {"dtype": "DT_FLOAT", "tensorShape": {"dim": [{"size": "3"}, {"size": "3"}, {"size": "256"}, {"size": "256"}]}}}, "dtype": {"type": "DT_FLOAT"}}}, {"name": "unknown_28", "op": "Const", "attr": {"value": {"tensor": {"dtype": "DT_FLOAT", "tensorShape": {"dim": [{"size": "256"}]}}}, "dtype": {"type": "DT_FLOAT"}}}, {"name": "PartitionedCall/transpose_46/perm", "op": "Const", "attr": {"value": {"tensor": {"dtype": "DT_INT32", "tensorShape": {"dim": [{"size": "4"}]}}}, "dtype": {"type": "DT_INT32"}}}, {"name": "PartitionedCall/Const_9", "op": "Const", "attr": {"value": {"tensor": {"dtype": "DT_INT32", "tensorShape": {"dim": [{"size": "4"}, {"size": "2"}]}}}, "dtype": {"type": "DT_INT32"}}}, {"name": "PartitionedCall/transpose_33/perm", "op": "Const", "attr": {"value": {"tensor": {"dtype": "DT_INT32", "tensorShape": {"dim": [{"size": "4"}]}}}, "dtype": {"type": "DT_INT32"}}}, {"name": "PartitionedCall/split_10", "op": "Const", "attr": {"value": {"tensor": {"dtype": "DT_FLOAT", "tensorShape": {"dim": [{"size": "3"}, {"size": "3"}, {"size": "128"}, {"size": "256"}]}}}, "dtype": {"type": "DT_FLOAT"}}}, {"name": "unknown_20", "op": "Const", "attr": {"value": {"tensor": {"dtype": "DT_FLOAT", "tensorShape": {"dim": [{"size": "256"}]}}}, "dtype": {"type": "DT_FLOAT"}}}, {"name": "PartitionedCall/transpose_34/perm", "op": "Const", "attr": {"value": {"tensor": {"dtype": "DT_INT32", "tensorShape": {"dim": [{"size": "4"}]}}}, "dtype": {"type": "DT_INT32"}}}, {"name": "PartitionedCall/Const_10", "op": "Const", "attr": {"dtype": {"type": "DT_INT32"}, "value": {"tensor": {"dtype": "DT_INT32", "tensorShape": {"dim": [{"size": "4"}, {"size": "2"}]}}}}}, {"name": "PartitionedCall/transpose_39/perm", "op": "Const", "attr": {"value": {"tensor": {"dtype": "DT_INT32", "tensorShape": {"dim": [{"size": "4"}]}}}, "dtype": {"type": "DT_INT32"}}}, {"name": "PartitionedCall/split_12", "op": "Const", "attr": {"dtype": {"type": "DT_FLOAT"}, "value": {"tensor": {"dtype": "DT_FLOAT", "tensorShape": {"dim": [{"size": "3"}, {"size": "3"}, {"size": "256"}, {"size": "256"}]}}}}}, {"name": "unknown_24", "op": "Const", "attr": {"dtype": {"type": "DT_FLOAT"}, "value": {"tensor": {"dtype": "DT_FLOAT", "tensorShape": {"dim": [{"size": "256"}]}}}}}, {"name": "PartitionedCall/transpose_40/perm", "op": "Const", "attr": {"dtype": {"type": "DT_INT32"}, "value": {"tensor": {"dtype": "DT_INT32", "tensorShape": {"dim": [{"size": "4"}]}}}}}, {"name": "PartitionedCall/Const_7", "op": "Const", "attr": {"dtype": {"type": "DT_INT32"}, "value": {"tensor": {"dtype": "DT_INT32", "tensorShape": {"dim": [{"size": "4"}, {"size": "2"}]}}}}}, {"name": "PartitionedCall/transpose_27/perm", "op": "Const", "attr": {"value": {"tensor": {"dtype": "DT_INT32", "tensorShape": {"dim": [{"size": "4"}]}}}, "dtype": {"type": "DT_INT32"}}}, {"name": "PartitionedCall/split_8", "op": "Const", "attr": {"value": {"tensor": {"dtype": "DT_FLOAT", "tensorShape": {"dim": [{"size": "3"}, {"size": "3"}, {"size": "128"}, {"size": "128"}]}}}, "dtype": {"type": "DT_FLOAT"}}}, {"name": "unknown_16", "op": "Const", "attr": {"value": {"tensor": {"dtype": "DT_FLOAT", "tensorShape": {"dim": [{"size": "128"}]}}}, "dtype": {"type": "DT_FLOAT"}}}, {"name": "PartitionedCall/transpose_28/perm", "op": "Const", "attr": {"dtype": {"type": "DT_INT32"}, "value": {"tensor": {"dtype": "DT_INT32", "tensorShape": {"dim": [{"size": "4"}]}}}}}, {"name": "PartitionedCall/Const_8", "op": "Const", "attr": {"value": {"tensor": {"dtype": "DT_INT32", "tensorShape": {"dim": [{"size": "4"}, {"size": "2"}]}}}, "dtype": {"type": "DT_INT32"}}}, {"name": "PartitionedCall/transpose_30/perm", "op": "Const", "attr": {"value": {"tensor": {"dtype": "DT_INT32", "tensorShape": {"dim": [{"size": "4"}]}}}, "dtype": {"type": "DT_INT32"}}}, {"name": "PartitionedCall/split_9", "op": "Const", "attr": {"dtype": {"type": "DT_FLOAT"}, "value": {"tensor": {"dtype": "DT_FLOAT", "tensorShape": {"dim": [{"size": "3"}, {"size": "3"}, {"size": "128"}, {"size": "128"}]}}}}}, {"name": "unknown_18", "op": "Const", "attr": {"dtype": {"type": "DT_FLOAT"}, "value": {"tensor": {"dtype": "DT_FLOAT", "tensorShape": {"dim": [{"size": "128"}]}}}}}, {"name": "PartitionedCall/transpose_31/perm", "op": "Const", "attr": {"value": {"tensor": {"dtype": "DT_INT32", "tensorShape": {"dim": [{"size": "4"}]}}}, "dtype": {"type": "DT_INT32"}}}, {"name": "PartitionedCall/Const_5", "op": "Const", "attr": {"dtype": {"type": "DT_INT32"}, "value": {"tensor": {"dtype": "DT_INT32", "tensorShape": {"dim": [{"size": "4"}, {"size": "2"}]}}}}}, {"name": "PartitionedCall/transpose_18/perm", "op": "Const", "attr": {"value": {"tensor": {"dtype": "DT_INT32", "tensorShape": {"dim": [{"size": "4"}]}}}, "dtype": {"type": "DT_INT32"}}}, {"name": "PartitionedCall/split_5", "op": "Const", "attr": {"dtype": {"type": "DT_FLOAT"}, "value": {"tensor": {"dtype": "DT_FLOAT", "tensorShape": {"dim": [{"size": "3"}, {"size": "3"}, {"size": "64"}, {"size": "128"}]}}}}}, {"name": "unknown_10", "op": "Const", "attr": {"dtype": {"type": "DT_FLOAT"}, "value": {"tensor": {"dtype": "DT_FLOAT", "tensorShape": {"dim": [{"size": "128"}]}}}}}, {"name": "PartitionedCall/transpose_19/perm", "op": "Const", "attr": {"value": {"tensor": {"dtype": "DT_INT32", "tensorShape": {"dim": [{"size": "4"}]}}}, "dtype": {"type": "DT_INT32"}}}, {"name": "PartitionedCall/Const_6", "op": "Const", "attr": {"value": {"tensor": {"dtype": "DT_INT32", "tensorShape": {"dim": [{"size": "4"}, {"size": "2"}]}}}, "dtype": {"type": "DT_INT32"}}}, {"name": "PartitionedCall/transpose_24/perm", "op": "Const", "attr": {"value": {"tensor": {"dtype": "DT_INT32", "tensorShape": {"dim": [{"size": "4"}]}}}, "dtype": {"type": "DT_INT32"}}}, {"name": "PartitionedCall/split_7", "op": "Const", "attr": {"dtype": {"type": "DT_FLOAT"}, "value": {"tensor": {"dtype": "DT_FLOAT", "tensorShape": {"dim": [{"size": "3"}, {"size": "3"}, {"size": "128"}, {"size": "128"}]}}}}}, {"name": "unknown_14", "op": "Const", "attr": {"dtype": {"type": "DT_FLOAT"}, "value": {"tensor": {"dtype": "DT_FLOAT", "tensorShape": {"dim": [{"size": "128"}]}}}}}, {"name": "PartitionedCall/transpose_25/perm", "op": "Const", "attr": {"dtype": {"type": "DT_INT32"}, "value": {"tensor": {"dtype": "DT_INT32", "tensorShape": {"dim": [{"size": "4"}]}}}}}, {"name": "PartitionedCall/Const_3", "op": "Const", "attr": {"dtype": {"type": "DT_INT32"}, "value": {"tensor": {"dtype": "DT_INT32", "tensorShape": {"dim": [{"size": "4"}, {"size": "2"}]}}}}}, {"name": "PartitionedCall/transpose_12/perm", "op": "Const", "attr": {"value": {"tensor": {"dtype": "DT_INT32", "tensorShape": {"dim": [{"size": "4"}]}}}, "dtype": {"type": "DT_INT32"}}}, {"name": "PartitionedCall/split_3", "op": "Const", "attr": {"value": {"tensor": {"dtype": "DT_FLOAT", "tensorShape": {"dim": [{"size": "3"}, {"size": "3"}, {"size": "64"}, {"size": "64"}]}}}, "dtype": {"type": "DT_FLOAT"}}}, {"name": "unknown_6", "op": "Const", "attr": {"dtype": {"type": "DT_FLOAT"}, "value": {"tensor": {"dtype": "DT_FLOAT", "tensorShape": {"dim": [{"size": "64"}]}}}}}, {"name": "PartitionedCall/transpose_13/perm", "op": "Const", "attr": {"dtype": {"type": "DT_INT32"}, "value": {"tensor": {"dtype": "DT_INT32", "tensorShape": {"dim": [{"size": "4"}]}}}}}, {"name": "PartitionedCall/Const_4", "op": "Const", "attr": {"dtype": {"type": "DT_INT32"}, "value": {"tensor": {"dtype": "DT_INT32", "tensorShape": {"dim": [{"size": "4"}, {"size": "2"}]}}}}}, {"name": "PartitionedCall/transpose_15/perm", "op": "Const", "attr": {"dtype": {"type": "DT_INT32"}, "value": {"tensor": {"dtype": "DT_INT32", "tensorShape": {"dim": [{"size": "4"}]}}}}}, {"name": "PartitionedCall/split_4", "op": "Const", "attr": {"value": {"tensor": {"dtype": "DT_FLOAT", "tensorShape": {"dim": [{"size": "3"}, {"size": "3"}, {"size": "64"}, {"size": "64"}]}}}, "dtype": {"type": "DT_FLOAT"}}}, {"name": "unknown_8", "op": "Const", "attr": {"dtype": {"type": "DT_FLOAT"}, "value": {"tensor": {"dtype": "DT_FLOAT", "tensorShape": {"dim": [{"size": "64"}]}}}}}, {"name": "PartitionedCall/transpose_16/perm", "op": "Const", "attr": {"value": {"tensor": {"dtype": "DT_INT32", "tensorShape": {"dim": [{"size": "4"}]}}}, "dtype": {"type": "DT_INT32"}}}, {"name": "PartitionedCall/Const_1", "op": "Const", "attr": {"dtype": {"type": "DT_INT32"}, "value": {"tensor": {"dtype": "DT_INT32", "tensorShape": {"dim": [{"size": "4"}, {"size": "2"}]}}}}}, {"name": "PartitionedCall/transpose_6/perm", "op": "Const", "attr": {"dtype": {"type": "DT_INT32"}, "value": {"tensor": {"dtype": "DT_INT32", "tensorShape": {"dim": [{"size": "4"}]}}}}}, {"name": "PartitionedCall/split_1", "op": "Const", "attr": {"value": {"tensor": {"dtype": "DT_FLOAT", "tensorShape": {"dim": [{"size": "3"}, {"size": "3"}, {"size": "64"}, {"size": "64"}]}}}, "dtype": {"type": "DT_FLOAT"}}}, {"name": "unknown_2", "op": "Const", "attr": {"value": {"tensor": {"dtype": "DT_FLOAT", "tensorShape": {"dim": [{"size": "64"}]}}}, "dtype": {"type": "DT_FLOAT"}}}, {"name": "PartitionedCall/transpose_7/perm", "op": "Const", "attr": {"dtype": {"type": "DT_INT32"}, "value": {"tensor": {"dtype": "DT_INT32", "tensorShape": {"dim": [{"size": "4"}]}}}}}, {"name": "PartitionedCall/Const_2", "op": "Const", "attr": {"value": {"tensor": {"dtype": "DT_INT32", "tensorShape": {"dim": [{"size": "4"}, {"size": "2"}]}}}, "dtype": {"type": "DT_INT32"}}}, {"name": "PartitionedCall/transpose_9/perm", "op": "Const", "attr": {"value": {"tensor": {"dtype": "DT_INT32", "tensorShape": {"dim": [{"size": "4"}]}}}, "dtype": {"type": "DT_INT32"}}}, {"name": "PartitionedCall/split_2", "op": "Const", "attr": {"value": {"tensor": {"dtype": "DT_FLOAT", "tensorShape": {"dim": [{"size": "3"}, {"size": "3"}, {"size": "64"}, {"size": "64"}]}}}, "dtype": {"type": "DT_FLOAT"}}}, {"name": "unknown_4", "op": "Const", "attr": {"value": {"tensor": {"dtype": "DT_FLOAT", "tensorShape": {"dim": [{"size": "64"}]}}}, "dtype": {"type": "DT_FLOAT"}}}, {"name": "PartitionedCall/transpose_10/perm", "op": "Const", "attr": {"dtype": {"type": "DT_INT32"}, "value": {"tensor": {"dtype": "DT_INT32", "tensorShape": {"dim": [{"size": "4"}]}}}}}, {"name": "PartitionedCall/onnx_tf_prefix_input_order_convert_transpose_0/perm", "op": "Const", "attr": {"value": {"tensor": {"dtype": "DT_INT32", "tensorShape": {"dim": [{"size": "4"}]}}}, "dtype": {"type": "DT_INT32"}}}, {"name": "PartitionedCall/Const", "op": "Const", "attr": {"value": {"tensor": {"dtype": "DT_INT32", "tensorShape": {"dim": [{"size": "4"}, {"size": "2"}]}}}, "dtype": {"type": "DT_INT32"}}}, {"name": "PartitionedCall/transpose_1/perm", "op": "Const", "attr": {"dtype": {"type": "DT_INT32"}, "value": {"tensor": {"dtype": "DT_INT32", "tensorShape": {"dim": [{"size": "4"}]}}}}}, {"name": "PartitionedCall/split", "op": "Const", "attr": {"value": {"tensor": {"dtype": "DT_FLOAT", "tensorShape": {"dim": [{"size": "7"}, {"size": "7"}, {"size": "3"}, {"size": "64"}]}}}, "dtype": {"type": "DT_FLOAT"}}}, {"name": "unknown_0", "op": "Const", "attr": {"dtype": {"type": "DT_FLOAT"}, "value": {"tensor": {"dtype": "DT_FLOAT", "tensorShape": {"dim": [{"size": "64"}]}}}}}, {"name": "PartitionedCall/transpose_2/perm", "op": "Const", "attr": {"value": {"tensor": {"dtype": "DT_INT32", "tensorShape": {"dim": [{"size": "4"}]}}}, "dtype": {"type": "DT_INT32"}}}, {"name": "PartitionedCall/PadV2/paddings", "op": "Const", "attr": {"dtype": {"type": "DT_INT64"}, "value": {"tensor": {"dtype": "DT_INT64", "tensorShape": {"dim": [{"size": "4"}, {"size": "2"}]}}}}}, {"name": "PartitionedCall/PadV2/constant_values", "op": "Const", "attr": {"value": {"tensor": {"dtype": "DT_FLOAT", "tensorShape": {}}}, "dtype": {"type": "DT_FLOAT"}}}, {"name": "PartitionedCall/transpose_3/perm", "op": "Const", "attr": {"dtype": {"type": "DT_INT32"}, "value": {"tensor": {"dtype": "DT_INT32", "tensorShape": {"dim": [{"size": "4"}]}}}}}, {"name": "PartitionedCall/transpose_4/perm", "op": "Const", "attr": {"dtype": {"type": "DT_INT32"}, "value": {"tensor": {"dtype": "DT_INT32", "tensorShape": {"dim": [{"size": "4"}]}}}}}, {"name": "PartitionedCall/transpose_21/perm", "op": "Const", "attr": {"dtype": {"type": "DT_INT32"}, "value": {"tensor": {"dtype": "DT_INT32", "tensorShape": {"dim": [{"size": "4"}]}}}}}, {"name": "PartitionedCall/split_6", "op": "Const", "attr": {"dtype": {"type": "DT_FLOAT"}, "value": {"tensor": {"dtype": "DT_FLOAT", "tensorShape": {"dim": [{"size": "1"}, {"size": "1"}, {"size": "64"}, {"size": "128"}]}}}}}, {"name": "unknown_12", "op": "Const", "attr": {"dtype": {"type": "DT_FLOAT"}, "value": {"tensor": {"dtype": "DT_FLOAT", "tensorShape": {"dim": [{"size": "128"}]}}}}}, {"name": "PartitionedCall/transpose_22/perm", "op": "Const", "attr": {"dtype": {"type": "DT_INT32"}, "value": {"tensor": {"dtype": "DT_INT32", "tensorShape": {"dim": [{"size": "4"}]}}}}}, {"name": "PartitionedCall/transpose_36/perm", "op": "Const", "attr": {"value": {"tensor": {"dtype": "DT_INT32", "tensorShape": {"dim": [{"size": "4"}]}}}, "dtype": {"type": "DT_INT32"}}}, {"name": "PartitionedCall/split_11", "op": "Const", "attr": {"value": {"tensor": {"dtype": "DT_FLOAT", "tensorShape": {"dim": [{"size": "1"}, {"size": "1"}, {"size": "128"}, {"size": "256"}]}}}, "dtype": {"type": "DT_FLOAT"}}}, {"name": "unknown_22", "op": "Const", "attr": {"value": {"tensor": {"dtype": "DT_FLOAT", "tensorShape": {"dim": [{"size": "256"}]}}}, "dtype": {"type": "DT_FLOAT"}}}, {"name": "PartitionedCall/transpose_37/perm", "op": "Const", "attr": {"value": {"tensor": {"dtype": "DT_INT32", "tensorShape": {"dim": [{"size": "4"}]}}}, "dtype": {"type": "DT_INT32"}}}, {"name": "PartitionedCall/transpose_51/perm", "op": "Const", "attr": {"value": {"tensor": {"dtype": "DT_INT32", "tensorShape": {"dim": [{"size": "4"}]}}}, "dtype": {"type": "DT_INT32"}}}, {"name": "PartitionedCall/split_16", "op": "Const", "attr": {"value": {"tensor": {"dtype": "DT_FLOAT", "tensorShape": {"dim": [{"size": "1"}, {"size": "1"}, {"size": "256"}, {"size": "512"}]}}}, "dtype": {"type": "DT_FLOAT"}}}, {"name": "unknown_32", "op": "Const", "attr": {"value": {"tensor": {"dtype": "DT_FLOAT", "tensorShape": {"dim": [{"size": "512"}]}}}, "dtype": {"type": "DT_FLOAT"}}}, {"name": "PartitionedCall/transpose_52/perm", "op": "Const", "attr": {"value": {"tensor": {"dtype": "DT_INT32", "tensorShape": {"dim": [{"size": "4"}]}}}, "dtype": {"type": "DT_INT32"}}}, {"name": "ConstantFolding/PartitionedCall/split_21-folded-1", "op": "Const", "attr": {"value": {"tensor": {"dtype": "DT_INT32", "tensorShape": {"dim": [{"size": "2"}]}}}, "dtype": {"type": "DT_INT32"}}}, {"name": "PartitionedCall/onnx_tf_prefix_Concat_48/axis", "op": "Const", "attr": {"value": {"tensor": {"dtype": "DT_INT32", "tensorShape": {}}}, "dtype": {"type": "DT_INT32"}}}, {"name": "unknown_39", "op": "Const", "attr": {"value": {"tensor": {"dtype": "DT_INT64", "tensorShape": {"dim": [{"size": "2"}]}}}, "dtype": {"type": "DT_INT64"}}}, {"name": "PartitionedCall/Where", "op": "Const", "attr": {"value": {"tensor": {"dtype": "DT_INT64", "tensorShape": {"dim": [{}, {"size": "1"}]}}}, "dtype": {"type": "DT_INT64"}}}, {"name": "PartitionedCall/Cast", "op": "Const", "attr": {"value": {"tensor": {"dtype": "DT_INT64", "tensorShape": {"dim": [{"size": "1"}]}}}, "dtype": {"type": "DT_INT64"}}}, {"name": "PartitionedCall/GatherV2", "op": "Const", "attr": {"value": {"tensor": {"dtype": "DT_INT64", "tensorShape": {"dim": [{}]}}}, "dtype": {"type": "DT_INT64"}}}, {"name": "PartitionedCall/zeros_1", "op": "Const", "attr": {"dtype": {"type": "DT_INT64"}, "value": {"tensor": {"dtype": "DT_INT64", "tensorShape": {}}}}}, {"name": "PartitionedCall/onnx_tf_prefix_BatchNormalization_50/mul", "op": "Const", "attr": {"dtype": {"type": "DT_FLOAT"}, "value": {"tensor": {"dtype": "DT_FLOAT", "tensorShape": {"dim": [{"size": "1"}, {"size": "1024"}]}}}}}, {"name": "PartitionedCall/onnx_tf_prefix_BatchNormalization_50/sub", "op": "Const", "attr": {"value": {"tensor": {"dtype": "DT_FLOAT", "tensorShape": {"dim": [{"size": "1"}, {"size": "1024"}]}}}, "dtype": {"type": "DT_FLOAT"}}}, {"name": "unknown_44", "op": "Const", "attr": {"dtype": {"type": "DT_FLOAT"}, "value": {"tensor": {"dtype": "DT_FLOAT", "tensorShape": {"dim": [{"size": "1024"}, {"size": "512"}]}}}}}, {"name": "PartitionedCall/onnx_tf_prefix_BatchNormalization_53/mul", "op": "Const", "attr": {"dtype": {"type": "DT_FLOAT"}, "value": {"tensor": {"dtype": "DT_FLOAT", "tensorShape": {"dim": [{"size": "1"}, {"size": "512"}]}}}}}, {"name": "PartitionedCall/onnx_tf_prefix_BatchNormalization_53/sub", "op": "Const", "attr": {"dtype": {"type": "DT_FLOAT"}, "value": {"tensor": {"dtype": "DT_FLOAT", "tensorShape": {"dim": [{"size": "1"}, {"size": "512"}]}}}}}, {"name": "unknown_49", "op": "Const", "attr": {"value": {"tensor": {"dtype": "DT_FLOAT", "tensorShape": {"dim": [{"size": "512"}, {"size": "19"}]}}}, "dtype": {"type": "DT_FLOAT"}}}, {"name": "input", "op": "Placeholder", "attr": {"dtype": {"type": "DT_FLOAT"}, "shape": {"shape": {"dim": [{"size": "1"}, {"size": "-1"}, {"size": "-1"}, {"size": "3"}]}}}}, {"name": "PartitionedCall/SparseToDense", "op": "SparseToDense", "input": ["PartitionedCall/Where", "PartitionedCall/Cast", "PartitionedCall/GatherV2", "PartitionedCall/zeros_1"], "attr": {"T": {"type": "DT_INT64"}, "Tindices": {"type": "DT_INT64"}, "validate_indices": {"b": true}}}, {"name": "PartitionedCall/onnx_tf_prefix_input_order_convert_transpose_0", "op": "Transpose", "input": ["input", "PartitionedCall/onnx_tf_prefix_input_order_convert_transpose_0/perm"], "attr": {"Tperm": {"type": "DT_INT32"}, "T": {"type": "DT_FLOAT"}}}, {"name": "PartitionedCall/add_21", "op": "AddV2", "input": ["unknown_39", "PartitionedCall/SparseToDense"], "attr": {"T": {"type": "DT_INT64"}}}, {"name": "PartitionedCall/Pad", "op": "Pad", "input": ["PartitionedCall/onnx_tf_prefix_input_order_convert_transpose_0", "PartitionedCall/Const"], "attr": {"Tpaddings": {"type": "DT_INT32"}, "T": {"type": "DT_FLOAT"}}}, {"name": "PartitionedCall/transpose_1", "op": "Transpose", "input": ["PartitionedCall/Pad", "PartitionedCall/transpose_1/perm"], "attr": {"Tperm": {"type": "DT_INT32"}, "T": {"type": "DT_FLOAT"}}}, {"name": "PartitionedCall/convolution", "op": "Conv2D", "input": ["PartitionedCall/transpose_1", "PartitionedCall/split"], "device": "/device:CPU:0", "attr": {"data_format": {"s": "TkhXQw=="}, "strides": {"list": {"i": ["1", "2", "2", "1"]}}, "explicit_paddings": {"list": {}}, "use_cudnn_on_gpu": {"b": true}, "dilations": {"list": {"i": ["1", "1", "1", "1"]}}, "T": {"type": "DT_FLOAT"}, "padding": {"s": "VkFMSUQ="}}}, {"name": "PartitionedCall/Add", "op": "AddV2", "input": ["PartitionedCall/convolution", "unknown_0"], "attr": {"T": {"type": "DT_FLOAT"}}}, {"name": "PartitionedCall/transpose_2", "op": "Transpose", "input": ["PartitionedCall/Add", "PartitionedCall/transpose_2/perm"], "attr": {"Tperm": {"type": "DT_INT32"}, "T": {"type": "DT_FLOAT"}}}, {"name": "PartitionedCall/onnx_tf_prefix_Relu_1", "op": "Relu", "input": ["PartitionedCall/transpose_2"], "attr": {"T": {"type": "DT_FLOAT"}}}, {"name": "PartitionedCall/PadV2", "op": "PadV2", "input": ["PartitionedCall/onnx_tf_prefix_Relu_1", "PartitionedCall/PadV2/paddings", "PartitionedCall/PadV2/constant_values"], "attr": {"Tpaddings": {"type": "DT_INT64"}, "T": {"type": "DT_FLOAT"}}}, {"name": "PartitionedCall/transpose_3", "op": "Transpose", "input": ["PartitionedCall/PadV2", "PartitionedCall/transpose_3/perm"], "attr": {"Tperm": {"type": "DT_INT32"}, "T": {"type": "DT_FLOAT"}}}, {"name": "PartitionedCall/MaxPool2d", "op": "MaxPool", "input": ["PartitionedCall/transpose_3"], "attr": {"T": {"type": "DT_FLOAT"}, "explicit_paddings": {"list": {}}, "ksize": {"list": {"i": ["1", "3", "3", "1"]}}, "padding": {"s": "VkFMSUQ="}, "strides": {"list": {"i": ["1", "2", "2", "1"]}}, "data_format": {"s": "TkhXQw=="}}}, {"name": "PartitionedCall/transpose_4", "op": "Transpose", "input": ["PartitionedCall/MaxPool2d", "PartitionedCall/transpose_4/perm"], "attr": {"T": {"type": "DT_FLOAT"}, "Tperm": {"type": "DT_INT32"}}}, {"name": "PartitionedCall/Pad_1", "op": "Pad", "input": ["PartitionedCall/transpose_4", "PartitionedCall/Const_1"], "attr": {"T": {"type": "DT_FLOAT"}, "Tpaddings": {"type": "DT_INT32"}}}, {"name": "PartitionedCall/transpose_6", "op": "Transpose", "input": ["PartitionedCall/Pad_1", "PartitionedCall/transpose_6/perm"], "attr": {"T": {"type": "DT_FLOAT"}, "Tperm": {"type": "DT_INT32"}}}, {"name": "PartitionedCall/convolution_1", "op": "Conv2D", "input": ["PartitionedCall/transpose_6", "PartitionedCall/split_1"], "device": "/device:CPU:0", "attr": {"use_cudnn_on_gpu": {"b": true}, "padding": {"s": "VkFMSUQ="}, "T": {"type": "DT_FLOAT"}, "explicit_paddings": {"list": {}}, "dilations": {"list": {"i": ["1", "1", "1", "1"]}}, "data_format": {"s": "TkhXQw=="}, "strides": {"list": {"i": ["1", "1", "1", "1"]}}}}, {"name": "PartitionedCall/Add_2", "op": "AddV2", "input": ["PartitionedCall/convolution_1", "unknown_2"], "attr": {"T": {"type": "DT_FLOAT"}}}, {"name": "PartitionedCall/transpose_7", "op": "Transpose", "input": ["PartitionedCall/Add_2", "PartitionedCall/transpose_7/perm"], "attr": {"Tperm": {"type": "DT_INT32"}, "T": {"type": "DT_FLOAT"}}}, {"name": "PartitionedCall/onnx_tf_prefix_Relu_4", "op": "Relu", "input": ["PartitionedCall/transpose_7"], "attr": {"T": {"type": "DT_FLOAT"}}}, {"name": "PartitionedCall/Pad_2", "op": "Pad", "input": ["PartitionedCall/onnx_tf_prefix_Relu_4", "PartitionedCall/Const_2"], "attr": {"T": {"type": "DT_FLOAT"}, "Tpaddings": {"type": "DT_INT32"}}}, {"name": "PartitionedCall/transpose_9", "op": "Transpose", "input": ["PartitionedCall/Pad_2", "PartitionedCall/transpose_9/perm"], "attr": {"T": {"type": "DT_FLOAT"}, "Tperm": {"type": "DT_INT32"}}}, {"name": "PartitionedCall/convolution_2", "op": "Conv2D", "input": ["PartitionedCall/transpose_9", "PartitionedCall/split_2"], "device": "/device:CPU:0", "attr": {"data_format": {"s": "TkhXQw=="}, "explicit_paddings": {"list": {}}, "dilations": {"list": {"i": ["1", "1", "1", "1"]}}, "padding": {"s": "VkFMSUQ="}, "strides": {"list": {"i": ["1", "1", "1", "1"]}}, "T": {"type": "DT_FLOAT"}, "use_cudnn_on_gpu": {"b": true}}}, {"name": "PartitionedCall/Add_3", "op": "AddV2", "input": ["PartitionedCall/convolution_2", "unknown_4"], "attr": {"T": {"type": "DT_FLOAT"}}}, {"name": "PartitionedCall/transpose_10", "op": "Transpose", "input": ["PartitionedCall/Add_3", "PartitionedCall/transpose_10/perm"], "attr": {"Tperm": {"type": "DT_INT32"}, "T": {"type": "DT_FLOAT"}}}, {"name": "PartitionedCall/onnx_tf_prefix_Add_6", "op": "AddV2", "input": ["PartitionedCall/transpose_10", "PartitionedCall/transpose_4"], "attr": {"T": {"type": "DT_FLOAT"}}}, {"name": "PartitionedCall/onnx_tf_prefix_Relu_7", "op": "Relu", "input": ["PartitionedCall/onnx_tf_prefix_Add_6"], "attr": {"T": {"type": "DT_FLOAT"}}}, {"name": "PartitionedCall/Pad_3", "op": "Pad", "input": ["PartitionedCall/onnx_tf_prefix_Relu_7", "PartitionedCall/Const_3"], "attr": {"Tpaddings": {"type": "DT_INT32"}, "T": {"type": "DT_FLOAT"}}}, {"name": "PartitionedCall/transpose_12", "op": "Transpose", "input": ["PartitionedCall/Pad_3", "PartitionedCall/transpose_12/perm"], "attr": {"T": {"type": "DT_FLOAT"}, "Tperm": {"type": "DT_INT32"}}}, {"name": "PartitionedCall/convolution_3", "op": "Conv2D", "input": ["PartitionedCall/transpose_12", "PartitionedCall/split_3"], "device": "/device:CPU:0", "attr": {"explicit_paddings": {"list": {}}, "padding": {"s": "VkFMSUQ="}, "T": {"type": "DT_FLOAT"}, "strides": {"list": {"i": ["1", "1", "1", "1"]}}, "use_cudnn_on_gpu": {"b": true}, "data_format": {"s": "TkhXQw=="}, "dilations": {"list": {"i": ["1", "1", "1", "1"]}}}}, {"name": "PartitionedCall/Add_4", "op": "AddV2", "input": ["PartitionedCall/convolution_3", "unknown_6"], "attr": {"T": {"type": "DT_FLOAT"}}}, {"name": "PartitionedCall/transpose_13", "op": "Transpose", "input": ["PartitionedCall/Add_4", "PartitionedCall/transpose_13/perm"], "attr": {"Tperm": {"type": "DT_INT32"}, "T": {"type": "DT_FLOAT"}}}, {"name": "PartitionedCall/onnx_tf_prefix_Relu_9", "op": "Relu", "input": ["PartitionedCall/transpose_13"], "attr": {"T": {"type": "DT_FLOAT"}}}, {"name": "PartitionedCall/Pad_4", "op": "Pad", "input": ["PartitionedCall/onnx_tf_prefix_Relu_9", "PartitionedCall/Const_4"], "attr": {"Tpaddings": {"type": "DT_INT32"}, "T": {"type": "DT_FLOAT"}}}, {"name": "PartitionedCall/transpose_15", "op": "Transpose", "input": ["PartitionedCall/Pad_4", "PartitionedCall/transpose_15/perm"], "attr": {"Tperm": {"type": "DT_INT32"}, "T": {"type": "DT_FLOAT"}}}, {"name": "PartitionedCall/convolution_4", "op": "Conv2D", "input": ["PartitionedCall/transpose_15", "PartitionedCall/split_4"], "device": "/device:CPU:0", "attr": {"dilations": {"list": {"i": ["1", "1", "1", "1"]}}, "explicit_paddings": {"list": {}}, "data_format": {"s": "TkhXQw=="}, "use_cudnn_on_gpu": {"b": true}, "T": {"type": "DT_FLOAT"}, "strides": {"list": {"i": ["1", "1", "1", "1"]}}, "padding": {"s": "VkFMSUQ="}}}, {"name": "PartitionedCall/Add_5", "op": "AddV2", "input": ["PartitionedCall/convolution_4", "unknown_8"], "attr": {"T": {"type": "DT_FLOAT"}}}, {"name": "PartitionedCall/transpose_16", "op": "Transpose", "input": ["PartitionedCall/Add_5", "PartitionedCall/transpose_16/perm"], "attr": {"Tperm": {"type": "DT_INT32"}, "T": {"type": "DT_FLOAT"}}}, {"name": "PartitionedCall/onnx_tf_prefix_Add_11", "op": "AddV2", "input": ["PartitionedCall/transpose_16", "PartitionedCall/onnx_tf_prefix_Relu_7"], "attr": {"T": {"type": "DT_FLOAT"}}}, {"name": "PartitionedCall/onnx_tf_prefix_Relu_12", "op": "Relu", "input": ["PartitionedCall/onnx_tf_prefix_Add_11"], "attr": {"T": {"type": "DT_FLOAT"}}}, {"name": "PartitionedCall/Pad_5", "op": "Pad", "input": ["PartitionedCall/onnx_tf_prefix_Relu_12", "PartitionedCall/Const_5"], "attr": {"Tpaddings": {"type": "DT_INT32"}, "T": {"type": "DT_FLOAT"}}}, {"name": "PartitionedCall/transpose_21", "op": "Transpose", "input": ["PartitionedCall/onnx_tf_prefix_Relu_12", "PartitionedCall/transpose_21/perm"], "attr": {"Tperm": {"type": "DT_INT32"}, "T": {"type": "DT_FLOAT"}}}, {"name": "PartitionedCall/transpose_18", "op": "Transpose", "input": ["PartitionedCall/Pad_5", "PartitionedCall/transpose_18/perm"], "attr": {"T": {"type": "DT_FLOAT"}, "Tperm": {"type": "DT_INT32"}}}, {"name": "PartitionedCall/convolution_6", "op": "Conv2D", "input": ["PartitionedCall/transpose_21", "PartitionedCall/split_6"], "device": "/device:CPU:0", "attr": {"use_cudnn_on_gpu": {"b": true}, "T": {"type": "DT_FLOAT"}, "dilations": {"list": {"i": ["1", "1", "1", "1"]}}, "padding": {"s": "VkFMSUQ="}, "strides": {"list": {"i": ["1", "2", "2", "1"]}}, "explicit_paddings": {"list": {}}, "data_format": {"s": "TkhXQw=="}}}, {"name": "PartitionedCall/convolution_5", "op": "Conv2D", "input": ["PartitionedCall/transpose_18", "PartitionedCall/split_5"], "device": "/device:CPU:0", "attr": {"explicit_paddings": {"list": {}}, "dilations": {"list": {"i": ["1", "1", "1", "1"]}}, "T": {"type": "DT_FLOAT"}, "use_cudnn_on_gpu": {"b": true}, "strides": {"list": {"i": ["1", "2", "2", "1"]}}, "data_format": {"s": "TkhXQw=="}, "padding": {"s": "VkFMSUQ="}}}, {"name": "PartitionedCall/Add_7", "op": "AddV2", "input": ["PartitionedCall/convolution_6", "unknown_12"], "attr": {"T": {"type": "DT_FLOAT"}}}, {"name": "PartitionedCall/Add_6", "op": "AddV2", "input": ["PartitionedCall/convolution_5", "unknown_10"], "attr": {"T": {"type": "DT_FLOAT"}}}, {"name": "PartitionedCall/transpose_22", "op": "Transpose", "input": ["PartitionedCall/Add_7", "PartitionedCall/transpose_22/perm"], "attr": {"T": {"type": "DT_FLOAT"}, "Tperm": {"type": "DT_INT32"}}}, {"name": "PartitionedCall/transpose_19", "op": "Transpose", "input": ["PartitionedCall/Add_6", "PartitionedCall/transpose_19/perm"], "attr": {"Tperm": {"type": "DT_INT32"}, "T": {"type": "DT_FLOAT"}}}, {"name": "PartitionedCall/onnx_tf_prefix_Relu_14", "op": "Relu", "input": ["PartitionedCall/transpose_19"], "attr": {"T": {"type": "DT_FLOAT"}}}, {"name": "PartitionedCall/Pad_6", "op": "Pad", "input": ["PartitionedCall/onnx_tf_prefix_Relu_14", "PartitionedCall/Const_6"], "attr": {"Tpaddings": {"type": "DT_INT32"}, "T": {"type": "DT_FLOAT"}}}, {"name": "PartitionedCall/transpose_24", "op": "Transpose", "input": ["PartitionedCall/Pad_6", "PartitionedCall/transpose_24/perm"], "attr": {"T": {"type": "DT_FLOAT"}, "Tperm": {"type": "DT_INT32"}}}, {"name": "PartitionedCall/convolution_7", "op": "Conv2D", "input": ["PartitionedCall/transpose_24", "PartitionedCall/split_7"], "device": "/device:CPU:0", "attr": {"data_format": {"s": "TkhXQw=="}, "use_cudnn_on_gpu": {"b": true}, "padding": {"s": "VkFMSUQ="}, "strides": {"list": {"i": ["1", "1", "1", "1"]}}, "dilations": {"list": {"i": ["1", "1", "1", "1"]}}, "T": {"type": "DT_FLOAT"}, "explicit_paddings": {"list": {}}}}, {"name": "PartitionedCall/Add_8", "op": "AddV2", "input": ["PartitionedCall/convolution_7", "unknown_14"], "attr": {"T": {"type": "DT_FLOAT"}}}, {"name": "PartitionedCall/transpose_25", "op": "Transpose", "input": ["PartitionedCall/Add_8", "PartitionedCall/transpose_25/perm"], "attr": {"T": {"type": "DT_FLOAT"}, "Tperm": {"type": "DT_INT32"}}}, {"name": "PartitionedCall/onnx_tf_prefix_Add_17", "op": "AddV2", "input": ["PartitionedCall/transpose_25", "PartitionedCall/transpose_22"], "attr": {"T": {"type": "DT_FLOAT"}}}, {"name": "PartitionedCall/onnx_tf_prefix_Relu_18", "op": "Relu", "input": ["PartitionedCall/onnx_tf_prefix_Add_17"], "attr": {"T": {"type": "DT_FLOAT"}}}, {"name": "PartitionedCall/Pad_7", "op": "Pad", "input": ["PartitionedCall/onnx_tf_prefix_Relu_18", "PartitionedCall/Const_7"], "attr": {"T": {"type": "DT_FLOAT"}, "Tpaddings": {"type": "DT_INT32"}}}, {"name": "PartitionedCall/transpose_27", "op": "Transpose", "input": ["PartitionedCall/Pad_7", "PartitionedCall/transpose_27/perm"], "attr": {"Tperm": {"type": "DT_INT32"}, "T": {"type": "DT_FLOAT"}}}, {"name": "PartitionedCall/convolution_8", "op": "Conv2D", "input": ["PartitionedCall/transpose_27", "PartitionedCall/split_8"], "device": "/device:CPU:0", "attr": {"dilations": {"list": {"i": ["1", "1", "1", "1"]}}, "data_format": {"s": "TkhXQw=="}, "strides": {"list": {"i": ["1", "1", "1", "1"]}}, "use_cudnn_on_gpu": {"b": true}, "explicit_paddings": {"list": {}}, "padding": {"s": "VkFMSUQ="}, "T": {"type": "DT_FLOAT"}}}, {"name": "PartitionedCall/Add_9", "op": "AddV2", "input": ["PartitionedCall/convolution_8", "unknown_16"], "attr": {"T": {"type": "DT_FLOAT"}}}, {"name": "PartitionedCall/transpose_28", "op": "Transpose", "input": ["PartitionedCall/Add_9", "PartitionedCall/transpose_28/perm"], "attr": {"Tperm": {"type": "DT_INT32"}, "T": {"type": "DT_FLOAT"}}}, {"name": "PartitionedCall/onnx_tf_prefix_Relu_20", "op": "Relu", "input": ["PartitionedCall/transpose_28"], "attr": {"T": {"type": "DT_FLOAT"}}}, {"name": "PartitionedCall/Pad_8", "op": "Pad", "input": ["PartitionedCall/onnx_tf_prefix_Relu_20", "PartitionedCall/Const_8"], "attr": {"Tpaddings": {"type": "DT_INT32"}, "T": {"type": "DT_FLOAT"}}}, {"name": "PartitionedCall/transpose_30", "op": "Transpose", "input": ["PartitionedCall/Pad_8", "PartitionedCall/transpose_30/perm"], "attr": {"T": {"type": "DT_FLOAT"}, "Tperm": {"type": "DT_INT32"}}}, {"name": "PartitionedCall/convolution_9", "op": "Conv2D", "input": ["PartitionedCall/transpose_30", "PartitionedCall/split_9"], "device": "/device:CPU:0", "attr": {"strides": {"list": {"i": ["1", "1", "1", "1"]}}, "T": {"type": "DT_FLOAT"}, "data_format": {"s": "TkhXQw=="}, "padding": {"s": "VkFMSUQ="}, "use_cudnn_on_gpu": {"b": true}, "dilations": {"list": {"i": ["1", "1", "1", "1"]}}, "explicit_paddings": {"list": {}}}}, {"name": "PartitionedCall/Add_10", "op": "AddV2", "input": ["PartitionedCall/convolution_9", "unknown_18"], "attr": {"T": {"type": "DT_FLOAT"}}}, {"name": "PartitionedCall/transpose_31", "op": "Transpose", "input": ["PartitionedCall/Add_10", "PartitionedCall/transpose_31/perm"], "attr": {"T": {"type": "DT_FLOAT"}, "Tperm": {"type": "DT_INT32"}}}, {"name": "PartitionedCall/onnx_tf_prefix_Add_22", "op": "AddV2", "input": ["PartitionedCall/transpose_31", "PartitionedCall/onnx_tf_prefix_Relu_18"], "attr": {"T": {"type": "DT_FLOAT"}}}, {"name": "PartitionedCall/onnx_tf_prefix_Relu_23", "op": "Relu", "input": ["PartitionedCall/onnx_tf_prefix_Add_22"], "attr": {"T": {"type": "DT_FLOAT"}}}, {"name": "PartitionedCall/Pad_9", "op": "Pad", "input": ["PartitionedCall/onnx_tf_prefix_Relu_23", "PartitionedCall/Const_9"], "attr": {"T": {"type": "DT_FLOAT"}, "Tpaddings": {"type": "DT_INT32"}}}, {"name": "PartitionedCall/transpose_36", "op": "Transpose", "input": ["PartitionedCall/onnx_tf_prefix_Relu_23", "PartitionedCall/transpose_36/perm"], "attr": {"Tperm": {"type": "DT_INT32"}, "T": {"type": "DT_FLOAT"}}}, {"name": "PartitionedCall/transpose_33", "op": "Transpose", "input": ["PartitionedCall/Pad_9", "PartitionedCall/transpose_33/perm"], "attr": {"T": {"type": "DT_FLOAT"}, "Tperm": {"type": "DT_INT32"}}}, {"name": "PartitionedCall/convolution_11", "op": "Conv2D", "input": ["PartitionedCall/transpose_36", "PartitionedCall/split_11"], "device": "/device:CPU:0", "attr": {"explicit_paddings": {"list": {}}, "padding": {"s": "VkFMSUQ="}, "data_format": {"s": "TkhXQw=="}, "T": {"type": "DT_FLOAT"}, "dilations": {"list": {"i": ["1", "1", "1", "1"]}}, "use_cudnn_on_gpu": {"b": true}, "strides": {"list": {"i": ["1", "2", "2", "1"]}}}}, {"name": "PartitionedCall/convolution_10", "op": "Conv2D", "input": ["PartitionedCall/transpose_33", "PartitionedCall/split_10"], "device": "/device:CPU:0", "attr": {"padding": {"s": "VkFMSUQ="}, "dilations": {"list": {"i": ["1", "1", "1", "1"]}}, "T": {"type": "DT_FLOAT"}, "explicit_paddings": {"list": {}}, "strides": {"list": {"i": ["1", "2", "2", "1"]}}, "data_format": {"s": "TkhXQw=="}, "use_cudnn_on_gpu": {"b": true}}}, {"name": "PartitionedCall/Add_12", "op": "AddV2", "input": ["PartitionedCall/convolution_11", "unknown_22"], "attr": {"T": {"type": "DT_FLOAT"}}}, {"name": "PartitionedCall/Add_11", "op": "AddV2", "input": ["PartitionedCall/convolution_10", "unknown_20"], "attr": {"T": {"type": "DT_FLOAT"}}}, {"name": "PartitionedCall/transpose_37", "op": "Transpose", "input": ["PartitionedCall/Add_12", "PartitionedCall/transpose_37/perm"], "attr": {"T": {"type": "DT_FLOAT"}, "Tperm": {"type": "DT_INT32"}}}, {"name": "PartitionedCall/transpose_34", "op": "Transpose", "input": ["PartitionedCall/Add_11", "PartitionedCall/transpose_34/perm"], "attr": {"Tperm": {"type": "DT_INT32"}, "T": {"type": "DT_FLOAT"}}}, {"name": "PartitionedCall/onnx_tf_prefix_Relu_25", "op": "Relu", "input": ["PartitionedCall/transpose_34"], "attr": {"T": {"type": "DT_FLOAT"}}}, {"name": "PartitionedCall/Pad_10", "op": "Pad", "input": ["PartitionedCall/onnx_tf_prefix_Relu_25", "PartitionedCall/Const_10"], "attr": {"T": {"type": "DT_FLOAT"}, "Tpaddings": {"type": "DT_INT32"}}}, {"name": "PartitionedCall/transpose_39", "op": "Transpose", "input": ["PartitionedCall/Pad_10", "PartitionedCall/transpose_39/perm"], "attr": {"Tperm": {"type": "DT_INT32"}, "T": {"type": "DT_FLOAT"}}}, {"name": "PartitionedCall/convolution_12", "op": "Conv2D", "input": ["PartitionedCall/transpose_39", "PartitionedCall/split_12"], "device": "/device:CPU:0", "attr": {"T": {"type": "DT_FLOAT"}, "padding": {"s": "VkFMSUQ="}, "strides": {"list": {"i": ["1", "1", "1", "1"]}}, "dilations": {"list": {"i": ["1", "1", "1", "1"]}}, "explicit_paddings": {"list": {}}, "use_cudnn_on_gpu": {"b": true}, "data_format": {"s": "TkhXQw=="}}}, {"name": "PartitionedCall/Add_13", "op": "AddV2", "input": ["PartitionedCall/convolution_12", "unknown_24"], "attr": {"T": {"type": "DT_FLOAT"}}}, {"name": "PartitionedCall/transpose_40", "op": "Transpose", "input": ["PartitionedCall/Add_13", "PartitionedCall/transpose_40/perm"], "attr": {"Tperm": {"type": "DT_INT32"}, "T": {"type": "DT_FLOAT"}}}, {"name": "PartitionedCall/onnx_tf_prefix_Add_28", "op": "AddV2", "input": ["PartitionedCall/transpose_40", "PartitionedCall/transpose_37"], "attr": {"T": {"type": "DT_FLOAT"}}}, {"name": "PartitionedCall/onnx_tf_prefix_Relu_29", "op": "Relu", "input": ["PartitionedCall/onnx_tf_prefix_Add_28"], "attr": {"T": {"type": "DT_FLOAT"}}}, {"name": "PartitionedCall/Pad_11", "op": "Pad", "input": ["PartitionedCall/onnx_tf_prefix_Relu_29", "PartitionedCall/Const_11"], "attr": {"Tpaddings": {"type": "DT_INT32"}, "T": {"type": "DT_FLOAT"}}}, {"name": "PartitionedCall/transpose_42", "op": "Transpose", "input": ["PartitionedCall/Pad_11", "PartitionedCall/transpose_42/perm"], "attr": {"T": {"type": "DT_FLOAT"}, "Tperm": {"type": "DT_INT32"}}}, {"name": "PartitionedCall/convolution_13", "op": "Conv2D", "input": ["PartitionedCall/transpose_42", "PartitionedCall/split_13"], "device": "/device:CPU:0", "attr": {"use_cudnn_on_gpu": {"b": true}, "strides": {"list": {"i": ["1", "1", "1", "1"]}}, "T": {"type": "DT_FLOAT"}, "dilations": {"list": {"i": ["1", "1", "1", "1"]}}, "data_format": {"s": "TkhXQw=="}, "padding": {"s": "VkFMSUQ="}, "explicit_paddings": {"list": {}}}}, {"name": "PartitionedCall/Add_14", "op": "AddV2", "input": ["PartitionedCall/convolution_13", "unknown_26"], "attr": {"T": {"type": "DT_FLOAT"}}}, {"name": "PartitionedCall/transpose_43", "op": "Transpose", "input": ["PartitionedCall/Add_14", "PartitionedCall/transpose_43/perm"], "attr": {"T": {"type": "DT_FLOAT"}, "Tperm": {"type": "DT_INT32"}}}, {"name": "PartitionedCall/onnx_tf_prefix_Relu_31", "op": "Relu", "input": ["PartitionedCall/transpose_43"], "attr": {"T": {"type": "DT_FLOAT"}}}, {"name": "PartitionedCall/Pad_12", "op": "Pad", "input": ["PartitionedCall/onnx_tf_prefix_Relu_31", "PartitionedCall/Const_12"], "attr": {"T": {"type": "DT_FLOAT"}, "Tpaddings": {"type": "DT_INT32"}}}, {"name": "PartitionedCall/transpose_45", "op": "Transpose", "input": ["PartitionedCall/Pad_12", "PartitionedCall/transpose_45/perm"], "attr": {"Tperm": {"type": "DT_INT32"}, "T": {"type": "DT_FLOAT"}}}, {"name": "PartitionedCall/convolution_14", "op": "Conv2D", "input": ["PartitionedCall/transpose_45", "PartitionedCall/split_14"], "device": "/device:CPU:0", "attr": {"explicit_paddings": {"list": {}}, "data_format": {"s": "TkhXQw=="}, "padding": {"s": "VkFMSUQ="}, "strides": {"list": {"i": ["1", "1", "1", "1"]}}, "use_cudnn_on_gpu": {"b": true}, "dilations": {"list": {"i": ["1", "1", "1", "1"]}}, "T": {"type": "DT_FLOAT"}}}, {"name": "PartitionedCall/Add_15", "op": "AddV2", "input": ["PartitionedCall/convolution_14", "unknown_28"], "attr": {"T": {"type": "DT_FLOAT"}}}, {"name": "PartitionedCall/transpose_46", "op": "Transpose", "input": ["PartitionedCall/Add_15", "PartitionedCall/transpose_46/perm"], "attr": {"Tperm": {"type": "DT_INT32"}, "T": {"type": "DT_FLOAT"}}}, {"name": "PartitionedCall/onnx_tf_prefix_Add_33", "op": "AddV2", "input": ["PartitionedCall/transpose_46", "PartitionedCall/onnx_tf_prefix_Relu_29"], "attr": {"T": {"type": "DT_FLOAT"}}}, {"name": "PartitionedCall/onnx_tf_prefix_Relu_34", "op": "Relu", "input": ["PartitionedCall/onnx_tf_prefix_Add_33"], "attr": {"T": {"type": "DT_FLOAT"}}}, {"name": "PartitionedCall/Pad_13", "op": "Pad", "input": ["PartitionedCall/onnx_tf_prefix_Relu_34", "PartitionedCall/Const_13"], "attr": {"Tpaddings": {"type": "DT_INT32"}, "T": {"type": "DT_FLOAT"}}}, {"name": "PartitionedCall/transpose_51", "op": "Transpose", "input": ["PartitionedCall/onnx_tf_prefix_Relu_34", "PartitionedCall/transpose_51/perm"], "attr": {"Tperm": {"type": "DT_INT32"}, "T": {"type": "DT_FLOAT"}}}, {"name": "PartitionedCall/transpose_48", "op": "Transpose", "input": ["PartitionedCall/Pad_13", "PartitionedCall/transpose_48/perm"], "attr": {"T": {"type": "DT_FLOAT"}, "Tperm": {"type": "DT_INT32"}}}, {"name": "PartitionedCall/convolution_16", "op": "Conv2D", "input": ["PartitionedCall/transpose_51", "PartitionedCall/split_16"], "device": "/device:CPU:0", "attr": {"dilations": {"list": {"i": ["1", "1", "1", "1"]}}, "explicit_paddings": {"list": {}}, "T": {"type": "DT_FLOAT"}, "data_format": {"s": "TkhXQw=="}, "strides": {"list": {"i": ["1", "2", "2", "1"]}}, "use_cudnn_on_gpu": {"b": true}, "padding": {"s": "VkFMSUQ="}}}, {"name": "PartitionedCall/convolution_15", "op": "Conv2D", "input": ["PartitionedCall/transpose_48", "PartitionedCall/split_15"], "device": "/device:CPU:0", "attr": {"padding": {"s": "VkFMSUQ="}, "use_cudnn_on_gpu": {"b": true}, "dilations": {"list": {"i": ["1", "1", "1", "1"]}}, "strides": {"list": {"i": ["1", "2", "2", "1"]}}, "T": {"type": "DT_FLOAT"}, "explicit_paddings": {"list": {}}, "data_format": {"s": "TkhXQw=="}}}, {"name": "PartitionedCall/Add_17", "op": "AddV2", "input": ["PartitionedCall/convolution_16", "unknown_32"], "attr": {"T": {"type": "DT_FLOAT"}}}, {"name": "PartitionedCall/Add_16", "op": "AddV2", "input": ["PartitionedCall/convolution_15", "unknown_30"], "attr": {"T": {"type": "DT_FLOAT"}}}, {"name": "PartitionedCall/transpose_52", "op": "Transpose", "input": ["PartitionedCall/Add_17", "PartitionedCall/transpose_52/perm"], "attr": {"Tperm": {"type": "DT_INT32"}, "T": {"type": "DT_FLOAT"}}}, {"name": "PartitionedCall/transpose_49", "op": "Transpose", "input": ["PartitionedCall/Add_16", "PartitionedCall/transpose_49/perm"], "attr": {"Tperm": {"type": "DT_INT32"}, "T": {"type": "DT_FLOAT"}}}, {"name": "PartitionedCall/onnx_tf_prefix_Relu_36", "op": "Relu", "input": ["PartitionedCall/transpose_49"], "attr": {"T": {"type": "DT_FLOAT"}}}, {"name": "PartitionedCall/Pad_14", "op": "Pad", "input": ["PartitionedCall/onnx_tf_prefix_Relu_36", "PartitionedCall/Const_14"], "attr": {"T": {"type": "DT_FLOAT"}, "Tpaddings": {"type": "DT_INT32"}}}, {"name": "PartitionedCall/transpose_54", "op": "Transpose", "input": ["PartitionedCall/Pad_14", "PartitionedCall/transpose_54/perm"], "attr": {"T": {"type": "DT_FLOAT"}, "Tperm": {"type": "DT_INT32"}}}, {"name": "PartitionedCall/convolution_17", "op": "Conv2D", "input": ["PartitionedCall/transpose_54", "PartitionedCall/split_17"], "device": "/device:CPU:0", "attr": {"strides": {"list": {"i": ["1", "1", "1", "1"]}}, "dilations": {"list": {"i": ["1", "1", "1", "1"]}}, "data_format": {"s": "TkhXQw=="}, "use_cudnn_on_gpu": {"b": true}, "padding": {"s": "VkFMSUQ="}, "T": {"type": "DT_FLOAT"}, "explicit_paddings": {"list": {}}}}, {"name": "PartitionedCall/Add_18", "op": "AddV2", "input": ["PartitionedCall/convolution_17", "unknown_34"], "attr": {"T": {"type": "DT_FLOAT"}}}, {"name": "PartitionedCall/transpose_55", "op": "Transpose", "input": ["PartitionedCall/Add_18", "PartitionedCall/transpose_55/perm"], "attr": {"Tperm": {"type": "DT_INT32"}, "T": {"type": "DT_FLOAT"}}}, {"name": "PartitionedCall/onnx_tf_prefix_Add_39", "op": "AddV2", "input": ["PartitionedCall/transpose_55", "PartitionedCall/transpose_52"], "attr": {"T": {"type": "DT_FLOAT"}}}, {"name": "PartitionedCall/onnx_tf_prefix_Relu_40", "op": "Relu", "input": ["PartitionedCall/onnx_tf_prefix_Add_39"], "attr": {"T": {"type": "DT_FLOAT"}}}, {"name": "PartitionedCall/Pad_15", "op": "Pad", "input": ["PartitionedCall/onnx_tf_prefix_Relu_40", "PartitionedCall/Const_15"], "attr": {"T": {"type": "DT_FLOAT"}, "Tpaddings": {"type": "DT_INT32"}}}, {"name": "PartitionedCall/transpose_57", "op": "Transpose", "input": ["PartitionedCall/Pad_15", "PartitionedCall/transpose_57/perm"], "attr": {"Tperm": {"type": "DT_INT32"}, "T": {"type": "DT_FLOAT"}}}, {"name": "PartitionedCall/convolution_18", "op": "Conv2D", "input": ["PartitionedCall/transpose_57", "PartitionedCall/split_18"], "device": "/device:CPU:0", "attr": {"data_format": {"s": "TkhXQw=="}, "use_cudnn_on_gpu": {"b": true}, "explicit_paddings": {"list": {}}, "dilations": {"list": {"i": ["1", "1", "1", "1"]}}, "padding": {"s": "VkFMSUQ="}, "T": {"type": "DT_FLOAT"}, "strides": {"list": {"i": ["1", "1", "1", "1"]}}}}, {"name": "PartitionedCall/Add_19", "op": "AddV2", "input": ["PartitionedCall/convolution_18", "unknown_36"], "attr": {"T": {"type": "DT_FLOAT"}}}, {"name": "PartitionedCall/transpose_58", "op": "Transpose", "input": ["PartitionedCall/Add_19", "PartitionedCall/transpose_58/perm"], "attr": {"Tperm": {"type": "DT_INT32"}, "T": {"type": "DT_FLOAT"}}}, {"name": "PartitionedCall/onnx_tf_prefix_Relu_42", "op": "Relu", "input": ["PartitionedCall/transpose_58"], "attr": {"T": {"type": "DT_FLOAT"}}}, {"name": "PartitionedCall/Pad_16", "op": "Pad", "input": ["PartitionedCall/onnx_tf_prefix_Relu_42", "PartitionedCall/Const_16"], "attr": {"Tpaddings": {"type": "DT_INT32"}, "T": {"type": "DT_FLOAT"}}}, {"name": "PartitionedCall/transpose_60", "op": "Transpose", "input": ["PartitionedCall/Pad_16", "PartitionedCall/transpose_60/perm"], "attr": {"T": {"type": "DT_FLOAT"}, "Tperm": {"type": "DT_INT32"}}}, {"name": "PartitionedCall/convolution_19", "op": "Conv2D", "input": ["PartitionedCall/transpose_60", "PartitionedCall/split_19"], "device": "/device:CPU:0", "attr": {"T": {"type": "DT_FLOAT"}, "padding": {"s": "VkFMSUQ="}, "data_format": {"s": "TkhXQw=="}, "dilations": {"list": {"i": ["1", "1", "1", "1"]}}, "strides": {"list": {"i": ["1", "1", "1", "1"]}}, "use_cudnn_on_gpu": {"b": true}, "explicit_paddings": {"list": {}}}}, {"name": "PartitionedCall/Add_20", "op": "AddV2", "input": ["PartitionedCall/convolution_19", "unknown_38"], "attr": {"T": {"type": "DT_FLOAT"}}}, {"name": "PartitionedCall/transpose_61", "op": "Transpose", "input": ["PartitionedCall/Add_20", "PartitionedCall/transpose_61/perm"], "attr": {"Tperm": {"type": "DT_INT32"}, "T": {"type": "DT_FLOAT"}}}, {"name": "PartitionedCall/onnx_tf_prefix_Add_44", "op": "AddV2", "input": ["PartitionedCall/transpose_61", "PartitionedCall/onnx_tf_prefix_Relu_40"], "attr": {"T": {"type": "DT_FLOAT"}}}, {"name": "PartitionedCall/onnx_tf_prefix_Relu_45", "op": "Relu", "input": ["PartitionedCall/onnx_tf_prefix_Add_44"], "attr": {"T": {"type": "DT_FLOAT"}}}, {"name": "PartitionedCall/Max", "op": "Max", "input": ["PartitionedCall/onnx_tf_prefix_Relu_45", "ConstantFolding/PartitionedCall/split_20-folded-1"], "attr": {"T": {"type": "DT_FLOAT"}, "keep_dims": {"b": true}, "Tidx": {"type": "DT_INT32"}}}, {"name": "PartitionedCall/Mean", "op": "Mean", "input": ["PartitionedCall/onnx_tf_prefix_Relu_45", "ConstantFolding/PartitionedCall/split_21-folded-1"], "attr": {"T": {"type": "DT_FLOAT"}, "keep_dims": {"b": true}, "Tidx": {"type": "DT_INT32"}}}, {"name": "PartitionedCall/onnx_tf_prefix_Concat_48", "op": "ConcatV2", "input": ["PartitionedCall/Max", "PartitionedCall/Mean", "PartitionedCall/onnx_tf_prefix_Concat_48/axis"], "attr": {"T": {"type": "DT_FLOAT"}, "Tidx": {"type": "DT_INT32"}, "N": {"i": "2"}}}, {"name": "PartitionedCall/onnx_tf_prefix_Reshape_49", "op": "Reshape", "input": ["PartitionedCall/onnx_tf_prefix_Concat_48", "PartitionedCall/add_21"], "attr": {"T": {"type": "DT_FLOAT"}, "Tshape": {"type": "DT_INT64"}}}, {"name": "PartitionedCall/onnx_tf_prefix_BatchNormalization_50/mul_1", "op": "Mul", "input": ["PartitionedCall/onnx_tf_prefix_Reshape_49", "PartitionedCall/onnx_tf_prefix_BatchNormalization_50/mul"], "attr": {"T": {"type": "DT_FLOAT"}}}, {"name": "PartitionedCall/onnx_tf_prefix_BatchNormalization_50/add_1", "op": "AddV2", "input": ["PartitionedCall/onnx_tf_prefix_BatchNormalization_50/mul_1", "PartitionedCall/onnx_tf_prefix_BatchNormalization_50/sub"], "attr": {"T": {"type": "DT_FLOAT"}}}, {"name": "PartitionedCall/onnx_tf_prefix_MatMul_51", "op": "MatMul", "input": ["PartitionedCall/onnx_tf_prefix_BatchNormalization_50/add_1", "unknown_44"], "device": "/device:CPU:0", "attr": {"transpose_a": {"b": false}, "T": {"type": "DT_FLOAT"}, "transpose_b": {"b": false}}}, {"name": "PartitionedCall/onnx_tf_prefix_Relu_52", "op": "Relu", "input": ["PartitionedCall/onnx_tf_prefix_MatMul_51"], "attr": {"T": {"type": "DT_FLOAT"}}}, {"name": "PartitionedCall/onnx_tf_prefix_BatchNormalization_53/mul_1", "op": "Mul", "input": ["PartitionedCall/onnx_tf_prefix_Relu_52", "PartitionedCall/onnx_tf_prefix_BatchNormalization_53/mul"], "attr": {"T": {"type": "DT_FLOAT"}}}, {"name": "PartitionedCall/onnx_tf_prefix_BatchNormalization_53/add_1", "op": "AddV2", "input": ["PartitionedCall/onnx_tf_prefix_BatchNormalization_53/mul_1", "PartitionedCall/onnx_tf_prefix_BatchNormalization_53/sub"], "attr": {"T": {"type": "DT_FLOAT"}}}, {"name": "PartitionedCall/onnx_tf_prefix_MatMul_54", "op": "MatMul", "input": ["PartitionedCall/onnx_tf_prefix_BatchNormalization_53/add_1", "unknown_49"], "device": "/device:CPU:0", "attr": {"transpose_a": {"b": false}, "T": {"type": "DT_FLOAT"}, "transpose_b": {"b": false}}}, {"name": "Identity", "op": "Identity", "input": ["PartitionedCall/onnx_tf_prefix_MatMul_54"], "attr": {"T": {"type": "DT_FLOAT"}}}], "library": {}, "versions": {"producer": 1205}}, "weightsManifest": [{"paths": ["group1-shard1of3.bin", "group1-shard2of3.bin", "group1-shard3of3.bin"], "weights": [{"name": "ConstantFolding/PartitionedCall/split_20-folded-1", "shape": [2], "dtype": "int32"}, {"name": "PartitionedCall/Const_15", "shape": [4, 2], "dtype": "int32"}, {"name": "PartitionedCall/transpose_57/perm", "shape": [4], "dtype": "int32"}, {"name": "PartitionedCall/split_18", "shape": [3, 3, 512, 512], "dtype": "float32", "quantization": {"dtype": "uint8", "min": -0.13274007836977642, "scale": 0.0015992780526479086, "original_dtype": "float32"}}, {"name": "unknown_36", "shape": [512], "dtype": "float32", "quantization": {"dtype": "uint8", "min": -0.5545389960793887, "scale": 0.005776447875826966, "original_dtype": "float32"}}, {"name": "PartitionedCall/transpose_58/perm", "shape": [4], "dtype": "int32"}, {"name": "PartitionedCall/Const_16", "shape": [4, 2], "dtype": "int32"}, {"name": "PartitionedCall/transpose_60/perm", "shape": [4], "dtype": "int32"}, {"name": "PartitionedCall/split_19", "shape": [3, 3, 512, 512], "dtype": "float32", "quantization": {"dtype": "uint8", "min": -2.5021127008924298, "scale": 0.025531762254004386, "original_dtype": "float32"}}, {"name": "unknown_38", "shape": [512], "dtype": "float32", "quantization": {"dtype": "uint8", "min": -1.383623280244715, "scale": 0.02196227428959865, "original_dtype": "float32"}}, {"name": "PartitionedCall/transpose_61/perm", "shape": [4], "dtype": "int32"}, {"name": "PartitionedCall/Const_13", "shape": [4, 2], "dtype": "int32"}, {"name": "PartitionedCall/transpose_48/perm", "shape": [4], "dtype": "int32"}, {"name": "PartitionedCall/split_15", "shape": [3, 3, 256, 512], "dtype": "float32", "quantization": {"dtype": "uint8", "min": -0.15471099404727712, "scale": 0.001700120813706342, "original_dtype": "float32"}}, {"name": "unknown_30", "shape": [512], "dtype": "float32", "quantization": {"dtype": "uint8", "min": -0.5185701632032207, "scale": 0.00563663220873066, "original_dtype": "float32"}}, {"name": "PartitionedCall/transpose_49/perm", "shape": [4], "dtype": "int32"}, {"name": "PartitionedCall/Const_14", "shape": [4, 2], "dtype": "int32"}, {"name": "PartitionedCall/transpose_54/perm", "shape": [4], "dtype": "int32"}, {"name": "PartitionedCall/split_17", "shape": [3, 3, 512, 512], "dtype": "float32", "quantization": {"dtype": "uint8", "min": -0.5438674891696257, "scale": 0.006714413446538589, "original_dtype": "float32"}}, {"name": "unknown_34", "shape": [512], "dtype": "float32", "quantization": {"dtype": "uint8", "min": -0.8607098298914293, "scale": 0.007754142611634498, "original_dtype": "float32"}}, {"name": "PartitionedCall/transpose_55/perm", "shape": [4], "dtype": "int32"}, {"name": "PartitionedCall/Const_11", "shape": [4, 2], "dtype": "int32"}, {"name": "PartitionedCall/transpose_42/perm", "shape": [4], "dtype": "int32"}, {"name": "PartitionedCall/split_13", "shape": [3, 3, 256, 256], "dtype": "float32", "quantization": {"dtype": "uint8", "min": -0.1907567215900795, "scale": 0.0018520070057289272, "original_dtype": "float32"}}, {"name": "unknown_26", "shape": [256], "dtype": "float32", "quantization": {"dtype": "uint8", "min": -0.870218692106359, "scale": 0.007769809750949635, "original_dtype": "float32"}}, {"name": "PartitionedCall/transpose_43/perm", "shape": [4], "dtype": "int32"}, {"name": "PartitionedCall/Const_12", "shape": [4, 2], "dtype": "int32"}, {"name": "PartitionedCall/transpose_45/perm", "shape": [4], "dtype": "int32"}, {"name": "PartitionedCall/split_14", "shape": [3, 3, 256, 256], "dtype": "float32", "quantization": {"dtype": "uint8", "min": -1.0584868403042065, "scale": 0.007056578935361376, "original_dtype": "float32"}}, {"name": "unknown_28", "shape": [256], "dtype": "float32", "quantization": {"dtype": "uint8", "min": -1.031429915568408, "scale": 0.0073151057841731055, "original_dtype": "float32"}}, {"name": "PartitionedCall/transpose_46/perm", "shape": [4], "dtype": "int32"}, {"name": "PartitionedCall/Const_9", "shape": [4, 2], "dtype": "int32"}, {"name": "PartitionedCall/transpose_33/perm", "shape": [4], "dtype": "int32"}, {"name": "PartitionedCall/split_10", "shape": [3, 3, 128, 256], "dtype": "float32", "quantization": {"dtype": "uint8", "min": -0.21095184718861298, "scale": 0.0017579320599051082, "original_dtype": "float32"}}, {"name": "unknown_20", "shape": [256], "dtype": "float32", "quantization": {"dtype": "uint8", "min": -0.877889513501934, "scale": 0.00783829922769584, "original_dtype": "float32"}}, {"name": "PartitionedCall/transpose_34/perm", "shape": [4], "dtype": "int32"}, {"name": "PartitionedCall/Const_10", "shape": [4, 2], "dtype": "int32"}, {"name": "PartitionedCall/transpose_39/perm", "shape": [4], "dtype": "int32"}, {"name": "PartitionedCall/split_12", "shape": [3, 3, 256, 256], "dtype": "float32", "quantization": {"dtype": "uint8", "min": -0.3654418554960513, "scale": 0.003728998525469911, "original_dtype": "float32"}}, {"name": "unknown_24", "shape": [256], "dtype": "float32", "quantization": {"dtype": "uint8", "min": -0.5963497853746601, "scale": 0.0051409464256436214, "original_dtype": "float32"}}, {"name": "PartitionedCall/transpose_40/perm", "shape": [4], "dtype": "int32"}, {"name": "PartitionedCall/Const_7", "shape": [4, 2], "dtype": "int32"}, {"name": "PartitionedCall/transpose_27/perm", "shape": [4], "dtype": "int32"}, {"name": "PartitionedCall/split_8", "shape": [3, 3, 128, 128], "dtype": "float32", "quantization": {"dtype": "uint8", "min": -0.3126276684742348, "scale": 0.002718501464993346, "original_dtype": "float32"}}, {"name": "unknown_16", "shape": [128], "dtype": "float32", "quantization": {"dtype": "uint8", "min": -1.1079069347942578, "scale": 0.00802831112169752, "original_dtype": "float32"}}, {"name": "PartitionedCall/transpose_28/perm", "shape": [4], "dtype": "int32"}, {"name": "PartitionedCall/Const_8", "shape": [4, 2], "dtype": "int32"}, {"name": "PartitionedCall/transpose_30/perm", "shape": [4], "dtype": "int32"}, {"name": "PartitionedCall/split_9", "shape": [3, 3, 128, 128], "dtype": "float32", "quantization": {"dtype": "uint8", "min": -0.9147230737349566, "scale": 0.006308434991275563, "original_dtype": "float32"}}, {"name": "unknown_18", "shape": [128], "dtype": "float32", "quantization": {"dtype": "uint8", "min": -1.4168706557329964, "scale": 0.011069301997914035, "original_dtype": "float32"}}, {"name": "PartitionedCall/transpose_31/perm", "shape": [4], "dtype": "int32"}, {"name": "PartitionedCall/Const_5", "shape": [4, 2], "dtype": "int32"}, {"name": "PartitionedCall/transpose_18/perm", "shape": [4], "dtype": "int32"}, {"name": "PartitionedCall/split_5", "shape": [3, 3, 64, 128], "dtype": "float32", "quantization": {"dtype": "uint8", "min": -0.15572168079077028, "scale": 0.001557216807907703, "original_dtype": "float32"}}, {"name": "unknown_10", "shape": [128], "dtype": "float32", "quantization": {"dtype": "uint8", "min": -0.7633586350609274, "scale": 0.0066961283777274335, "original_dtype": "float32"}}, {"name": "PartitionedCall/transpose_19/perm", "shape": [4], "dtype": "int32"}, {"name": "PartitionedCall/Const_6", "shape": [4, 2], "dtype": "int32"}, {"name": "PartitionedCall/transpose_24/perm", "shape": [4], "dtype": "int32"}, {"name": "PartitionedCall/split_7", "shape": [3, 3, 128, 128], "dtype": "float32", "quantization": {"dtype": "uint8", "min": -0.4650749662343194, "scale": 0.004079604966967714, "original_dtype": "float32"}}, {"name": "unknown_14", "shape": [128], "dtype": "float32", "quantization": {"dtype": "uint8", "min": -0.7774881482124328, "scale": 0.01126794417699178, "original_dtype": "float32"}}, {"name": "PartitionedCall/transpose_25/perm", "shape": [4], "dtype": "int32"}, {"name": "PartitionedCall/Const_3", "shape": [4, 2], "dtype": "int32"}, {"name": "PartitionedCall/transpose_12/perm", "shape": [4], "dtype": "int32"}, {"name": "PartitionedCall/split_3", "shape": [3, 3, 64, 64], "dtype": "float32", "quantization": {"dtype": "uint8", "min": -0.3097589520847096, "scale": 0.0025390078039730295, "original_dtype": "float32"}}, {"name": "unknown_6", "shape": [64], "dtype": "float32", "quantization": {"dtype": "uint8", "min": -1.078962943133186, "scale": 0.008991357859443216, "original_dtype": "float32"}}, {"name": "PartitionedCall/transpose_13/perm", "shape": [4], "dtype": "int32"}, {"name": "PartitionedCall/Const_4", "shape": [4, 2], "dtype": "int32"}, {"name": "PartitionedCall/transpose_15/perm", "shape": [4], "dtype": "int32"}, {"name": "PartitionedCall/split_4", "shape": [3, 3, 64, 64], "dtype": "float32", "quantization": {"dtype": "uint8", "min": -0.9917124823027966, "scale": 0.00698389072044223, "original_dtype": "float32"}}, {"name": "unknown_8", "shape": [64], "dtype": "float32", "quantization": {"dtype": "uint8", "min": -1.6396050658880497, "scale": 0.011546514548507391, "original_dtype": "float32"}}, {"name": "PartitionedCall/transpose_16/perm", "shape": [4], "dtype": "int32"}, {"name": "PartitionedCall/Const_1", "shape": [4, 2], "dtype": "int32"}, {"name": "PartitionedCall/transpose_6/perm", "shape": [4], "dtype": "int32"}, {"name": "PartitionedCall/split_1", "shape": [3, 3, 64, 64], "dtype": "float32", "quantization": {"dtype": "uint8", "min": -0.4434110005696615, "scale": 0.0032603750041886874, "original_dtype": "float32"}}, {"name": "unknown_2", "shape": [64], "dtype": "float32", "quantization": {"dtype": "uint8", "min": -0.8444507374482996, "scale": 0.009178812363568474, "original_dtype": "float32"}}, {"name": "PartitionedCall/transpose_7/perm", "shape": [4], "dtype": "int32"}, {"name": "PartitionedCall/Const_2", "shape": [4, 2], "dtype": "int32"}, {"name": "PartitionedCall/transpose_9/perm", "shape": [4], "dtype": "int32"}, {"name": "PartitionedCall/split_2", "shape": [3, 3, 64, 64], "dtype": "float32", "quantization": {"dtype": "uint8", "min": -0.8067998717812931, "scale": 0.005307893893297981, "original_dtype": "float32"}}, {"name": "unknown_4", "shape": [64], "dtype": "float32", "quantization": {"dtype": "uint8", "min": -1.3446176458807553, "scale": 0.011492458511801328, "original_dtype": "float32"}}, {"name": "PartitionedCall/transpose_10/perm", "shape": [4], "dtype": "int32"}, {"name": "PartitionedCall/onnx_tf_prefix_input_order_convert_transpose_0/perm", "shape": [4], "dtype": "int32"}, {"name": "PartitionedCall/Const", "shape": [4, 2], "dtype": "int32"}, {"name": "PartitionedCall/transpose_1/perm", "shape": [4], "dtype": "int32"}, {"name": "PartitionedCall/split", "shape": [7, 7, 3, 64], "dtype": "float32", "quantization": {"dtype": "uint8", "min": -0.6157803058624267, "scale": 0.006037061822180654, "original_dtype": "float32"}}, {"name": "unknown_0", "shape": [64], "dtype": "float32", "quantization": {"dtype": "uint8", "min": -0.7546146448920754, "scale": 0.006085601974936092, "original_dtype": "float32"}}, {"name": "PartitionedCall/transpose_2/perm", "shape": [4], "dtype": "int32"}, {"name": "PartitionedCall/PadV2/paddings", "shape": [4, 2], "dtype": "int32"}, {"name": "PartitionedCall/PadV2/constant_values", "shape": [], "dtype": "float32", "quantization": {"dtype": "uint8", "min": -3.4028234663852886e+38, "scale": 1.0, "original_dtype": "float32"}}, {"name": "PartitionedCall/transpose_3/perm", "shape": [4], "dtype": "int32"}, {"name": "PartitionedCall/transpose_4/perm", "shape": [4], "dtype": "int32"}, {"name": "PartitionedCall/transpose_21/perm", "shape": [4], "dtype": "int32"}, {"name": "PartitionedCall/split_6", "shape": [1, 1, 64, 128], "dtype": "float32", "quantization": {"dtype": "uint8", "min": -0.5463955374325022, "scale": 0.005059217939189836, "original_dtype": "float32"}}, {"name": "unknown_12", "shape": [128], "dtype": "float32", "quantization": {"dtype": "uint8", "min": -1.3722432185621825, "scale": 0.00831662556704353, "original_dtype": "float32"}}, {"name": "PartitionedCall/transpose_22/perm", "shape": [4], "dtype": "int32"}, {"name": "PartitionedCall/transpose_36/perm", "shape": [4], "dtype": "int32"}, {"name": "PartitionedCall/split_11", "shape": [1, 1, 128, 256], "dtype": "float32", "quantization": {"dtype": "uint8", "min": -0.21722198935116038, "scale": 0.0018101832445930031, "original_dtype": "float32"}}, {"name": "unknown_22", "shape": [256], "dtype": "float32", "quantization": {"dtype": "uint8", "min": -0.48659986748414885, "scale": 0.0031192299197701848, "original_dtype": "float32"}}, {"name": "PartitionedCall/transpose_37/perm", "shape": [4], "dtype": "int32"}, {"name": "PartitionedCall/transpose_51/perm", "shape": [4], "dtype": "int32"}, {"name": "PartitionedCall/split_16", "shape": [1, 1, 256, 512], "dtype": "float32", "quantization": {"dtype": "uint8", "min": -1.093838052188649, "scale": 0.008286651910520068, "original_dtype": "float32"}}, {"name": "unknown_32", "shape": [512], "dtype": "float32", "quantization": {"dtype": "uint8", "min": -0.8585863655688716, "scale": 0.005648594510321524, "original_dtype": "float32"}}, {"name": "PartitionedCall/transpose_52/perm", "shape": [4], "dtype": "int32"}, {"name": "ConstantFolding/PartitionedCall/split_21-folded-1", "shape": [2], "dtype": "int32"}, {"name": "PartitionedCall/onnx_tf_prefix_Concat_48/axis", "shape": [], "dtype": "int32"}, {"name": "unknown_39", "shape": [2], "dtype": "int32"}, {"name": "PartitionedCall/Where", "shape": [0, 1], "dtype": "int32"}, {"name": "PartitionedCall/Cast", "shape": [1], "dtype": "int32"}, {"name": "PartitionedCall/GatherV2", "shape": [0], "dtype": "int32"}, {"name": "PartitionedCall/zeros_1", "shape": [], "dtype": "int32"}, {"name": "PartitionedCall/onnx_tf_prefix_BatchNormalization_50/mul", "shape": [1, 1024], "dtype": "float32", "quantization": {"dtype": "uint8", "min": 0.06455685198307037, "scale": 0.014591849025558023, "original_dtype": "float32"}}, {"name": "PartitionedCall/onnx_tf_prefix_BatchNormalization_50/sub", "shape": [1, 1024], "dtype": "float32", "quantization": {"dtype": "uint8", "min": -4.751996040344238, "scale": 0.018023747906965367, "original_dtype": "float32"}}, {"name": "unknown_44", "shape": [1024, 512], "dtype": "float32", "quantization": {"dtype": "uint8", "min": -1.0483642652922986, "scale": 0.007488316180659276, "original_dtype": "float32"}}, {"name": "PartitionedCall/onnx_tf_prefix_BatchNormalization_53/mul", "shape": [1, 512], "dtype": "float32", "quantization": {"dtype": "uint8", "min": 0.0036548397038131952, "scale": 0.0001251629818523047, "original_dtype": "float32"}}, {"name": "PartitionedCall/onnx_tf_prefix_BatchNormalization_53/sub", "shape": [1, 512], "dtype": "float32", "quantization": {"dtype": "uint8", "min": -0.4020612051089605, "scale": 0.0017711947361628215, "original_dtype": "float32"}}, {"name": "unknown_49", "shape": [512, 19], "dtype": "float32", "quantization": {"dtype": "uint8", "min": -1.0865649840411018, "scale": 0.007545590166952096, "original_dtype": "float32"}}]}]}