{"format": "graph-model", "generatedBy": "2.10.0", "convertedBy": "TensorFlow.js Converter v3.20.0", "signature": {"inputs": {"input": {"name": "input:0", "dtype": "DT_FLOAT", "tensorShape": {"dim": [{"size": "1"}, {"size": "-1"}, {"size": "-1"}, {"size": "3"}]}}}, "outputs": {"output": {"name": "Identity:0", "dtype": "DT_FLOAT", "tensorShape": {"dim": [{"size": "1"}, {"size": "18"}]}}}}, "modelTopology": {"node": [{"name": "ConstantFolding/PartitionedCall/split_32-folded-1", "op": "Const", "attr": {"dtype": {"type": "DT_INT32"}, "value": {"tensor": {"dtype": "DT_INT32", "tensorShape": {"dim": [{"size": "2"}]}}}}}, {"name": "unknown_139", "op": "Const", "attr": {"dtype": {"type": "DT_FLOAT"}, "value": {"tensor": {"dtype": "DT_FLOAT", "tensorShape": {"dim": [{"size": "640"}]}}}}}, {"name": "PartitionedCall/onnx_tf_prefix_ReduceMean_400/reduction_indices", "op": "Const", "attr": {"value": {"tensor": {"dtype": "DT_INT32", "tensorShape": {}}}, "dtype": {"type": "DT_INT32"}}}, {"name": "PartitionedCall/Const_13", "op": "Const", "attr": {"value": {"tensor": {"dtype": "DT_INT32", "tensorShape": {"dim": [{"size": "4"}, {"size": "2"}]}}}, "dtype": {"type": "DT_INT32"}}}, {"name": "PartitionedCall/transpose_130/perm", "op": "Const", "attr": {"value": {"tensor": {"dtype": "DT_INT32", "tensorShape": {"dim": [{"size": "4"}]}}}, "dtype": {"type": "DT_INT32"}}}, {"name": "PartitionedCall/Reshape_13", "op": "Const", "attr": {"value": {"tensor": {"dtype": "DT_FLOAT", "tensorShape": {"dim": [{"size": "7"}, {"size": "7"}, {"size": "640"}, {"size": "1"}]}}}, "dtype": {"type": "DT_FLOAT"}}}, {"name": "unknown_138", "op": "Const", "attr": {"value": {"tensor": {"dtype": "DT_FLOAT", "tensorShape": {"dim": [{"size": "640"}]}}}, "dtype": {"type": "DT_FLOAT"}}}, {"name": "PartitionedCall/onnx_tf_prefix_ReduceMean_396/reduction_indices", "op": "Const", "attr": {"value": {"tensor": {"dtype": "DT_INT32", "tensorShape": {}}}, "dtype": {"type": "DT_INT32"}}}, {"name": "unknown_140", "op": "Const", "attr": {"value": {"tensor": {"dtype": "DT_FLOAT", "tensorShape": {"dim": [{"size": "640"}]}}}, "dtype": {"type": "DT_FLOAT"}}}, {"name": "PartitionedCall/split_30", "op": "Const", "attr": {"dtype": {"type": "DT_FLOAT"}, "value": {"tensor": {"dtype": "DT_FLOAT", "tensorShape": {"dim": [{"size": "1"}, {"size": "1"}, {"size": "640"}, {"size": "2560"}]}}}}}, {"name": "unknown_142", "op": "Const", "attr": {"value": {"tensor": {"dtype": "DT_FLOAT", "tensorShape": {"dim": [{"size": "2560"}]}}}, "dtype": {"type": "DT_FLOAT"}}}, {"name": "PartitionedCall/transpose_134/perm", "op": "Const", "attr": {"value": {"tensor": {"dtype": "DT_INT32", "tensorShape": {"dim": [{"size": "4"}]}}}, "dtype": {"type": "DT_INT32"}}}, {"name": "ConstantFolding/PartitionedCall/onnx_tf_prefix_Div_410_recip", "op": "Const", "attr": {"dtype": {"type": "DT_FLOAT"}, "value": {"tensor": {"dtype": "DT_FLOAT", "tensorShape": {}}}}}, {"name": "PartitionedCall/transpose_136/perm", "op": "Const", "attr": {"dtype": {"type": "DT_INT32"}, "value": {"tensor": {"dtype": "DT_INT32", "tensorShape": {"dim": [{"size": "4"}]}}}}}, {"name": "PartitionedCall/split_31", "op": "Const", "attr": {"value": {"tensor": {"dtype": "DT_FLOAT", "tensorShape": {"dim": [{"size": "1"}, {"size": "1"}, {"size": "2560"}, {"size": "640"}]}}}, "dtype": {"type": "DT_FLOAT"}}}, {"name": "unknown_144", "op": "Const", "attr": {"value": {"tensor": {"dtype": "DT_FLOAT", "tensorShape": {"dim": [{"size": "640"}]}}}, "dtype": {"type": "DT_FLOAT"}}}, {"name": "PartitionedCall/transpose_137/perm", "op": "Const", "attr": {"value": {"tensor": {"dtype": "DT_INT32", "tensorShape": {"dim": [{"size": "4"}]}}}, "dtype": {"type": "DT_INT32"}}}, {"name": "unknown_145", "op": "Const", "attr": {"dtype": {"type": "DT_FLOAT"}, "value": {"tensor": {"dtype": "DT_FLOAT", "tensorShape": {"dim": [{"size": "1"}, {"size": "640"}, {"size": "1"}, {"size": "1"}]}}}}}, {"name": "unknown_130", "op": "Const", "attr": {"value": {"tensor": {"dtype": "DT_FLOAT", "tensorShape": {"dim": [{"size": "640"}]}}}, "dtype": {"type": "DT_FLOAT"}}}, {"name": "PartitionedCall/onnx_tf_prefix_ReduceMean_374/reduction_indices", "op": "Const", "attr": {"value": {"tensor": {"dtype": "DT_INT32", "tensorShape": {}}}, "dtype": {"type": "DT_INT32"}}}, {"name": "PartitionedCall/Const_12", "op": "Const", "attr": {"value": {"tensor": {"dtype": "DT_INT32", "tensorShape": {"dim": [{"size": "4"}, {"size": "2"}]}}}, "dtype": {"type": "DT_INT32"}}}, {"name": "PartitionedCall/transpose_121/perm", "op": "Const", "attr": {"dtype": {"type": "DT_INT32"}, "value": {"tensor": {"dtype": "DT_INT32", "tensorShape": {"dim": [{"size": "4"}]}}}}}, {"name": "PartitionedCall/Reshape_12", "op": "Const", "attr": {"value": {"tensor": {"dtype": "DT_FLOAT", "tensorShape": {"dim": [{"size": "7"}, {"size": "7"}, {"size": "640"}, {"size": "1"}]}}}, "dtype": {"type": "DT_FLOAT"}}}, {"name": "unknown_129", "op": "Const", "attr": {"dtype": {"type": "DT_FLOAT"}, "value": {"tensor": {"dtype": "DT_FLOAT", "tensorShape": {"dim": [{"size": "640"}]}}}}}, {"name": "PartitionedCall/onnx_tf_prefix_ReduceMean_370/reduction_indices", "op": "Const", "attr": {"dtype": {"type": "DT_INT32"}, "value": {"tensor": {"dtype": "DT_INT32", "tensorShape": {}}}}}, {"name": "unknown_131", "op": "Const", "attr": {"value": {"tensor": {"dtype": "DT_FLOAT", "tensorShape": {"dim": [{"size": "640"}]}}}, "dtype": {"type": "DT_FLOAT"}}}, {"name": "PartitionedCall/split_28", "op": "Const", "attr": {"dtype": {"type": "DT_FLOAT"}, "value": {"tensor": {"dtype": "DT_FLOAT", "tensorShape": {"dim": [{"size": "1"}, {"size": "1"}, {"size": "640"}, {"size": "2560"}]}}}}}, {"name": "unknown_133", "op": "Const", "attr": {"dtype": {"type": "DT_FLOAT"}, "value": {"tensor": {"dtype": "DT_FLOAT", "tensorShape": {"dim": [{"size": "2560"}]}}}}}, {"name": "PartitionedCall/transpose_125/perm", "op": "Const", "attr": {"dtype": {"type": "DT_INT32"}, "value": {"tensor": {"dtype": "DT_INT32", "tensorShape": {"dim": [{"size": "4"}]}}}}}, {"name": "ConstantFolding/PartitionedCall/onnx_tf_prefix_Div_384_recip", "op": "Const", "attr": {"dtype": {"type": "DT_FLOAT"}, "value": {"tensor": {"dtype": "DT_FLOAT", "tensorShape": {}}}}}, {"name": "PartitionedCall/transpose_127/perm", "op": "Const", "attr": {"dtype": {"type": "DT_INT32"}, "value": {"tensor": {"dtype": "DT_INT32", "tensorShape": {"dim": [{"size": "4"}]}}}}}, {"name": "PartitionedCall/split_29", "op": "Const", "attr": {"value": {"tensor": {"dtype": "DT_FLOAT", "tensorShape": {"dim": [{"size": "1"}, {"size": "1"}, {"size": "2560"}, {"size": "640"}]}}}, "dtype": {"type": "DT_FLOAT"}}}, {"name": "unknown_135", "op": "Const", "attr": {"value": {"tensor": {"dtype": "DT_FLOAT", "tensorShape": {"dim": [{"size": "640"}]}}}, "dtype": {"type": "DT_FLOAT"}}}, {"name": "PartitionedCall/transpose_128/perm", "op": "Const", "attr": {"value": {"tensor": {"dtype": "DT_INT32", "tensorShape": {"dim": [{"size": "4"}]}}}, "dtype": {"type": "DT_INT32"}}}, {"name": "unknown_136", "op": "Const", "attr": {"dtype": {"type": "DT_FLOAT"}, "value": {"tensor": {"dtype": "DT_FLOAT", "tensorShape": {"dim": [{"size": "1"}, {"size": "640"}, {"size": "1"}, {"size": "1"}]}}}}}, {"name": "unknown_124", "op": "Const", "attr": {"value": {"tensor": {"dtype": "DT_FLOAT", "tensorShape": {"dim": [{"size": "320"}]}}}, "dtype": {"type": "DT_FLOAT"}}}, {"name": "PartitionedCall/onnx_tf_prefix_ReduceMean_359/reduction_indices", "op": "Const", "attr": {"value": {"tensor": {"dtype": "DT_INT32", "tensorShape": {}}}, "dtype": {"type": "DT_INT32"}}}, {"name": "unknown_117", "op": "Const", "attr": {"dtype": {"type": "DT_FLOAT"}, "value": {"tensor": {"dtype": "DT_FLOAT", "tensorShape": {"dim": [{"size": "320"}]}}}}}, {"name": "PartitionedCall/onnx_tf_prefix_ReduceMean_334/reduction_indices", "op": "Const", "attr": {"dtype": {"type": "DT_INT32"}, "value": {"tensor": {"dtype": "DT_INT32", "tensorShape": {}}}}}, {"name": "PartitionedCall/Const_11", "op": "Const", "attr": {"dtype": {"type": "DT_INT32"}, "value": {"tensor": {"dtype": "DT_INT32", "tensorShape": {"dim": [{"size": "4"}, {"size": "2"}]}}}}}, {"name": "PartitionedCall/transpose_109/perm", "op": "Const", "attr": {"dtype": {"type": "DT_INT32"}, "value": {"tensor": {"dtype": "DT_INT32", "tensorShape": {"dim": [{"size": "4"}]}}}}}, {"name": "PartitionedCall/Reshape_11", "op": "Const", "attr": {"dtype": {"type": "DT_FLOAT"}, "value": {"tensor": {"dtype": "DT_FLOAT", "tensorShape": {"dim": [{"size": "7"}, {"size": "7"}, {"size": "320"}, {"size": "1"}]}}}}}, {"name": "unknown_116", "op": "Const", "attr": {"dtype": {"type": "DT_FLOAT"}, "value": {"tensor": {"dtype": "DT_FLOAT", "tensorShape": {"dim": [{"size": "320"}]}}}}}, {"name": "PartitionedCall/onnx_tf_prefix_ReduceMean_330/reduction_indices", "op": "Const", "attr": {"dtype": {"type": "DT_INT32"}, "value": {"tensor": {"dtype": "DT_INT32", "tensorShape": {}}}}}, {"name": "unknown_118", "op": "Const", "attr": {"value": {"tensor": {"dtype": "DT_FLOAT", "tensorShape": {"dim": [{"size": "320"}]}}}, "dtype": {"type": "DT_FLOAT"}}}, {"name": "PartitionedCall/split_25", "op": "Const", "attr": {"value": {"tensor": {"dtype": "DT_FLOAT", "tensorShape": {"dim": [{"size": "1"}, {"size": "1"}, {"size": "320"}, {"size": "1280"}]}}}, "dtype": {"type": "DT_FLOAT"}}}, {"name": "unknown_120", "op": "Const", "attr": {"dtype": {"type": "DT_FLOAT"}, "value": {"tensor": {"dtype": "DT_FLOAT", "tensorShape": {"dim": [{"size": "1280"}]}}}}}, {"name": "PartitionedCall/transpose_113/perm", "op": "Const", "attr": {"dtype": {"type": "DT_INT32"}, "value": {"tensor": {"dtype": "DT_INT32", "tensorShape": {"dim": [{"size": "4"}]}}}}}, {"name": "ConstantFolding/PartitionedCall/onnx_tf_prefix_Div_344_recip", "op": "Const", "attr": {"dtype": {"type": "DT_FLOAT"}, "value": {"tensor": {"dtype": "DT_FLOAT", "tensorShape": {}}}}}, {"name": "PartitionedCall/transpose_115/perm", "op": "Const", "attr": {"value": {"tensor": {"dtype": "DT_INT32", "tensorShape": {"dim": [{"size": "4"}]}}}, "dtype": {"type": "DT_INT32"}}}, {"name": "PartitionedCall/split_26", "op": "Const", "attr": {"dtype": {"type": "DT_FLOAT"}, "value": {"tensor": {"dtype": "DT_FLOAT", "tensorShape": {"dim": [{"size": "1"}, {"size": "1"}, {"size": "1280"}, {"size": "320"}]}}}}}, {"name": "unknown_122", "op": "Const", "attr": {"dtype": {"type": "DT_FLOAT"}, "value": {"tensor": {"dtype": "DT_FLOAT", "tensorShape": {"dim": [{"size": "320"}]}}}}}, {"name": "PartitionedCall/transpose_116/perm", "op": "Const", "attr": {"value": {"tensor": {"dtype": "DT_INT32", "tensorShape": {"dim": [{"size": "4"}]}}}, "dtype": {"type": "DT_INT32"}}}, {"name": "unknown_123", "op": "Const", "attr": {"dtype": {"type": "DT_FLOAT"}, "value": {"tensor": {"dtype": "DT_FLOAT", "tensorShape": {"dim": [{"size": "1"}, {"size": "320"}, {"size": "1"}, {"size": "1"}]}}}}}, {"name": "unknown_108", "op": "Const", "attr": {"dtype": {"type": "DT_FLOAT"}, "value": {"tensor": {"dtype": "DT_FLOAT", "tensorShape": {"dim": [{"size": "320"}]}}}}}, {"name": "PartitionedCall/onnx_tf_prefix_ReduceMean_308/reduction_indices", "op": "Const", "attr": {"value": {"tensor": {"dtype": "DT_INT32", "tensorShape": {}}}, "dtype": {"type": "DT_INT32"}}}, {"name": "PartitionedCall/Const_10", "op": "Const", "attr": {"dtype": {"type": "DT_INT32"}, "value": {"tensor": {"dtype": "DT_INT32", "tensorShape": {"dim": [{"size": "4"}, {"size": "2"}]}}}}}, {"name": "PartitionedCall/transpose_100/perm", "op": "Const", "attr": {"value": {"tensor": {"dtype": "DT_INT32", "tensorShape": {"dim": [{"size": "4"}]}}}, "dtype": {"type": "DT_INT32"}}}, {"name": "PartitionedCall/Reshape_10", "op": "Const", "attr": {"value": {"tensor": {"dtype": "DT_FLOAT", "tensorShape": {"dim": [{"size": "7"}, {"size": "7"}, {"size": "320"}, {"size": "1"}]}}}, "dtype": {"type": "DT_FLOAT"}}}, {"name": "unknown_107", "op": "Const", "attr": {"dtype": {"type": "DT_FLOAT"}, "value": {"tensor": {"dtype": "DT_FLOAT", "tensorShape": {"dim": [{"size": "320"}]}}}}}, {"name": "PartitionedCall/onnx_tf_prefix_ReduceMean_304/reduction_indices", "op": "Const", "attr": {"dtype": {"type": "DT_INT32"}, "value": {"tensor": {"dtype": "DT_INT32", "tensorShape": {}}}}}, {"name": "unknown_109", "op": "Const", "attr": {"value": {"tensor": {"dtype": "DT_FLOAT", "tensorShape": {"dim": [{"size": "320"}]}}}, "dtype": {"type": "DT_FLOAT"}}}, {"name": "PartitionedCall/split_23", "op": "Const", "attr": {"dtype": {"type": "DT_FLOAT"}, "value": {"tensor": {"dtype": "DT_FLOAT", "tensorShape": {"dim": [{"size": "1"}, {"size": "1"}, {"size": "320"}, {"size": "1280"}]}}}}}, {"name": "unknown_111", "op": "Const", "attr": {"value": {"tensor": {"dtype": "DT_FLOAT", "tensorShape": {"dim": [{"size": "1280"}]}}}, "dtype": {"type": "DT_FLOAT"}}}, {"name": "PartitionedCall/transpose_104/perm", "op": "Const", "attr": {"value": {"tensor": {"dtype": "DT_INT32", "tensorShape": {"dim": [{"size": "4"}]}}}, "dtype": {"type": "DT_INT32"}}}, {"name": "ConstantFolding/PartitionedCall/onnx_tf_prefix_Div_318_recip", "op": "Const", "attr": {"dtype": {"type": "DT_FLOAT"}, "value": {"tensor": {"dtype": "DT_FLOAT", "tensorShape": {}}}}}, {"name": "PartitionedCall/transpose_106/perm", "op": "Const", "attr": {"value": {"tensor": {"dtype": "DT_INT32", "tensorShape": {"dim": [{"size": "4"}]}}}, "dtype": {"type": "DT_INT32"}}}, {"name": "PartitionedCall/split_24", "op": "Const", "attr": {"value": {"tensor": {"dtype": "DT_FLOAT", "tensorShape": {"dim": [{"size": "1"}, {"size": "1"}, {"size": "1280"}, {"size": "320"}]}}}, "dtype": {"type": "DT_FLOAT"}}}, {"name": "unknown_113", "op": "Const", "attr": {"dtype": {"type": "DT_FLOAT"}, "value": {"tensor": {"dtype": "DT_FLOAT", "tensorShape": {"dim": [{"size": "320"}]}}}}}, {"name": "PartitionedCall/transpose_107/perm", "op": "Const", "attr": {"value": {"tensor": {"dtype": "DT_INT32", "tensorShape": {"dim": [{"size": "4"}]}}}, "dtype": {"type": "DT_INT32"}}}, {"name": "unknown_114", "op": "Const", "attr": {"value": {"tensor": {"dtype": "DT_FLOAT", "tensorShape": {"dim": [{"size": "1"}, {"size": "320"}, {"size": "1"}, {"size": "1"}]}}}, "dtype": {"type": "DT_FLOAT"}}}, {"name": "unknown_99", "op": "Const", "attr": {"dtype": {"type": "DT_FLOAT"}, "value": {"tensor": {"dtype": "DT_FLOAT", "tensorShape": {"dim": [{"size": "320"}]}}}}}, {"name": "PartitionedCall/onnx_tf_prefix_ReduceMean_282/reduction_indices", "op": "Const", "attr": {"dtype": {"type": "DT_INT32"}, "value": {"tensor": {"dtype": "DT_INT32", "tensorShape": {}}}}}, {"name": "PartitionedCall/Const_9", "op": "Const", "attr": {"value": {"tensor": {"dtype": "DT_INT32", "tensorShape": {"dim": [{"size": "4"}, {"size": "2"}]}}}, "dtype": {"type": "DT_INT32"}}}, {"name": "PartitionedCall/transpose_91/perm", "op": "Const", "attr": {"dtype": {"type": "DT_INT32"}, "value": {"tensor": {"dtype": "DT_INT32", "tensorShape": {"dim": [{"size": "4"}]}}}}}, {"name": "PartitionedCall/Reshape_9", "op": "Const", "attr": {"value": {"tensor": {"dtype": "DT_FLOAT", "tensorShape": {"dim": [{"size": "7"}, {"size": "7"}, {"size": "320"}, {"size": "1"}]}}}, "dtype": {"type": "DT_FLOAT"}}}, {"name": "unknown_98", "op": "Const", "attr": {"value": {"tensor": {"dtype": "DT_FLOAT", "tensorShape": {"dim": [{"size": "320"}]}}}, "dtype": {"type": "DT_FLOAT"}}}, {"name": "PartitionedCall/onnx_tf_prefix_ReduceMean_278/reduction_indices", "op": "Const", "attr": {"value": {"tensor": {"dtype": "DT_INT32", "tensorShape": {}}}, "dtype": {"type": "DT_INT32"}}}, {"name": "unknown_100", "op": "Const", "attr": {"value": {"tensor": {"dtype": "DT_FLOAT", "tensorShape": {"dim": [{"size": "320"}]}}}, "dtype": {"type": "DT_FLOAT"}}}, {"name": "PartitionedCall/split_21", "op": "Const", "attr": {"value": {"tensor": {"dtype": "DT_FLOAT", "tensorShape": {"dim": [{"size": "1"}, {"size": "1"}, {"size": "320"}, {"size": "1280"}]}}}, "dtype": {"type": "DT_FLOAT"}}}, {"name": "unknown_102", "op": "Const", "attr": {"value": {"tensor": {"dtype": "DT_FLOAT", "tensorShape": {"dim": [{"size": "1280"}]}}}, "dtype": {"type": "DT_FLOAT"}}}, {"name": "PartitionedCall/transpose_95/perm", "op": "Const", "attr": {"value": {"tensor": {"dtype": "DT_INT32", "tensorShape": {"dim": [{"size": "4"}]}}}, "dtype": {"type": "DT_INT32"}}}, {"name": "ConstantFolding/PartitionedCall/onnx_tf_prefix_Div_292_recip", "op": "Const", "attr": {"dtype": {"type": "DT_FLOAT"}, "value": {"tensor": {"dtype": "DT_FLOAT", "tensorShape": {}}}}}, {"name": "PartitionedCall/transpose_97/perm", "op": "Const", "attr": {"value": {"tensor": {"dtype": "DT_INT32", "tensorShape": {"dim": [{"size": "4"}]}}}, "dtype": {"type": "DT_INT32"}}}, {"name": "PartitionedCall/split_22", "op": "Const", "attr": {"value": {"tensor": {"dtype": "DT_FLOAT", "tensorShape": {"dim": [{"size": "1"}, {"size": "1"}, {"size": "1280"}, {"size": "320"}]}}}, "dtype": {"type": "DT_FLOAT"}}}, {"name": "unknown_104", "op": "Const", "attr": {"value": {"tensor": {"dtype": "DT_FLOAT", "tensorShape": {"dim": [{"size": "320"}]}}}, "dtype": {"type": "DT_FLOAT"}}}, {"name": "PartitionedCall/transpose_98/perm", "op": "Const", "attr": {"dtype": {"type": "DT_INT32"}, "value": {"tensor": {"dtype": "DT_INT32", "tensorShape": {"dim": [{"size": "4"}]}}}}}, {"name": "unknown_105", "op": "Const", "attr": {"value": {"tensor": {"dtype": "DT_FLOAT", "tensorShape": {"dim": [{"size": "1"}, {"size": "320"}, {"size": "1"}, {"size": "1"}]}}}, "dtype": {"type": "DT_FLOAT"}}}, {"name": "unknown_90", "op": "Const", "attr": {"dtype": {"type": "DT_FLOAT"}, "value": {"tensor": {"dtype": "DT_FLOAT", "tensorShape": {"dim": [{"size": "320"}]}}}}}, {"name": "PartitionedCall/onnx_tf_prefix_ReduceMean_256/reduction_indices", "op": "Const", "attr": {"dtype": {"type": "DT_INT32"}, "value": {"tensor": {"dtype": "DT_INT32", "tensorShape": {}}}}}, {"name": "PartitionedCall/Const_8", "op": "Const", "attr": {"value": {"tensor": {"dtype": "DT_INT32", "tensorShape": {"dim": [{"size": "4"}, {"size": "2"}]}}}, "dtype": {"type": "DT_INT32"}}}, {"name": "PartitionedCall/transpose_82/perm", "op": "Const", "attr": {"dtype": {"type": "DT_INT32"}, "value": {"tensor": {"dtype": "DT_INT32", "tensorShape": {"dim": [{"size": "4"}]}}}}}, {"name": "PartitionedCall/Reshape_8", "op": "Const", "attr": {"value": {"tensor": {"dtype": "DT_FLOAT", "tensorShape": {"dim": [{"size": "7"}, {"size": "7"}, {"size": "320"}, {"size": "1"}]}}}, "dtype": {"type": "DT_FLOAT"}}}, {"name": "unknown_89", "op": "Const", "attr": {"dtype": {"type": "DT_FLOAT"}, "value": {"tensor": {"dtype": "DT_FLOAT", "tensorShape": {"dim": [{"size": "320"}]}}}}}, {"name": "PartitionedCall/onnx_tf_prefix_ReduceMean_252/reduction_indices", "op": "Const", "attr": {"value": {"tensor": {"dtype": "DT_INT32", "tensorShape": {}}}, "dtype": {"type": "DT_INT32"}}}, {"name": "unknown_91", "op": "Const", "attr": {"dtype": {"type": "DT_FLOAT"}, "value": {"tensor": {"dtype": "DT_FLOAT", "tensorShape": {"dim": [{"size": "320"}]}}}}}, {"name": "PartitionedCall/split_19", "op": "Const", "attr": {"dtype": {"type": "DT_FLOAT"}, "value": {"tensor": {"dtype": "DT_FLOAT", "tensorShape": {"dim": [{"size": "1"}, {"size": "1"}, {"size": "320"}, {"size": "1280"}]}}}}}, {"name": "unknown_93", "op": "Const", "attr": {"dtype": {"type": "DT_FLOAT"}, "value": {"tensor": {"dtype": "DT_FLOAT", "tensorShape": {"dim": [{"size": "1280"}]}}}}}, {"name": "PartitionedCall/transpose_86/perm", "op": "Const", "attr": {"dtype": {"type": "DT_INT32"}, "value": {"tensor": {"dtype": "DT_INT32", "tensorShape": {"dim": [{"size": "4"}]}}}}}, {"name": "ConstantFolding/PartitionedCall/onnx_tf_prefix_Div_266_recip", "op": "Const", "attr": {"value": {"tensor": {"dtype": "DT_FLOAT", "tensorShape": {}}}, "dtype": {"type": "DT_FLOAT"}}}, {"name": "PartitionedCall/transpose_88/perm", "op": "Const", "attr": {"value": {"tensor": {"dtype": "DT_INT32", "tensorShape": {"dim": [{"size": "4"}]}}}, "dtype": {"type": "DT_INT32"}}}, {"name": "PartitionedCall/split_20", "op": "Const", "attr": {"dtype": {"type": "DT_FLOAT"}, "value": {"tensor": {"dtype": "DT_FLOAT", "tensorShape": {"dim": [{"size": "1"}, {"size": "1"}, {"size": "1280"}, {"size": "320"}]}}}}}, {"name": "unknown_95", "op": "Const", "attr": {"dtype": {"type": "DT_FLOAT"}, "value": {"tensor": {"dtype": "DT_FLOAT", "tensorShape": {"dim": [{"size": "320"}]}}}}}, {"name": "PartitionedCall/transpose_89/perm", "op": "Const", "attr": {"dtype": {"type": "DT_INT32"}, "value": {"tensor": {"dtype": "DT_INT32", "tensorShape": {"dim": [{"size": "4"}]}}}}}, {"name": "unknown_96", "op": "Const", "attr": {"dtype": {"type": "DT_FLOAT"}, "value": {"tensor": {"dtype": "DT_FLOAT", "tensorShape": {"dim": [{"size": "1"}, {"size": "320"}, {"size": "1"}, {"size": "1"}]}}}}}, {"name": "unknown_81", "op": "Const", "attr": {"value": {"tensor": {"dtype": "DT_FLOAT", "tensorShape": {"dim": [{"size": "320"}]}}}, "dtype": {"type": "DT_FLOAT"}}}, {"name": "PartitionedCall/onnx_tf_prefix_ReduceMean_230/reduction_indices", "op": "Const", "attr": {"value": {"tensor": {"dtype": "DT_INT32", "tensorShape": {}}}, "dtype": {"type": "DT_INT32"}}}, {"name": "PartitionedCall/Const_7", "op": "Const", "attr": {"value": {"tensor": {"dtype": "DT_INT32", "tensorShape": {"dim": [{"size": "4"}, {"size": "2"}]}}}, "dtype": {"type": "DT_INT32"}}}, {"name": "PartitionedCall/transpose_73/perm", "op": "Const", "attr": {"value": {"tensor": {"dtype": "DT_INT32", "tensorShape": {"dim": [{"size": "4"}]}}}, "dtype": {"type": "DT_INT32"}}}, {"name": "PartitionedCall/Reshape_7", "op": "Const", "attr": {"dtype": {"type": "DT_FLOAT"}, "value": {"tensor": {"dtype": "DT_FLOAT", "tensorShape": {"dim": [{"size": "7"}, {"size": "7"}, {"size": "320"}, {"size": "1"}]}}}}}, {"name": "unknown_80", "op": "Const", "attr": {"dtype": {"type": "DT_FLOAT"}, "value": {"tensor": {"dtype": "DT_FLOAT", "tensorShape": {"dim": [{"size": "320"}]}}}}}, {"name": "PartitionedCall/onnx_tf_prefix_ReduceMean_226/reduction_indices", "op": "Const", "attr": {"value": {"tensor": {"dtype": "DT_INT32", "tensorShape": {}}}, "dtype": {"type": "DT_INT32"}}}, {"name": "unknown_82", "op": "Const", "attr": {"dtype": {"type": "DT_FLOAT"}, "value": {"tensor": {"dtype": "DT_FLOAT", "tensorShape": {"dim": [{"size": "320"}]}}}}}, {"name": "PartitionedCall/split_17", "op": "Const", "attr": {"dtype": {"type": "DT_FLOAT"}, "value": {"tensor": {"dtype": "DT_FLOAT", "tensorShape": {"dim": [{"size": "1"}, {"size": "1"}, {"size": "320"}, {"size": "1280"}]}}}}}, {"name": "unknown_84", "op": "Const", "attr": {"dtype": {"type": "DT_FLOAT"}, "value": {"tensor": {"dtype": "DT_FLOAT", "tensorShape": {"dim": [{"size": "1280"}]}}}}}, {"name": "PartitionedCall/transpose_77/perm", "op": "Const", "attr": {"dtype": {"type": "DT_INT32"}, "value": {"tensor": {"dtype": "DT_INT32", "tensorShape": {"dim": [{"size": "4"}]}}}}}, {"name": "ConstantFolding/PartitionedCall/onnx_tf_prefix_Div_240_recip", "op": "Const", "attr": {"dtype": {"type": "DT_FLOAT"}, "value": {"tensor": {"dtype": "DT_FLOAT", "tensorShape": {}}}}}, {"name": "PartitionedCall/transpose_79/perm", "op": "Const", "attr": {"dtype": {"type": "DT_INT32"}, "value": {"tensor": {"dtype": "DT_INT32", "tensorShape": {"dim": [{"size": "4"}]}}}}}, {"name": "PartitionedCall/split_18", "op": "Const", "attr": {"value": {"tensor": {"dtype": "DT_FLOAT", "tensorShape": {"dim": [{"size": "1"}, {"size": "1"}, {"size": "1280"}, {"size": "320"}]}}}, "dtype": {"type": "DT_FLOAT"}}}, {"name": "unknown_86", "op": "Const", "attr": {"dtype": {"type": "DT_FLOAT"}, "value": {"tensor": {"dtype": "DT_FLOAT", "tensorShape": {"dim": [{"size": "320"}]}}}}}, {"name": "PartitionedCall/transpose_80/perm", "op": "Const", "attr": {"value": {"tensor": {"dtype": "DT_INT32", "tensorShape": {"dim": [{"size": "4"}]}}}, "dtype": {"type": "DT_INT32"}}}, {"name": "unknown_87", "op": "Const", "attr": {"dtype": {"type": "DT_FLOAT"}, "value": {"tensor": {"dtype": "DT_FLOAT", "tensorShape": {"dim": [{"size": "1"}, {"size": "320"}, {"size": "1"}, {"size": "1"}]}}}}}, {"name": "unknown_72", "op": "Const", "attr": {"dtype": {"type": "DT_FLOAT"}, "value": {"tensor": {"dtype": "DT_FLOAT", "tensorShape": {"dim": [{"size": "320"}]}}}}}, {"name": "PartitionedCall/onnx_tf_prefix_ReduceMean_204/reduction_indices", "op": "Const", "attr": {"dtype": {"type": "DT_INT32"}, "value": {"tensor": {"dtype": "DT_INT32", "tensorShape": {}}}}}, {"name": "PartitionedCall/Const_6", "op": "Const", "attr": {"dtype": {"type": "DT_INT32"}, "value": {"tensor": {"dtype": "DT_INT32", "tensorShape": {"dim": [{"size": "4"}, {"size": "2"}]}}}}}, {"name": "PartitionedCall/transpose_64/perm", "op": "Const", "attr": {"value": {"tensor": {"dtype": "DT_INT32", "tensorShape": {"dim": [{"size": "4"}]}}}, "dtype": {"type": "DT_INT32"}}}, {"name": "PartitionedCall/Reshape_6", "op": "Const", "attr": {"dtype": {"type": "DT_FLOAT"}, "value": {"tensor": {"dtype": "DT_FLOAT", "tensorShape": {"dim": [{"size": "7"}, {"size": "7"}, {"size": "320"}, {"size": "1"}]}}}}}, {"name": "unknown_71", "op": "Const", "attr": {"dtype": {"type": "DT_FLOAT"}, "value": {"tensor": {"dtype": "DT_FLOAT", "tensorShape": {"dim": [{"size": "320"}]}}}}}, {"name": "PartitionedCall/onnx_tf_prefix_ReduceMean_200/reduction_indices", "op": "Const", "attr": {"dtype": {"type": "DT_INT32"}, "value": {"tensor": {"dtype": "DT_INT32", "tensorShape": {}}}}}, {"name": "unknown_73", "op": "Const", "attr": {"dtype": {"type": "DT_FLOAT"}, "value": {"tensor": {"dtype": "DT_FLOAT", "tensorShape": {"dim": [{"size": "320"}]}}}}}, {"name": "PartitionedCall/split_15", "op": "Const", "attr": {"value": {"tensor": {"dtype": "DT_FLOAT", "tensorShape": {"dim": [{"size": "1"}, {"size": "1"}, {"size": "320"}, {"size": "1280"}]}}}, "dtype": {"type": "DT_FLOAT"}}}, {"name": "unknown_75", "op": "Const", "attr": {"dtype": {"type": "DT_FLOAT"}, "value": {"tensor": {"dtype": "DT_FLOAT", "tensorShape": {"dim": [{"size": "1280"}]}}}}}, {"name": "PartitionedCall/transpose_68/perm", "op": "Const", "attr": {"dtype": {"type": "DT_INT32"}, "value": {"tensor": {"dtype": "DT_INT32", "tensorShape": {"dim": [{"size": "4"}]}}}}}, {"name": "ConstantFolding/PartitionedCall/onnx_tf_prefix_Div_214_recip", "op": "Const", "attr": {"dtype": {"type": "DT_FLOAT"}, "value": {"tensor": {"dtype": "DT_FLOAT", "tensorShape": {}}}}}, {"name": "PartitionedCall/transpose_70/perm", "op": "Const", "attr": {"dtype": {"type": "DT_INT32"}, "value": {"tensor": {"dtype": "DT_INT32", "tensorShape": {"dim": [{"size": "4"}]}}}}}, {"name": "PartitionedCall/split_16", "op": "Const", "attr": {"value": {"tensor": {"dtype": "DT_FLOAT", "tensorShape": {"dim": [{"size": "1"}, {"size": "1"}, {"size": "1280"}, {"size": "320"}]}}}, "dtype": {"type": "DT_FLOAT"}}}, {"name": "unknown_77", "op": "Const", "attr": {"dtype": {"type": "DT_FLOAT"}, "value": {"tensor": {"dtype": "DT_FLOAT", "tensorShape": {"dim": [{"size": "320"}]}}}}}, {"name": "PartitionedCall/transpose_71/perm", "op": "Const", "attr": {"value": {"tensor": {"dtype": "DT_INT32", "tensorShape": {"dim": [{"size": "4"}]}}}, "dtype": {"type": "DT_INT32"}}}, {"name": "unknown_78", "op": "Const", "attr": {"value": {"tensor": {"dtype": "DT_FLOAT", "tensorShape": {"dim": [{"size": "1"}, {"size": "320"}, {"size": "1"}, {"size": "1"}]}}}, "dtype": {"type": "DT_FLOAT"}}}, {"name": "unknown_63", "op": "Const", "attr": {"value": {"tensor": {"dtype": "DT_FLOAT", "tensorShape": {"dim": [{"size": "320"}]}}}, "dtype": {"type": "DT_FLOAT"}}}, {"name": "PartitionedCall/onnx_tf_prefix_ReduceMean_178/reduction_indices", "op": "Const", "attr": {"value": {"tensor": {"dtype": "DT_INT32", "tensorShape": {}}}, "dtype": {"type": "DT_INT32"}}}, {"name": "PartitionedCall/Const_5", "op": "Const", "attr": {"dtype": {"type": "DT_INT32"}, "value": {"tensor": {"dtype": "DT_INT32", "tensorShape": {"dim": [{"size": "4"}, {"size": "2"}]}}}}}, {"name": "PartitionedCall/transpose_55/perm", "op": "Const", "attr": {"dtype": {"type": "DT_INT32"}, "value": {"tensor": {"dtype": "DT_INT32", "tensorShape": {"dim": [{"size": "4"}]}}}}}, {"name": "PartitionedCall/Reshape_5", "op": "Const", "attr": {"value": {"tensor": {"dtype": "DT_FLOAT", "tensorShape": {"dim": [{"size": "7"}, {"size": "7"}, {"size": "320"}, {"size": "1"}]}}}, "dtype": {"type": "DT_FLOAT"}}}, {"name": "unknown_62", "op": "Const", "attr": {"dtype": {"type": "DT_FLOAT"}, "value": {"tensor": {"dtype": "DT_FLOAT", "tensorShape": {"dim": [{"size": "320"}]}}}}}, {"name": "PartitionedCall/onnx_tf_prefix_ReduceMean_174/reduction_indices", "op": "Const", "attr": {"dtype": {"type": "DT_INT32"}, "value": {"tensor": {"dtype": "DT_INT32", "tensorShape": {}}}}}, {"name": "unknown_64", "op": "Const", "attr": {"dtype": {"type": "DT_FLOAT"}, "value": {"tensor": {"dtype": "DT_FLOAT", "tensorShape": {"dim": [{"size": "320"}]}}}}}, {"name": "PartitionedCall/split_13", "op": "Const", "attr": {"dtype": {"type": "DT_FLOAT"}, "value": {"tensor": {"dtype": "DT_FLOAT", "tensorShape": {"dim": [{"size": "1"}, {"size": "1"}, {"size": "320"}, {"size": "1280"}]}}}}}, {"name": "unknown_66", "op": "Const", "attr": {"value": {"tensor": {"dtype": "DT_FLOAT", "tensorShape": {"dim": [{"size": "1280"}]}}}, "dtype": {"type": "DT_FLOAT"}}}, {"name": "PartitionedCall/transpose_59/perm", "op": "Const", "attr": {"value": {"tensor": {"dtype": "DT_INT32", "tensorShape": {"dim": [{"size": "4"}]}}}, "dtype": {"type": "DT_INT32"}}}, {"name": "ConstantFolding/PartitionedCall/onnx_tf_prefix_Div_188_recip", "op": "Const", "attr": {"value": {"tensor": {"dtype": "DT_FLOAT", "tensorShape": {}}}, "dtype": {"type": "DT_FLOAT"}}}, {"name": "PartitionedCall/transpose_61/perm", "op": "Const", "attr": {"dtype": {"type": "DT_INT32"}, "value": {"tensor": {"dtype": "DT_INT32", "tensorShape": {"dim": [{"size": "4"}]}}}}}, {"name": "PartitionedCall/split_14", "op": "Const", "attr": {"value": {"tensor": {"dtype": "DT_FLOAT", "tensorShape": {"dim": [{"size": "1"}, {"size": "1"}, {"size": "1280"}, {"size": "320"}]}}}, "dtype": {"type": "DT_FLOAT"}}}, {"name": "unknown_68", "op": "Const", "attr": {"dtype": {"type": "DT_FLOAT"}, "value": {"tensor": {"dtype": "DT_FLOAT", "tensorShape": {"dim": [{"size": "320"}]}}}}}, {"name": "PartitionedCall/transpose_62/perm", "op": "Const", "attr": {"dtype": {"type": "DT_INT32"}, "value": {"tensor": {"dtype": "DT_INT32", "tensorShape": {"dim": [{"size": "4"}]}}}}}, {"name": "unknown_69", "op": "Const", "attr": {"dtype": {"type": "DT_FLOAT"}, "value": {"tensor": {"dtype": "DT_FLOAT", "tensorShape": {"dim": [{"size": "1"}, {"size": "320"}, {"size": "1"}, {"size": "1"}]}}}}}, {"name": "unknown_54", "op": "Const", "attr": {"dtype": {"type": "DT_FLOAT"}, "value": {"tensor": {"dtype": "DT_FLOAT", "tensorShape": {"dim": [{"size": "320"}]}}}}}, {"name": "PartitionedCall/onnx_tf_prefix_ReduceMean_152/reduction_indices", "op": "Const", "attr": {"dtype": {"type": "DT_INT32"}, "value": {"tensor": {"dtype": "DT_INT32", "tensorShape": {}}}}}, {"name": "PartitionedCall/Const_4", "op": "Const", "attr": {"dtype": {"type": "DT_INT32"}, "value": {"tensor": {"dtype": "DT_INT32", "tensorShape": {"dim": [{"size": "4"}, {"size": "2"}]}}}}}, {"name": "PartitionedCall/transpose_46/perm", "op": "Const", "attr": {"dtype": {"type": "DT_INT32"}, "value": {"tensor": {"dtype": "DT_INT32", "tensorShape": {"dim": [{"size": "4"}]}}}}}, {"name": "PartitionedCall/Reshape_4", "op": "Const", "attr": {"value": {"tensor": {"dtype": "DT_FLOAT", "tensorShape": {"dim": [{"size": "7"}, {"size": "7"}, {"size": "320"}, {"size": "1"}]}}}, "dtype": {"type": "DT_FLOAT"}}}, {"name": "unknown_53", "op": "Const", "attr": {"value": {"tensor": {"dtype": "DT_FLOAT", "tensorShape": {"dim": [{"size": "320"}]}}}, "dtype": {"type": "DT_FLOAT"}}}, {"name": "PartitionedCall/onnx_tf_prefix_ReduceMean_148/reduction_indices", "op": "Const", "attr": {"dtype": {"type": "DT_INT32"}, "value": {"tensor": {"dtype": "DT_INT32", "tensorShape": {}}}}}, {"name": "unknown_55", "op": "Const", "attr": {"value": {"tensor": {"dtype": "DT_FLOAT", "tensorShape": {"dim": [{"size": "320"}]}}}, "dtype": {"type": "DT_FLOAT"}}}, {"name": "PartitionedCall/split_11", "op": "Const", "attr": {"value": {"tensor": {"dtype": "DT_FLOAT", "tensorShape": {"dim": [{"size": "1"}, {"size": "1"}, {"size": "320"}, {"size": "1280"}]}}}, "dtype": {"type": "DT_FLOAT"}}}, {"name": "unknown_57", "op": "Const", "attr": {"dtype": {"type": "DT_FLOAT"}, "value": {"tensor": {"dtype": "DT_FLOAT", "tensorShape": {"dim": [{"size": "1280"}]}}}}}, {"name": "PartitionedCall/transpose_50/perm", "op": "Const", "attr": {"dtype": {"type": "DT_INT32"}, "value": {"tensor": {"dtype": "DT_INT32", "tensorShape": {"dim": [{"size": "4"}]}}}}}, {"name": "ConstantFolding/PartitionedCall/onnx_tf_prefix_Div_162_recip", "op": "Const", "attr": {"value": {"tensor": {"dtype": "DT_FLOAT", "tensorShape": {}}}, "dtype": {"type": "DT_FLOAT"}}}, {"name": "PartitionedCall/transpose_52/perm", "op": "Const", "attr": {"dtype": {"type": "DT_INT32"}, "value": {"tensor": {"dtype": "DT_INT32", "tensorShape": {"dim": [{"size": "4"}]}}}}}, {"name": "PartitionedCall/split_12", "op": "Const", "attr": {"value": {"tensor": {"dtype": "DT_FLOAT", "tensorShape": {"dim": [{"size": "1"}, {"size": "1"}, {"size": "1280"}, {"size": "320"}]}}}, "dtype": {"type": "DT_FLOAT"}}}, {"name": "unknown_59", "op": "Const", "attr": {"value": {"tensor": {"dtype": "DT_FLOAT", "tensorShape": {"dim": [{"size": "320"}]}}}, "dtype": {"type": "DT_FLOAT"}}}, {"name": "PartitionedCall/transpose_53/perm", "op": "Const", "attr": {"dtype": {"type": "DT_INT32"}, "value": {"tensor": {"dtype": "DT_INT32", "tensorShape": {"dim": [{"size": "4"}]}}}}}, {"name": "unknown_60", "op": "Const", "attr": {"dtype": {"type": "DT_FLOAT"}, "value": {"tensor": {"dtype": "DT_FLOAT", "tensorShape": {"dim": [{"size": "1"}, {"size": "320"}, {"size": "1"}, {"size": "1"}]}}}}}, {"name": "unknown_48", "op": "Const", "attr": {"dtype": {"type": "DT_FLOAT"}, "value": {"tensor": {"dtype": "DT_FLOAT", "tensorShape": {"dim": [{"size": "160"}]}}}}}, {"name": "PartitionedCall/onnx_tf_prefix_ReduceMean_137/reduction_indices", "op": "Const", "attr": {"dtype": {"type": "DT_INT32"}, "value": {"tensor": {"dtype": "DT_INT32", "tensorShape": {}}}}}, {"name": "unknown_41", "op": "Const", "attr": {"value": {"tensor": {"dtype": "DT_FLOAT", "tensorShape": {"dim": [{"size": "160"}]}}}, "dtype": {"type": "DT_FLOAT"}}}, {"name": "PartitionedCall/onnx_tf_prefix_ReduceMean_112/reduction_indices", "op": "Const", "attr": {"dtype": {"type": "DT_INT32"}, "value": {"tensor": {"dtype": "DT_INT32", "tensorShape": {}}}}}, {"name": "PartitionedCall/Const_3", "op": "Const", "attr": {"value": {"tensor": {"dtype": "DT_INT32", "tensorShape": {"dim": [{"size": "4"}, {"size": "2"}]}}}, "dtype": {"type": "DT_INT32"}}}, {"name": "PartitionedCall/transpose_34/perm", "op": "Const", "attr": {"dtype": {"type": "DT_INT32"}, "value": {"tensor": {"dtype": "DT_INT32", "tensorShape": {"dim": [{"size": "4"}]}}}}}, {"name": "PartitionedCall/Reshape_3", "op": "Const", "attr": {"dtype": {"type": "DT_FLOAT"}, "value": {"tensor": {"dtype": "DT_FLOAT", "tensorShape": {"dim": [{"size": "7"}, {"size": "7"}, {"size": "160"}, {"size": "1"}]}}}}}, {"name": "unknown_40", "op": "Const", "attr": {"value": {"tensor": {"dtype": "DT_FLOAT", "tensorShape": {"dim": [{"size": "160"}]}}}, "dtype": {"type": "DT_FLOAT"}}}, {"name": "PartitionedCall/onnx_tf_prefix_ReduceMean_108/reduction_indices", "op": "Const", "attr": {"value": {"tensor": {"dtype": "DT_INT32", "tensorShape": {}}}, "dtype": {"type": "DT_INT32"}}}, {"name": "unknown_42", "op": "Const", "attr": {"dtype": {"type": "DT_FLOAT"}, "value": {"tensor": {"dtype": "DT_FLOAT", "tensorShape": {"dim": [{"size": "160"}]}}}}}, {"name": "PartitionedCall/split_8", "op": "Const", "attr": {"value": {"tensor": {"dtype": "DT_FLOAT", "tensorShape": {"dim": [{"size": "1"}, {"size": "1"}, {"size": "160"}, {"size": "640"}]}}}, "dtype": {"type": "DT_FLOAT"}}}, {"name": "unknown_44", "op": "Const", "attr": {"dtype": {"type": "DT_FLOAT"}, "value": {"tensor": {"dtype": "DT_FLOAT", "tensorShape": {"dim": [{"size": "640"}]}}}}}, {"name": "PartitionedCall/transpose_38/perm", "op": "Const", "attr": {"value": {"tensor": {"dtype": "DT_INT32", "tensorShape": {"dim": [{"size": "4"}]}}}, "dtype": {"type": "DT_INT32"}}}, {"name": "ConstantFolding/PartitionedCall/onnx_tf_prefix_Div_122_recip", "op": "Const", "attr": {"value": {"tensor": {"dtype": "DT_FLOAT", "tensorShape": {}}}, "dtype": {"type": "DT_FLOAT"}}}, {"name": "PartitionedCall/transpose_40/perm", "op": "Const", "attr": {"dtype": {"type": "DT_INT32"}, "value": {"tensor": {"dtype": "DT_INT32", "tensorShape": {"dim": [{"size": "4"}]}}}}}, {"name": "PartitionedCall/split_9", "op": "Const", "attr": {"dtype": {"type": "DT_FLOAT"}, "value": {"tensor": {"dtype": "DT_FLOAT", "tensorShape": {"dim": [{"size": "1"}, {"size": "1"}, {"size": "640"}, {"size": "160"}]}}}}}, {"name": "unknown_46", "op": "Const", "attr": {"value": {"tensor": {"dtype": "DT_FLOAT", "tensorShape": {"dim": [{"size": "160"}]}}}, "dtype": {"type": "DT_FLOAT"}}}, {"name": "PartitionedCall/transpose_41/perm", "op": "Const", "attr": {"value": {"tensor": {"dtype": "DT_INT32", "tensorShape": {"dim": [{"size": "4"}]}}}, "dtype": {"type": "DT_INT32"}}}, {"name": "unknown_47", "op": "Const", "attr": {"dtype": {"type": "DT_FLOAT"}, "value": {"tensor": {"dtype": "DT_FLOAT", "tensorShape": {"dim": [{"size": "1"}, {"size": "160"}, {"size": "1"}, {"size": "1"}]}}}}}, {"name": "unknown_32", "op": "Const", "attr": {"value": {"tensor": {"dtype": "DT_FLOAT", "tensorShape": {"dim": [{"size": "160"}]}}}, "dtype": {"type": "DT_FLOAT"}}}, {"name": "PartitionedCall/onnx_tf_prefix_ReduceMean_86/reduction_indices", "op": "Const", "attr": {"dtype": {"type": "DT_INT32"}, "value": {"tensor": {"dtype": "DT_INT32", "tensorShape": {}}}}}, {"name": "PartitionedCall/Const_2", "op": "Const", "attr": {"value": {"tensor": {"dtype": "DT_INT32", "tensorShape": {"dim": [{"size": "4"}, {"size": "2"}]}}}, "dtype": {"type": "DT_INT32"}}}, {"name": "PartitionedCall/transpose_25/perm", "op": "Const", "attr": {"value": {"tensor": {"dtype": "DT_INT32", "tensorShape": {"dim": [{"size": "4"}]}}}, "dtype": {"type": "DT_INT32"}}}, {"name": "PartitionedCall/Reshape_2", "op": "Const", "attr": {"dtype": {"type": "DT_FLOAT"}, "value": {"tensor": {"dtype": "DT_FLOAT", "tensorShape": {"dim": [{"size": "7"}, {"size": "7"}, {"size": "160"}, {"size": "1"}]}}}}}, {"name": "unknown_31", "op": "Const", "attr": {"dtype": {"type": "DT_FLOAT"}, "value": {"tensor": {"dtype": "DT_FLOAT", "tensorShape": {"dim": [{"size": "160"}]}}}}}, {"name": "PartitionedCall/onnx_tf_prefix_ReduceMean_82/reduction_indices", "op": "Const", "attr": {"dtype": {"type": "DT_INT32"}, "value": {"tensor": {"dtype": "DT_INT32", "tensorShape": {}}}}}, {"name": "unknown_33", "op": "Const", "attr": {"dtype": {"type": "DT_FLOAT"}, "value": {"tensor": {"dtype": "DT_FLOAT", "tensorShape": {"dim": [{"size": "160"}]}}}}}, {"name": "PartitionedCall/split_6", "op": "Const", "attr": {"dtype": {"type": "DT_FLOAT"}, "value": {"tensor": {"dtype": "DT_FLOAT", "tensorShape": {"dim": [{"size": "1"}, {"size": "1"}, {"size": "160"}, {"size": "640"}]}}}}}, {"name": "unknown_35", "op": "Const", "attr": {"value": {"tensor": {"dtype": "DT_FLOAT", "tensorShape": {"dim": [{"size": "640"}]}}}, "dtype": {"type": "DT_FLOAT"}}}, {"name": "PartitionedCall/transpose_29/perm", "op": "Const", "attr": {"dtype": {"type": "DT_INT32"}, "value": {"tensor": {"dtype": "DT_INT32", "tensorShape": {"dim": [{"size": "4"}]}}}}}, {"name": "ConstantFolding/PartitionedCall/onnx_tf_prefix_Div_96_recip", "op": "Const", "attr": {"value": {"tensor": {"dtype": "DT_FLOAT", "tensorShape": {}}}, "dtype": {"type": "DT_FLOAT"}}}, {"name": "PartitionedCall/transpose_31/perm", "op": "Const", "attr": {"value": {"tensor": {"dtype": "DT_INT32", "tensorShape": {"dim": [{"size": "4"}]}}}, "dtype": {"type": "DT_INT32"}}}, {"name": "PartitionedCall/split_7", "op": "Const", "attr": {"value": {"tensor": {"dtype": "DT_FLOAT", "tensorShape": {"dim": [{"size": "1"}, {"size": "1"}, {"size": "640"}, {"size": "160"}]}}}, "dtype": {"type": "DT_FLOAT"}}}, {"name": "unknown_37", "op": "Const", "attr": {"dtype": {"type": "DT_FLOAT"}, "value": {"tensor": {"dtype": "DT_FLOAT", "tensorShape": {"dim": [{"size": "160"}]}}}}}, {"name": "PartitionedCall/transpose_32/perm", "op": "Const", "attr": {"dtype": {"type": "DT_INT32"}, "value": {"tensor": {"dtype": "DT_INT32", "tensorShape": {"dim": [{"size": "4"}]}}}}}, {"name": "unknown_38", "op": "Const", "attr": {"value": {"tensor": {"dtype": "DT_FLOAT", "tensorShape": {"dim": [{"size": "1"}, {"size": "160"}, {"size": "1"}, {"size": "1"}]}}}, "dtype": {"type": "DT_FLOAT"}}}, {"name": "unknown_26", "op": "Const", "attr": {"value": {"tensor": {"dtype": "DT_FLOAT", "tensorShape": {"dim": [{"size": "80"}]}}}, "dtype": {"type": "DT_FLOAT"}}}, {"name": "PartitionedCall/onnx_tf_prefix_ReduceMean_71/reduction_indices", "op": "Const", "attr": {"value": {"tensor": {"dtype": "DT_INT32", "tensorShape": {}}}, "dtype": {"type": "DT_INT32"}}}, {"name": "unknown_19", "op": "Const", "attr": {"value": {"tensor": {"dtype": "DT_FLOAT", "tensorShape": {"dim": [{"size": "80"}]}}}, "dtype": {"type": "DT_FLOAT"}}}, {"name": "PartitionedCall/onnx_tf_prefix_ReduceMean_46/reduction_indices", "op": "Const", "attr": {"dtype": {"type": "DT_INT32"}, "value": {"tensor": {"dtype": "DT_INT32", "tensorShape": {}}}}}, {"name": "PartitionedCall/Const_1", "op": "Const", "attr": {"dtype": {"type": "DT_INT32"}, "value": {"tensor": {"dtype": "DT_INT32", "tensorShape": {"dim": [{"size": "4"}, {"size": "2"}]}}}}}, {"name": "PartitionedCall/transpose_13/perm", "op": "Const", "attr": {"dtype": {"type": "DT_INT32"}, "value": {"tensor": {"dtype": "DT_INT32", "tensorShape": {"dim": [{"size": "4"}]}}}}}, {"name": "PartitionedCall/Reshape_1", "op": "Const", "attr": {"value": {"tensor": {"dtype": "DT_FLOAT", "tensorShape": {"dim": [{"size": "7"}, {"size": "7"}, {"size": "80"}, {"size": "1"}]}}}, "dtype": {"type": "DT_FLOAT"}}}, {"name": "unknown_18", "op": "Const", "attr": {"dtype": {"type": "DT_FLOAT"}, "value": {"tensor": {"dtype": "DT_FLOAT", "tensorShape": {"dim": [{"size": "80"}]}}}}}, {"name": "PartitionedCall/onnx_tf_prefix_ReduceMean_42/reduction_indices", "op": "Const", "attr": {"dtype": {"type": "DT_INT32"}, "value": {"tensor": {"dtype": "DT_INT32", "tensorShape": {}}}}}, {"name": "unknown_20", "op": "Const", "attr": {"value": {"tensor": {"dtype": "DT_FLOAT", "tensorShape": {"dim": [{"size": "80"}]}}}, "dtype": {"type": "DT_FLOAT"}}}, {"name": "PartitionedCall/split_3", "op": "Const", "attr": {"value": {"tensor": {"dtype": "DT_FLOAT", "tensorShape": {"dim": [{"size": "1"}, {"size": "1"}, {"size": "80"}, {"size": "320"}]}}}, "dtype": {"type": "DT_FLOAT"}}}, {"name": "unknown_22", "op": "Const", "attr": {"value": {"tensor": {"dtype": "DT_FLOAT", "tensorShape": {"dim": [{"size": "320"}]}}}, "dtype": {"type": "DT_FLOAT"}}}, {"name": "PartitionedCall/transpose_17/perm", "op": "Const", "attr": {"dtype": {"type": "DT_INT32"}, "value": {"tensor": {"dtype": "DT_INT32", "tensorShape": {"dim": [{"size": "4"}]}}}}}, {"name": "ConstantFolding/PartitionedCall/onnx_tf_prefix_Div_56_recip", "op": "Const", "attr": {"value": {"tensor": {"dtype": "DT_FLOAT", "tensorShape": {}}}, "dtype": {"type": "DT_FLOAT"}}}, {"name": "PartitionedCall/transpose_19/perm", "op": "Const", "attr": {"dtype": {"type": "DT_INT32"}, "value": {"tensor": {"dtype": "DT_INT32", "tensorShape": {"dim": [{"size": "4"}]}}}}}, {"name": "PartitionedCall/split_4", "op": "Const", "attr": {"dtype": {"type": "DT_FLOAT"}, "value": {"tensor": {"dtype": "DT_FLOAT", "tensorShape": {"dim": [{"size": "1"}, {"size": "1"}, {"size": "320"}, {"size": "80"}]}}}}}, {"name": "unknown_24", "op": "Const", "attr": {"dtype": {"type": "DT_FLOAT"}, "value": {"tensor": {"dtype": "DT_FLOAT", "tensorShape": {"dim": [{"size": "80"}]}}}}}, {"name": "PartitionedCall/transpose_20/perm", "op": "Const", "attr": {"value": {"tensor": {"dtype": "DT_INT32", "tensorShape": {"dim": [{"size": "4"}]}}}, "dtype": {"type": "DT_INT32"}}}, {"name": "unknown_25", "op": "Const", "attr": {"dtype": {"type": "DT_FLOAT"}, "value": {"tensor": {"dtype": "DT_FLOAT", "tensorShape": {"dim": [{"size": "1"}, {"size": "80"}, {"size": "1"}, {"size": "1"}]}}}}}, {"name": "unknown_13", "op": "Const", "attr": {"dtype": {"type": "DT_FLOAT"}, "value": {"tensor": {"dtype": "DT_FLOAT", "tensorShape": {}}}}}, {"name": "unknown_7", "op": "Const", "attr": {"dtype": {"type": "DT_FLOAT"}, "value": {"tensor": {"dtype": "DT_FLOAT", "tensorShape": {"dim": [{"size": "80"}]}}}}}, {"name": "PartitionedCall/onnx_tf_prefix_ReduceMean_20/reduction_indices", "op": "Const", "attr": {"dtype": {"type": "DT_INT32"}, "value": {"tensor": {"dtype": "DT_INT32", "tensorShape": {}}}}}, {"name": "PartitionedCall/Const", "op": "Const", "attr": {"value": {"tensor": {"dtype": "DT_INT32", "tensorShape": {"dim": [{"size": "4"}, {"size": "2"}]}}}, "dtype": {"type": "DT_INT32"}}}, {"name": "PartitionedCall/transpose_4/perm", "op": "Const", "attr": {"value": {"tensor": {"dtype": "DT_INT32", "tensorShape": {"dim": [{"size": "4"}]}}}, "dtype": {"type": "DT_INT32"}}}, {"name": "PartitionedCall/Reshape", "op": "Const", "attr": {"dtype": {"type": "DT_FLOAT"}, "value": {"tensor": {"dtype": "DT_FLOAT", "tensorShape": {"dim": [{"size": "7"}, {"size": "7"}, {"size": "80"}, {"size": "1"}]}}}}}, {"name": "unknown_6", "op": "Const", "attr": {"dtype": {"type": "DT_FLOAT"}, "value": {"tensor": {"dtype": "DT_FLOAT", "tensorShape": {"dim": [{"size": "80"}]}}}}}, {"name": "PartitionedCall/onnx_tf_prefix_ReduceMean_16/reduction_indices", "op": "Const", "attr": {"value": {"tensor": {"dtype": "DT_INT32", "tensorShape": {}}}, "dtype": {"type": "DT_INT32"}}}, {"name": "unknown_8", "op": "Const", "attr": {"value": {"tensor": {"dtype": "DT_FLOAT", "tensorShape": {"dim": [{"size": "80"}]}}}, "dtype": {"type": "DT_FLOAT"}}}, {"name": "PartitionedCall/split_1", "op": "Const", "attr": {"value": {"tensor": {"dtype": "DT_FLOAT", "tensorShape": {"dim": [{"size": "1"}, {"size": "1"}, {"size": "80"}, {"size": "320"}]}}}, "dtype": {"type": "DT_FLOAT"}}}, {"name": "unknown_10", "op": "Const", "attr": {"dtype": {"type": "DT_FLOAT"}, "value": {"tensor": {"dtype": "DT_FLOAT", "tensorShape": {"dim": [{"size": "320"}]}}}}}, {"name": "PartitionedCall/transpose_8/perm", "op": "Const", "attr": {"dtype": {"type": "DT_INT32"}, "value": {"tensor": {"dtype": "DT_INT32", "tensorShape": {"dim": [{"size": "4"}]}}}}}, {"name": "ConstantFolding/PartitionedCall/onnx_tf_prefix_Div_30_recip", "op": "Const", "attr": {"value": {"tensor": {"dtype": "DT_FLOAT", "tensorShape": {}}}, "dtype": {"type": "DT_FLOAT"}}}, {"name": "unknown_12", "op": "Const", "attr": {"dtype": {"type": "DT_FLOAT"}, "value": {"tensor": {"dtype": "DT_FLOAT", "tensorShape": {}}}}}, {"name": "PartitionedCall/transpose_10/perm", "op": "Const", "attr": {"dtype": {"type": "DT_INT32"}, "value": {"tensor": {"dtype": "DT_INT32", "tensorShape": {"dim": [{"size": "4"}]}}}}}, {"name": "PartitionedCall/split_2", "op": "Const", "attr": {"dtype": {"type": "DT_FLOAT"}, "value": {"tensor": {"dtype": "DT_FLOAT", "tensorShape": {"dim": [{"size": "1"}, {"size": "1"}, {"size": "320"}, {"size": "80"}]}}}}}, {"name": "unknown_15", "op": "Const", "attr": {"dtype": {"type": "DT_FLOAT"}, "value": {"tensor": {"dtype": "DT_FLOAT", "tensorShape": {"dim": [{"size": "80"}]}}}}}, {"name": "PartitionedCall/transpose_11/perm", "op": "Const", "attr": {"value": {"tensor": {"dtype": "DT_INT32", "tensorShape": {"dim": [{"size": "4"}]}}}, "dtype": {"type": "DT_INT32"}}}, {"name": "unknown_16", "op": "Const", "attr": {"dtype": {"type": "DT_FLOAT"}, "value": {"tensor": {"dtype": "DT_FLOAT", "tensorShape": {"dim": [{"size": "1"}, {"size": "80"}, {"size": "1"}, {"size": "1"}]}}}}}, {"name": "unknown_3", "op": "Const", "attr": {"dtype": {"type": "DT_FLOAT"}, "value": {"tensor": {"dtype": "DT_FLOAT", "tensorShape": {"dim": [{"size": "80"}]}}}}}, {"name": "PartitionedCall/onnx_tf_prefix_ReduceMean_6/reduction_indices", "op": "Const", "attr": {"dtype": {"type": "DT_INT32"}, "value": {"tensor": {"dtype": "DT_INT32", "tensorShape": {}}}}}, {"name": "unknown_2", "op": "Const", "attr": {"value": {"tensor": {"dtype": "DT_FLOAT", "tensorShape": {}}}, "dtype": {"type": "DT_FLOAT"}}}, {"name": "PartitionedCall/split", "op": "Const", "attr": {"value": {"tensor": {"dtype": "DT_FLOAT", "tensorShape": {"dim": [{"size": "4"}, {"size": "4"}, {"size": "3"}, {"size": "80"}]}}}, "dtype": {"type": "DT_FLOAT"}}}, {"name": "unknown_0", "op": "Const", "attr": {"dtype": {"type": "DT_FLOAT"}, "value": {"tensor": {"dtype": "DT_FLOAT", "tensorShape": {"dim": [{"size": "80"}]}}}}}, {"name": "PartitionedCall/onnx_tf_prefix_ReduceMean_2/reduction_indices", "op": "Const", "attr": {"value": {"tensor": {"dtype": "DT_INT32", "tensorShape": {}}}, "dtype": {"type": "DT_INT32"}}}, {"name": "unknown_4", "op": "Const", "attr": {"dtype": {"type": "DT_FLOAT"}, "value": {"tensor": {"dtype": "DT_FLOAT", "tensorShape": {"dim": [{"size": "80"}]}}}}}, {"name": "PartitionedCall/onnx_tf_prefix_Transpose_13/perm", "op": "Const", "attr": {"dtype": {"type": "DT_INT32"}, "value": {"tensor": {"dtype": "DT_INT32", "tensorShape": {"dim": [{"size": "4"}]}}}}}, {"name": "PartitionedCall/onnx_tf_prefix_Transpose_66/perm", "op": "Const", "attr": {"dtype": {"type": "DT_INT32"}, "value": {"tensor": {"dtype": "DT_INT32", "tensorShape": {"dim": [{"size": "4"}]}}}}}, {"name": "PartitionedCall/onnx_tf_prefix_ReduceMean_67/reduction_indices", "op": "Const", "attr": {"dtype": {"type": "DT_INT32"}, "value": {"tensor": {"dtype": "DT_INT32", "tensorShape": {}}}}}, {"name": "unknown_27", "op": "Const", "attr": {"dtype": {"type": "DT_FLOAT"}, "value": {"tensor": {"dtype": "DT_FLOAT", "tensorShape": {"dim": [{"size": "80"}]}}}}}, {"name": "PartitionedCall/split_5", "op": "Const", "attr": {"value": {"tensor": {"dtype": "DT_FLOAT", "tensorShape": {"dim": [{"size": "2"}, {"size": "2"}, {"size": "80"}, {"size": "160"}]}}}, "dtype": {"type": "DT_FLOAT"}}}, {"name": "unknown_29", "op": "Const", "attr": {"dtype": {"type": "DT_FLOAT"}, "value": {"tensor": {"dtype": "DT_FLOAT", "tensorShape": {"dim": [{"size": "160"}]}}}}}, {"name": "PartitionedCall/transpose_23/perm", "op": "Const", "attr": {"value": {"tensor": {"dtype": "DT_INT32", "tensorShape": {"dim": [{"size": "4"}]}}}, "dtype": {"type": "DT_INT32"}}}, {"name": "PartitionedCall/onnx_tf_prefix_Transpose_132/perm", "op": "Const", "attr": {"dtype": {"type": "DT_INT32"}, "value": {"tensor": {"dtype": "DT_INT32", "tensorShape": {"dim": [{"size": "4"}]}}}}}, {"name": "PartitionedCall/onnx_tf_prefix_ReduceMean_133/reduction_indices", "op": "Const", "attr": {"value": {"tensor": {"dtype": "DT_INT32", "tensorShape": {}}}, "dtype": {"type": "DT_INT32"}}}, {"name": "unknown_49", "op": "Const", "attr": {"value": {"tensor": {"dtype": "DT_FLOAT", "tensorShape": {"dim": [{"size": "160"}]}}}, "dtype": {"type": "DT_FLOAT"}}}, {"name": "PartitionedCall/split_10", "op": "Const", "attr": {"value": {"tensor": {"dtype": "DT_FLOAT", "tensorShape": {"dim": [{"size": "2"}, {"size": "2"}, {"size": "160"}, {"size": "320"}]}}}, "dtype": {"type": "DT_FLOAT"}}}, {"name": "unknown_51", "op": "Const", "attr": {"value": {"tensor": {"dtype": "DT_FLOAT", "tensorShape": {"dim": [{"size": "320"}]}}}, "dtype": {"type": "DT_FLOAT"}}}, {"name": "PartitionedCall/transpose_44/perm", "op": "Const", "attr": {"dtype": {"type": "DT_INT32"}, "value": {"tensor": {"dtype": "DT_INT32", "tensorShape": {"dim": [{"size": "4"}]}}}}}, {"name": "PartitionedCall/onnx_tf_prefix_Transpose_354/perm", "op": "Const", "attr": {"value": {"tensor": {"dtype": "DT_INT32", "tensorShape": {"dim": [{"size": "4"}]}}}, "dtype": {"type": "DT_INT32"}}}, {"name": "PartitionedCall/onnx_tf_prefix_ReduceMean_355/reduction_indices", "op": "Const", "attr": {"dtype": {"type": "DT_INT32"}, "value": {"tensor": {"dtype": "DT_INT32", "tensorShape": {}}}}}, {"name": "unknown_125", "op": "Const", "attr": {"dtype": {"type": "DT_FLOAT"}, "value": {"tensor": {"dtype": "DT_FLOAT", "tensorShape": {"dim": [{"size": "320"}]}}}}}, {"name": "PartitionedCall/split_27", "op": "Const", "attr": {"value": {"tensor": {"dtype": "DT_FLOAT", "tensorShape": {"dim": [{"size": "2"}, {"size": "2"}, {"size": "320"}, {"size": "640"}]}}}, "dtype": {"type": "DT_FLOAT"}}}, {"name": "unknown_127", "op": "Const", "attr": {"dtype": {"type": "DT_FLOAT"}, "value": {"tensor": {"dtype": "DT_FLOAT", "tensorShape": {"dim": [{"size": "640"}]}}}}}, {"name": "PartitionedCall/transpose_119/perm", "op": "Const", "attr": {"dtype": {"type": "DT_INT32"}, "value": {"tensor": {"dtype": "DT_INT32", "tensorShape": {"dim": [{"size": "4"}]}}}}}, {"name": "ConstantFolding/PartitionedCall/split_33-folded-1", "op": "Const", "attr": {"value": {"tensor": {"dtype": "DT_INT32", "tensorShape": {"dim": [{"size": "2"}]}}}, "dtype": {"type": "DT_INT32"}}}, {"name": "PartitionedCall/onnx_tf_prefix_Concat_422/axis", "op": "Const", "attr": {"value": {"tensor": {"dtype": "DT_INT32", "tensorShape": {}}}, "dtype": {"type": "DT_INT32"}}}, {"name": "unknown_146", "op": "Const", "attr": {"value": {"tensor": {"dtype": "DT_INT64", "tensorShape": {"dim": [{"size": "2"}]}}}, "dtype": {"type": "DT_INT64"}}}, {"name": "PartitionedCall/Where", "op": "Const", "attr": {"value": {"tensor": {"dtype": "DT_INT64", "tensorShape": {"dim": [{}, {"size": "1"}]}}}, "dtype": {"type": "DT_INT64"}}}, {"name": "PartitionedCall/Cast", "op": "Const", "attr": {"value": {"tensor": {"dtype": "DT_INT64", "tensorShape": {"dim": [{"size": "1"}]}}}, "dtype": {"type": "DT_INT64"}}}, {"name": "PartitionedCall/GatherV2", "op": "Const", "attr": {"dtype": {"type": "DT_INT64"}, "value": {"tensor": {"dtype": "DT_INT64", "tensorShape": {"dim": [{}]}}}}}, {"name": "PartitionedCall/zeros", "op": "Const", "attr": {"dtype": {"type": "DT_INT64"}, "value": {"tensor": {"dtype": "DT_INT64", "tensorShape": {}}}}}, {"name": "PartitionedCall/onnx_tf_prefix_BatchNormalization_424/mul", "op": "Const", "attr": {"dtype": {"type": "DT_FLOAT"}, "value": {"tensor": {"dtype": "DT_FLOAT", "tensorShape": {"dim": [{"size": "1"}, {"size": "1280"}]}}}}}, {"name": "PartitionedCall/onnx_tf_prefix_BatchNormalization_424/sub", "op": "Const", "attr": {"dtype": {"type": "DT_FLOAT"}, "value": {"tensor": {"dtype": "DT_FLOAT", "tensorShape": {"dim": [{"size": "1"}, {"size": "1280"}]}}}}}, {"name": "unknown_151", "op": "Const", "attr": {"dtype": {"type": "DT_FLOAT"}, "value": {"tensor": {"dtype": "DT_FLOAT", "tensorShape": {"dim": [{"size": "1280"}, {"size": "512"}]}}}}}, {"name": "PartitionedCall/onnx_tf_prefix_BatchNormalization_427/mul", "op": "Const", "attr": {"value": {"tensor": {"dtype": "DT_FLOAT", "tensorShape": {"dim": [{"size": "1"}, {"size": "512"}]}}}, "dtype": {"type": "DT_FLOAT"}}}, {"name": "PartitionedCall/onnx_tf_prefix_BatchNormalization_427/sub", "op": "Const", "attr": {"value": {"tensor": {"dtype": "DT_FLOAT", "tensorShape": {"dim": [{"size": "1"}, {"size": "512"}]}}}, "dtype": {"type": "DT_FLOAT"}}}, {"name": "unknown_156", "op": "Const", "attr": {"value": {"tensor": {"dtype": "DT_FLOAT", "tensorShape": {"dim": [{"size": "512"}, {"size": "18"}]}}}, "dtype": {"type": "DT_FLOAT"}}}, {"name": "input", "op": "Placeholder", "attr": {"shape": {"shape": {"dim": [{"size": "1"}, {"size": "-1"}, {"size": "-1"}, {"size": "3"}]}}, "dtype": {"type": "DT_FLOAT"}}}, {"name": "PartitionedCall/SparseToDense", "op": "SparseToDense", "input": ["PartitionedCall/Where", "PartitionedCall/Cast", "PartitionedCall/GatherV2", "PartitionedCall/zeros"], "attr": {"Tindices": {"type": "DT_INT64"}, "T": {"type": "DT_INT64"}, "validate_indices": {"b": true}}}, {"name": "PartitionedCall/convolution", "op": "Conv2D", "input": ["input", "PartitionedCall/split"], "device": "/device:CPU:0", "attr": {"T": {"type": "DT_FLOAT"}, "use_cudnn_on_gpu": {"b": true}, "dilations": {"list": {"i": ["1", "1", "1", "1"]}}, "strides": {"list": {"i": ["1", "4", "4", "1"]}}, "data_format": {"s": "TkhXQw=="}, "explicit_paddings": {"list": {}}, "padding": {"s": "VkFMSUQ="}}}, {"name": "PartitionedCall/add_46", "op": "AddV2", "input": ["unknown_146", "PartitionedCall/SparseToDense"], "attr": {"T": {"type": "DT_INT64"}}}, {"name": "PartitionedCall/Add", "op": "AddV2", "input": ["PartitionedCall/convolution", "unknown_0"], "attr": {"T": {"type": "DT_FLOAT"}}}, {"name": "PartitionedCall/onnx_tf_prefix_ReduceMean_2", "op": "Mean", "input": ["PartitionedCall/Add", "PartitionedCall/onnx_tf_prefix_ReduceMean_2/reduction_indices"], "attr": {"Tidx": {"type": "DT_INT32"}, "keep_dims": {"b": true}, "T": {"type": "DT_FLOAT"}}}, {"name": "PartitionedCall/onnx_tf_prefix_Sub_3", "op": "Sub", "input": ["PartitionedCall/Add", "PartitionedCall/onnx_tf_prefix_ReduceMean_2"], "attr": {"T": {"type": "DT_FLOAT"}}}, {"name": "PartitionedCall/onnx_tf_prefix_Pow_5", "op": "Square", "input": ["PartitionedCall/onnx_tf_prefix_Sub_3"], "attr": {"T": {"type": "DT_FLOAT"}}}, {"name": "PartitionedCall/onnx_tf_prefix_ReduceMean_6", "op": "Mean", "input": ["PartitionedCall/onnx_tf_prefix_Pow_5", "PartitionedCall/onnx_tf_prefix_ReduceMean_6/reduction_indices"], "attr": {"Tidx": {"type": "DT_INT32"}, "keep_dims": {"b": true}, "T": {"type": "DT_FLOAT"}}}, {"name": "PartitionedCall/onnx_tf_prefix_Add_8", "op": "AddV2", "input": ["PartitionedCall/onnx_tf_prefix_ReduceMean_6", "unknown_2"], "attr": {"T": {"type": "DT_FLOAT"}}}, {"name": "PartitionedCall/onnx_tf_prefix_Sqrt_9", "op": "Rsqrt", "input": ["PartitionedCall/onnx_tf_prefix_Add_8"], "attr": {"T": {"type": "DT_FLOAT"}}}, {"name": "PartitionedCall/onnx_tf_prefix_Div_10", "op": "Mul", "input": ["unknown_3", "PartitionedCall/onnx_tf_prefix_Sqrt_9"], "attr": {"T": {"type": "DT_FLOAT"}, "_grappler_ArithmeticOptimizer_MinimizeBroadcasts": {"b": true}}}, {"name": "PartitionedCall/onnx_tf_prefix_Mul_11", "op": "Mul", "input": ["PartitionedCall/onnx_tf_prefix_Div_10", "PartitionedCall/onnx_tf_prefix_Sub_3"], "attr": {"T": {"type": "DT_FLOAT"}, "_grappler_ArithmeticOptimizer_MinimizeBroadcasts": {"b": true}}}, {"name": "PartitionedCall/onnx_tf_prefix_Add_12", "op": "AddV2", "input": ["PartitionedCall/onnx_tf_prefix_Mul_11", "unknown_4"], "attr": {"T": {"type": "DT_FLOAT"}}}, {"name": "PartitionedCall/onnx_tf_prefix_Transpose_13", "op": "Transpose", "input": ["PartitionedCall/onnx_tf_prefix_Add_12", "PartitionedCall/onnx_tf_prefix_Transpose_13/perm"], "attr": {"T": {"type": "DT_FLOAT"}, "Tperm": {"type": "DT_INT32"}}}, {"name": "PartitionedCall/Pad", "op": "Pad", "input": ["PartitionedCall/onnx_tf_prefix_Transpose_13", "PartitionedCall/Const"], "attr": {"T": {"type": "DT_FLOAT"}, "Tpaddings": {"type": "DT_INT32"}}}, {"name": "PartitionedCall/transpose_4", "op": "Transpose", "input": ["PartitionedCall/Pad", "PartitionedCall/transpose_4/perm"], "attr": {"T": {"type": "DT_FLOAT"}, "Tperm": {"type": "DT_INT32"}}}, {"name": "PartitionedCall/depthwise", "op": "DepthwiseConv2dNative", "input": ["PartitionedCall/transpose_4", "PartitionedCall/Reshape"], "attr": {"padding": {"s": "VkFMSUQ="}, "explicit_paddings": {"list": {}}, "data_format": {"s": "TkhXQw=="}, "strides": {"list": {"i": ["1", "1", "1", "1"]}}, "dilations": {"list": {"i": ["1", "1", "1", "1"]}}, "T": {"type": "DT_FLOAT"}}}, {"name": "PartitionedCall/Add_1", "op": "AddV2", "input": ["PartitionedCall/depthwise", "unknown_6"], "attr": {"T": {"type": "DT_FLOAT"}}}, {"name": "PartitionedCall/onnx_tf_prefix_ReduceMean_16", "op": "Mean", "input": ["PartitionedCall/Add_1", "PartitionedCall/onnx_tf_prefix_ReduceMean_16/reduction_indices"], "attr": {"keep_dims": {"b": true}, "Tidx": {"type": "DT_INT32"}, "T": {"type": "DT_FLOAT"}}}, {"name": "PartitionedCall/onnx_tf_prefix_Sub_17", "op": "Sub", "input": ["PartitionedCall/Add_1", "PartitionedCall/onnx_tf_prefix_ReduceMean_16"], "attr": {"T": {"type": "DT_FLOAT"}}}, {"name": "PartitionedCall/onnx_tf_prefix_Pow_19", "op": "Square", "input": ["PartitionedCall/onnx_tf_prefix_Sub_17"], "attr": {"T": {"type": "DT_FLOAT"}}}, {"name": "PartitionedCall/onnx_tf_prefix_ReduceMean_20", "op": "Mean", "input": ["PartitionedCall/onnx_tf_prefix_Pow_19", "PartitionedCall/onnx_tf_prefix_ReduceMean_20/reduction_indices"], "attr": {"keep_dims": {"b": true}, "Tidx": {"type": "DT_INT32"}, "T": {"type": "DT_FLOAT"}}}, {"name": "PartitionedCall/onnx_tf_prefix_Add_22", "op": "AddV2", "input": ["PartitionedCall/onnx_tf_prefix_ReduceMean_20", "unknown_2"], "attr": {"T": {"type": "DT_FLOAT"}}}, {"name": "PartitionedCall/onnx_tf_prefix_Sqrt_23", "op": "Rsqrt", "input": ["PartitionedCall/onnx_tf_prefix_Add_22"], "attr": {"T": {"type": "DT_FLOAT"}}}, {"name": "PartitionedCall/onnx_tf_prefix_Div_24", "op": "Mul", "input": ["unknown_7", "PartitionedCall/onnx_tf_prefix_Sqrt_23"], "attr": {"T": {"type": "DT_FLOAT"}, "_grappler_ArithmeticOptimizer_MinimizeBroadcasts": {"b": true}}}, {"name": "PartitionedCall/onnx_tf_prefix_Mul_25", "op": "Mul", "input": ["PartitionedCall/onnx_tf_prefix_Div_24", "PartitionedCall/onnx_tf_prefix_Sub_17"], "attr": {"T": {"type": "DT_FLOAT"}, "_grappler_ArithmeticOptimizer_MinimizeBroadcasts": {"b": true}}}, {"name": "PartitionedCall/onnx_tf_prefix_Add_26", "op": "AddV2", "input": ["PartitionedCall/onnx_tf_prefix_Mul_25", "unknown_8"], "attr": {"T": {"type": "DT_FLOAT"}}}, {"name": "PartitionedCall/convolution_1", "op": "Conv2D", "input": ["PartitionedCall/onnx_tf_prefix_Add_26", "PartitionedCall/split_1"], "device": "/device:CPU:0", "attr": {"T": {"type": "DT_FLOAT"}, "strides": {"list": {"i": ["1", "1", "1", "1"]}}, "use_cudnn_on_gpu": {"b": true}, "padding": {"s": "VkFMSUQ="}, "dilations": {"list": {"i": ["1", "1", "1", "1"]}}, "data_format": {"s": "TkhXQw=="}, "explicit_paddings": {"list": {}}}}, {"name": "PartitionedCall/Add_2", "op": "AddV2", "input": ["PartitionedCall/convolution_1", "unknown_10"], "attr": {"T": {"type": "DT_FLOAT"}}}, {"name": "PartitionedCall/transpose_8", "op": "Transpose", "input": ["PartitionedCall/Add_2", "PartitionedCall/transpose_8/perm"], "attr": {"T": {"type": "DT_FLOAT"}, "Tperm": {"type": "DT_INT32"}}}, {"name": "PartitionedCall/onnx_tf_prefix_Mul_34", "op": "Mul", "input": ["unknown_13", "PartitionedCall/transpose_8"], "attr": {"T": {"type": "DT_FLOAT"}, "_grappler_ArithmeticOptimizer_MinimizeBroadcasts": {"b": true}}}, {"name": "PartitionedCall/onnx_tf_prefix_Div_30", "op": "Mul", "input": ["PartitionedCall/transpose_8", "ConstantFolding/PartitionedCall/onnx_tf_prefix_Div_30_recip"], "attr": {"T": {"type": "DT_FLOAT"}}}, {"name": "PartitionedCall/onnx_tf_prefix_Erf_31", "op": "Erf", "input": ["PartitionedCall/onnx_tf_prefix_Div_30"], "attr": {"T": {"type": "DT_FLOAT"}}}, {"name": "PartitionedCall/onnx_tf_prefix_Add_33", "op": "AddV2", "input": ["PartitionedCall/onnx_tf_prefix_Erf_31", "unknown_12"], "attr": {"T": {"type": "DT_FLOAT"}}}, {"name": "PartitionedCall/onnx_tf_prefix_Mul_36", "op": "Mul", "input": ["PartitionedCall/onnx_tf_prefix_Mul_34", "PartitionedCall/onnx_tf_prefix_Add_33"], "attr": {"_grappler_ArithmeticOptimizer_MinimizeBroadcasts": {"b": true}, "T": {"type": "DT_FLOAT"}}}, {"name": "PartitionedCall/transpose_10", "op": "Transpose", "input": ["PartitionedCall/onnx_tf_prefix_Mul_36", "PartitionedCall/transpose_10/perm"], "attr": {"Tperm": {"type": "DT_INT32"}, "T": {"type": "DT_FLOAT"}}}, {"name": "PartitionedCall/convolution_2", "op": "Conv2D", "input": ["PartitionedCall/transpose_10", "PartitionedCall/split_2"], "device": "/device:CPU:0", "attr": {"dilations": {"list": {"i": ["1", "1", "1", "1"]}}, "use_cudnn_on_gpu": {"b": true}, "T": {"type": "DT_FLOAT"}, "explicit_paddings": {"list": {}}, "data_format": {"s": "TkhXQw=="}, "padding": {"s": "VkFMSUQ="}, "strides": {"list": {"i": ["1", "1", "1", "1"]}}}}, {"name": "PartitionedCall/Add_3", "op": "AddV2", "input": ["PartitionedCall/convolution_2", "unknown_15"], "attr": {"T": {"type": "DT_FLOAT"}}}, {"name": "PartitionedCall/transpose_11", "op": "Transpose", "input": ["PartitionedCall/Add_3", "PartitionedCall/transpose_11/perm"], "attr": {"Tperm": {"type": "DT_INT32"}, "T": {"type": "DT_FLOAT"}}}, {"name": "PartitionedCall/onnx_tf_prefix_Mul_38", "op": "Mul", "input": ["PartitionedCall/transpose_11", "unknown_16"], "attr": {"T": {"type": "DT_FLOAT"}}}, {"name": "PartitionedCall/onnx_tf_prefix_Add_39", "op": "AddV2", "input": ["PartitionedCall/onnx_tf_prefix_Mul_38", "PartitionedCall/onnx_tf_prefix_Transpose_13"], "attr": {"T": {"type": "DT_FLOAT"}}}, {"name": "PartitionedCall/Pad_1", "op": "Pad", "input": ["PartitionedCall/onnx_tf_prefix_Add_39", "PartitionedCall/Const_1"], "attr": {"T": {"type": "DT_FLOAT"}, "Tpaddings": {"type": "DT_INT32"}}}, {"name": "PartitionedCall/transpose_13", "op": "Transpose", "input": ["PartitionedCall/Pad_1", "PartitionedCall/transpose_13/perm"], "attr": {"Tperm": {"type": "DT_INT32"}, "T": {"type": "DT_FLOAT"}}}, {"name": "PartitionedCall/depthwise_1", "op": "DepthwiseConv2dNative", "input": ["PartitionedCall/transpose_13", "PartitionedCall/Reshape_1"], "attr": {"dilations": {"list": {"i": ["1", "1", "1", "1"]}}, "data_format": {"s": "TkhXQw=="}, "explicit_paddings": {"list": {}}, "padding": {"s": "VkFMSUQ="}, "T": {"type": "DT_FLOAT"}, "strides": {"list": {"i": ["1", "1", "1", "1"]}}}}, {"name": "PartitionedCall/Add_4", "op": "AddV2", "input": ["PartitionedCall/depthwise_1", "unknown_18"], "attr": {"T": {"type": "DT_FLOAT"}}}, {"name": "PartitionedCall/onnx_tf_prefix_ReduceMean_42", "op": "Mean", "input": ["PartitionedCall/Add_4", "PartitionedCall/onnx_tf_prefix_ReduceMean_42/reduction_indices"], "attr": {"T": {"type": "DT_FLOAT"}, "Tidx": {"type": "DT_INT32"}, "keep_dims": {"b": true}}}, {"name": "PartitionedCall/onnx_tf_prefix_Sub_43", "op": "Sub", "input": ["PartitionedCall/Add_4", "PartitionedCall/onnx_tf_prefix_ReduceMean_42"], "attr": {"T": {"type": "DT_FLOAT"}}}, {"name": "PartitionedCall/onnx_tf_prefix_Pow_45", "op": "Square", "input": ["PartitionedCall/onnx_tf_prefix_Sub_43"], "attr": {"T": {"type": "DT_FLOAT"}}}, {"name": "PartitionedCall/onnx_tf_prefix_ReduceMean_46", "op": "Mean", "input": ["PartitionedCall/onnx_tf_prefix_Pow_45", "PartitionedCall/onnx_tf_prefix_ReduceMean_46/reduction_indices"], "attr": {"T": {"type": "DT_FLOAT"}, "Tidx": {"type": "DT_INT32"}, "keep_dims": {"b": true}}}, {"name": "PartitionedCall/onnx_tf_prefix_Add_48", "op": "AddV2", "input": ["PartitionedCall/onnx_tf_prefix_ReduceMean_46", "unknown_2"], "attr": {"T": {"type": "DT_FLOAT"}}}, {"name": "PartitionedCall/onnx_tf_prefix_Sqrt_49", "op": "Rsqrt", "input": ["PartitionedCall/onnx_tf_prefix_Add_48"], "attr": {"T": {"type": "DT_FLOAT"}}}, {"name": "PartitionedCall/onnx_tf_prefix_Div_50", "op": "Mul", "input": ["unknown_19", "PartitionedCall/onnx_tf_prefix_Sqrt_49"], "attr": {"_grappler_ArithmeticOptimizer_MinimizeBroadcasts": {"b": true}, "T": {"type": "DT_FLOAT"}}}, {"name": "PartitionedCall/onnx_tf_prefix_Mul_51", "op": "Mul", "input": ["PartitionedCall/onnx_tf_prefix_Div_50", "PartitionedCall/onnx_tf_prefix_Sub_43"], "attr": {"_grappler_ArithmeticOptimizer_MinimizeBroadcasts": {"b": true}, "T": {"type": "DT_FLOAT"}}}, {"name": "PartitionedCall/onnx_tf_prefix_Add_52", "op": "AddV2", "input": ["PartitionedCall/onnx_tf_prefix_Mul_51", "unknown_20"], "attr": {"T": {"type": "DT_FLOAT"}}}, {"name": "PartitionedCall/convolution_3", "op": "Conv2D", "input": ["PartitionedCall/onnx_tf_prefix_Add_52", "PartitionedCall/split_3"], "device": "/device:CPU:0", "attr": {"padding": {"s": "VkFMSUQ="}, "use_cudnn_on_gpu": {"b": true}, "explicit_paddings": {"list": {}}, "dilations": {"list": {"i": ["1", "1", "1", "1"]}}, "data_format": {"s": "TkhXQw=="}, "strides": {"list": {"i": ["1", "1", "1", "1"]}}, "T": {"type": "DT_FLOAT"}}}, {"name": "PartitionedCall/Add_5", "op": "AddV2", "input": ["PartitionedCall/convolution_3", "unknown_22"], "attr": {"T": {"type": "DT_FLOAT"}}}, {"name": "PartitionedCall/transpose_17", "op": "Transpose", "input": ["PartitionedCall/Add_5", "PartitionedCall/transpose_17/perm"], "attr": {"T": {"type": "DT_FLOAT"}, "Tperm": {"type": "DT_INT32"}}}, {"name": "PartitionedCall/onnx_tf_prefix_Mul_60", "op": "Mul", "input": ["unknown_13", "PartitionedCall/transpose_17"], "attr": {"_grappler_ArithmeticOptimizer_MinimizeBroadcasts": {"b": true}, "T": {"type": "DT_FLOAT"}}}, {"name": "PartitionedCall/onnx_tf_prefix_Div_56", "op": "Mul", "input": ["PartitionedCall/transpose_17", "ConstantFolding/PartitionedCall/onnx_tf_prefix_Div_56_recip"], "attr": {"T": {"type": "DT_FLOAT"}}}, {"name": "PartitionedCall/onnx_tf_prefix_Erf_57", "op": "Erf", "input": ["PartitionedCall/onnx_tf_prefix_Div_56"], "attr": {"T": {"type": "DT_FLOAT"}}}, {"name": "PartitionedCall/onnx_tf_prefix_Add_59", "op": "AddV2", "input": ["PartitionedCall/onnx_tf_prefix_Erf_57", "unknown_12"], "attr": {"T": {"type": "DT_FLOAT"}}}, {"name": "PartitionedCall/onnx_tf_prefix_Mul_62", "op": "Mul", "input": ["PartitionedCall/onnx_tf_prefix_Mul_60", "PartitionedCall/onnx_tf_prefix_Add_59"], "attr": {"T": {"type": "DT_FLOAT"}, "_grappler_ArithmeticOptimizer_MinimizeBroadcasts": {"b": true}}}, {"name": "PartitionedCall/transpose_19", "op": "Transpose", "input": ["PartitionedCall/onnx_tf_prefix_Mul_62", "PartitionedCall/transpose_19/perm"], "attr": {"T": {"type": "DT_FLOAT"}, "Tperm": {"type": "DT_INT32"}}}, {"name": "PartitionedCall/convolution_4", "op": "Conv2D", "input": ["PartitionedCall/transpose_19", "PartitionedCall/split_4"], "device": "/device:CPU:0", "attr": {"strides": {"list": {"i": ["1", "1", "1", "1"]}}, "T": {"type": "DT_FLOAT"}, "padding": {"s": "VkFMSUQ="}, "explicit_paddings": {"list": {}}, "use_cudnn_on_gpu": {"b": true}, "data_format": {"s": "TkhXQw=="}, "dilations": {"list": {"i": ["1", "1", "1", "1"]}}}}, {"name": "PartitionedCall/Add_6", "op": "AddV2", "input": ["PartitionedCall/convolution_4", "unknown_24"], "attr": {"T": {"type": "DT_FLOAT"}}}, {"name": "PartitionedCall/transpose_20", "op": "Transpose", "input": ["PartitionedCall/Add_6", "PartitionedCall/transpose_20/perm"], "attr": {"Tperm": {"type": "DT_INT32"}, "T": {"type": "DT_FLOAT"}}}, {"name": "PartitionedCall/onnx_tf_prefix_Mul_64", "op": "Mul", "input": ["PartitionedCall/transpose_20", "unknown_25"], "attr": {"T": {"type": "DT_FLOAT"}}}, {"name": "PartitionedCall/onnx_tf_prefix_Add_65", "op": "AddV2", "input": ["PartitionedCall/onnx_tf_prefix_Mul_64", "PartitionedCall/onnx_tf_prefix_Add_39"], "attr": {"T": {"type": "DT_FLOAT"}}}, {"name": "PartitionedCall/onnx_tf_prefix_Transpose_66", "op": "Transpose", "input": ["PartitionedCall/onnx_tf_prefix_Add_65", "PartitionedCall/onnx_tf_prefix_Transpose_66/perm"], "attr": {"T": {"type": "DT_FLOAT"}, "Tperm": {"type": "DT_INT32"}}}, {"name": "PartitionedCall/onnx_tf_prefix_ReduceMean_67", "op": "Mean", "input": ["PartitionedCall/onnx_tf_prefix_Transpose_66", "PartitionedCall/onnx_tf_prefix_ReduceMean_67/reduction_indices"], "attr": {"Tidx": {"type": "DT_INT32"}, "keep_dims": {"b": true}, "T": {"type": "DT_FLOAT"}}}, {"name": "PartitionedCall/onnx_tf_prefix_Sub_68", "op": "Sub", "input": ["PartitionedCall/onnx_tf_prefix_Transpose_66", "PartitionedCall/onnx_tf_prefix_ReduceMean_67"], "attr": {"T": {"type": "DT_FLOAT"}}}, {"name": "PartitionedCall/onnx_tf_prefix_Pow_70", "op": "Square", "input": ["PartitionedCall/onnx_tf_prefix_Sub_68"], "attr": {"T": {"type": "DT_FLOAT"}}}, {"name": "PartitionedCall/onnx_tf_prefix_ReduceMean_71", "op": "Mean", "input": ["PartitionedCall/onnx_tf_prefix_Pow_70", "PartitionedCall/onnx_tf_prefix_ReduceMean_71/reduction_indices"], "attr": {"keep_dims": {"b": true}, "Tidx": {"type": "DT_INT32"}, "T": {"type": "DT_FLOAT"}}}, {"name": "PartitionedCall/onnx_tf_prefix_Add_73", "op": "AddV2", "input": ["PartitionedCall/onnx_tf_prefix_ReduceMean_71", "unknown_2"], "attr": {"T": {"type": "DT_FLOAT"}}}, {"name": "PartitionedCall/onnx_tf_prefix_Sqrt_74", "op": "Rsqrt", "input": ["PartitionedCall/onnx_tf_prefix_Add_73"], "attr": {"T": {"type": "DT_FLOAT"}}}, {"name": "PartitionedCall/onnx_tf_prefix_Div_75", "op": "Mul", "input": ["unknown_26", "PartitionedCall/onnx_tf_prefix_Sqrt_74"], "attr": {"_grappler_ArithmeticOptimizer_MinimizeBroadcasts": {"b": true}, "T": {"type": "DT_FLOAT"}}}, {"name": "PartitionedCall/onnx_tf_prefix_Mul_76", "op": "Mul", "input": ["PartitionedCall/onnx_tf_prefix_Div_75", "PartitionedCall/onnx_tf_prefix_Sub_68"], "attr": {"_grappler_ArithmeticOptimizer_MinimizeBroadcasts": {"b": true}, "T": {"type": "DT_FLOAT"}}}, {"name": "PartitionedCall/onnx_tf_prefix_Add_77", "op": "AddV2", "input": ["PartitionedCall/onnx_tf_prefix_Mul_76", "unknown_27"], "attr": {"T": {"type": "DT_FLOAT"}}}, {"name": "PartitionedCall/convolution_5", "op": "Conv2D", "input": ["PartitionedCall/onnx_tf_prefix_Add_77", "PartitionedCall/split_5"], "device": "/device:CPU:0", "attr": {"use_cudnn_on_gpu": {"b": true}, "data_format": {"s": "TkhXQw=="}, "T": {"type": "DT_FLOAT"}, "explicit_paddings": {"list": {}}, "strides": {"list": {"i": ["1", "2", "2", "1"]}}, "dilations": {"list": {"i": ["1", "1", "1", "1"]}}, "padding": {"s": "VkFMSUQ="}}}, {"name": "PartitionedCall/Add_7", "op": "AddV2", "input": ["PartitionedCall/convolution_5", "unknown_29"], "attr": {"T": {"type": "DT_FLOAT"}}}, {"name": "PartitionedCall/transpose_23", "op": "Transpose", "input": ["PartitionedCall/Add_7", "PartitionedCall/transpose_23/perm"], "attr": {"Tperm": {"type": "DT_INT32"}, "T": {"type": "DT_FLOAT"}}}, {"name": "PartitionedCall/Pad_2", "op": "Pad", "input": ["PartitionedCall/transpose_23", "PartitionedCall/Const_2"], "attr": {"T": {"type": "DT_FLOAT"}, "Tpaddings": {"type": "DT_INT32"}}}, {"name": "PartitionedCall/transpose_25", "op": "Transpose", "input": ["PartitionedCall/Pad_2", "PartitionedCall/transpose_25/perm"], "attr": {"T": {"type": "DT_FLOAT"}, "Tperm": {"type": "DT_INT32"}}}, {"name": "PartitionedCall/depthwise_2", "op": "DepthwiseConv2dNative", "input": ["PartitionedCall/transpose_25", "PartitionedCall/Reshape_2"], "attr": {"padding": {"s": "VkFMSUQ="}, "explicit_paddings": {"list": {}}, "T": {"type": "DT_FLOAT"}, "strides": {"list": {"i": ["1", "1", "1", "1"]}}, "dilations": {"list": {"i": ["1", "1", "1", "1"]}}, "data_format": {"s": "TkhXQw=="}}}, {"name": "PartitionedCall/Add_8", "op": "AddV2", "input": ["PartitionedCall/depthwise_2", "unknown_31"], "attr": {"T": {"type": "DT_FLOAT"}}}, {"name": "PartitionedCall/onnx_tf_prefix_ReduceMean_82", "op": "Mean", "input": ["PartitionedCall/Add_8", "PartitionedCall/onnx_tf_prefix_ReduceMean_82/reduction_indices"], "attr": {"Tidx": {"type": "DT_INT32"}, "T": {"type": "DT_FLOAT"}, "keep_dims": {"b": true}}}, {"name": "PartitionedCall/onnx_tf_prefix_Sub_83", "op": "Sub", "input": ["PartitionedCall/Add_8", "PartitionedCall/onnx_tf_prefix_ReduceMean_82"], "attr": {"T": {"type": "DT_FLOAT"}}}, {"name": "PartitionedCall/onnx_tf_prefix_Pow_85", "op": "Square", "input": ["PartitionedCall/onnx_tf_prefix_Sub_83"], "attr": {"T": {"type": "DT_FLOAT"}}}, {"name": "PartitionedCall/onnx_tf_prefix_ReduceMean_86", "op": "Mean", "input": ["PartitionedCall/onnx_tf_prefix_Pow_85", "PartitionedCall/onnx_tf_prefix_ReduceMean_86/reduction_indices"], "attr": {"T": {"type": "DT_FLOAT"}, "keep_dims": {"b": true}, "Tidx": {"type": "DT_INT32"}}}, {"name": "PartitionedCall/onnx_tf_prefix_Add_88", "op": "AddV2", "input": ["PartitionedCall/onnx_tf_prefix_ReduceMean_86", "unknown_2"], "attr": {"T": {"type": "DT_FLOAT"}}}, {"name": "PartitionedCall/onnx_tf_prefix_Sqrt_89", "op": "Rsqrt", "input": ["PartitionedCall/onnx_tf_prefix_Add_88"], "attr": {"T": {"type": "DT_FLOAT"}}}, {"name": "PartitionedCall/onnx_tf_prefix_Div_90", "op": "Mul", "input": ["unknown_32", "PartitionedCall/onnx_tf_prefix_Sqrt_89"], "attr": {"T": {"type": "DT_FLOAT"}, "_grappler_ArithmeticOptimizer_MinimizeBroadcasts": {"b": true}}}, {"name": "PartitionedCall/onnx_tf_prefix_Mul_91", "op": "Mul", "input": ["PartitionedCall/onnx_tf_prefix_Div_90", "PartitionedCall/onnx_tf_prefix_Sub_83"], "attr": {"_grappler_ArithmeticOptimizer_MinimizeBroadcasts": {"b": true}, "T": {"type": "DT_FLOAT"}}}, {"name": "PartitionedCall/onnx_tf_prefix_Add_92", "op": "AddV2", "input": ["PartitionedCall/onnx_tf_prefix_Mul_91", "unknown_33"], "attr": {"T": {"type": "DT_FLOAT"}}}, {"name": "PartitionedCall/convolution_6", "op": "Conv2D", "input": ["PartitionedCall/onnx_tf_prefix_Add_92", "PartitionedCall/split_6"], "device": "/device:CPU:0", "attr": {"use_cudnn_on_gpu": {"b": true}, "dilations": {"list": {"i": ["1", "1", "1", "1"]}}, "padding": {"s": "VkFMSUQ="}, "strides": {"list": {"i": ["1", "1", "1", "1"]}}, "data_format": {"s": "TkhXQw=="}, "explicit_paddings": {"list": {}}, "T": {"type": "DT_FLOAT"}}}, {"name": "PartitionedCall/Add_9", "op": "AddV2", "input": ["PartitionedCall/convolution_6", "unknown_35"], "attr": {"T": {"type": "DT_FLOAT"}}}, {"name": "PartitionedCall/transpose_29", "op": "Transpose", "input": ["PartitionedCall/Add_9", "PartitionedCall/transpose_29/perm"], "attr": {"T": {"type": "DT_FLOAT"}, "Tperm": {"type": "DT_INT32"}}}, {"name": "PartitionedCall/onnx_tf_prefix_Mul_100", "op": "Mul", "input": ["unknown_13", "PartitionedCall/transpose_29"], "attr": {"T": {"type": "DT_FLOAT"}, "_grappler_ArithmeticOptimizer_MinimizeBroadcasts": {"b": true}}}, {"name": "PartitionedCall/onnx_tf_prefix_Div_96", "op": "Mul", "input": ["PartitionedCall/transpose_29", "ConstantFolding/PartitionedCall/onnx_tf_prefix_Div_96_recip"], "attr": {"T": {"type": "DT_FLOAT"}}}, {"name": "PartitionedCall/onnx_tf_prefix_Erf_97", "op": "Erf", "input": ["PartitionedCall/onnx_tf_prefix_Div_96"], "attr": {"T": {"type": "DT_FLOAT"}}}, {"name": "PartitionedCall/onnx_tf_prefix_Add_99", "op": "AddV2", "input": ["PartitionedCall/onnx_tf_prefix_Erf_97", "unknown_12"], "attr": {"T": {"type": "DT_FLOAT"}}}, {"name": "PartitionedCall/onnx_tf_prefix_Mul_102", "op": "Mul", "input": ["PartitionedCall/onnx_tf_prefix_Mul_100", "PartitionedCall/onnx_tf_prefix_Add_99"], "attr": {"T": {"type": "DT_FLOAT"}, "_grappler_ArithmeticOptimizer_MinimizeBroadcasts": {"b": true}}}, {"name": "PartitionedCall/transpose_31", "op": "Transpose", "input": ["PartitionedCall/onnx_tf_prefix_Mul_102", "PartitionedCall/transpose_31/perm"], "attr": {"Tperm": {"type": "DT_INT32"}, "T": {"type": "DT_FLOAT"}}}, {"name": "PartitionedCall/convolution_7", "op": "Conv2D", "input": ["PartitionedCall/transpose_31", "PartitionedCall/split_7"], "device": "/device:CPU:0", "attr": {"strides": {"list": {"i": ["1", "1", "1", "1"]}}, "T": {"type": "DT_FLOAT"}, "dilations": {"list": {"i": ["1", "1", "1", "1"]}}, "use_cudnn_on_gpu": {"b": true}, "padding": {"s": "VkFMSUQ="}, "data_format": {"s": "TkhXQw=="}, "explicit_paddings": {"list": {}}}}, {"name": "PartitionedCall/Add_10", "op": "AddV2", "input": ["PartitionedCall/convolution_7", "unknown_37"], "attr": {"T": {"type": "DT_FLOAT"}}}, {"name": "PartitionedCall/transpose_32", "op": "Transpose", "input": ["PartitionedCall/Add_10", "PartitionedCall/transpose_32/perm"], "attr": {"T": {"type": "DT_FLOAT"}, "Tperm": {"type": "DT_INT32"}}}, {"name": "PartitionedCall/onnx_tf_prefix_Mul_104", "op": "Mul", "input": ["PartitionedCall/transpose_32", "unknown_38"], "attr": {"T": {"type": "DT_FLOAT"}}}, {"name": "PartitionedCall/onnx_tf_prefix_Add_105", "op": "AddV2", "input": ["PartitionedCall/onnx_tf_prefix_Mul_104", "PartitionedCall/transpose_23"], "attr": {"T": {"type": "DT_FLOAT"}}}, {"name": "PartitionedCall/Pad_3", "op": "Pad", "input": ["PartitionedCall/onnx_tf_prefix_Add_105", "PartitionedCall/Const_3"], "attr": {"Tpaddings": {"type": "DT_INT32"}, "T": {"type": "DT_FLOAT"}}}, {"name": "PartitionedCall/transpose_34", "op": "Transpose", "input": ["PartitionedCall/Pad_3", "PartitionedCall/transpose_34/perm"], "attr": {"T": {"type": "DT_FLOAT"}, "Tperm": {"type": "DT_INT32"}}}, {"name": "PartitionedCall/depthwise_3", "op": "DepthwiseConv2dNative", "input": ["PartitionedCall/transpose_34", "PartitionedCall/Reshape_3"], "attr": {"dilations": {"list": {"i": ["1", "1", "1", "1"]}}, "data_format": {"s": "TkhXQw=="}, "explicit_paddings": {"list": {}}, "strides": {"list": {"i": ["1", "1", "1", "1"]}}, "padding": {"s": "VkFMSUQ="}, "T": {"type": "DT_FLOAT"}}}, {"name": "PartitionedCall/Add_11", "op": "AddV2", "input": ["PartitionedCall/depthwise_3", "unknown_40"], "attr": {"T": {"type": "DT_FLOAT"}}}, {"name": "PartitionedCall/onnx_tf_prefix_ReduceMean_108", "op": "Mean", "input": ["PartitionedCall/Add_11", "PartitionedCall/onnx_tf_prefix_ReduceMean_108/reduction_indices"], "attr": {"Tidx": {"type": "DT_INT32"}, "T": {"type": "DT_FLOAT"}, "keep_dims": {"b": true}}}, {"name": "PartitionedCall/onnx_tf_prefix_Sub_109", "op": "Sub", "input": ["PartitionedCall/Add_11", "PartitionedCall/onnx_tf_prefix_ReduceMean_108"], "attr": {"T": {"type": "DT_FLOAT"}}}, {"name": "PartitionedCall/onnx_tf_prefix_Pow_111", "op": "Square", "input": ["PartitionedCall/onnx_tf_prefix_Sub_109"], "attr": {"T": {"type": "DT_FLOAT"}}}, {"name": "PartitionedCall/onnx_tf_prefix_ReduceMean_112", "op": "Mean", "input": ["PartitionedCall/onnx_tf_prefix_Pow_111", "PartitionedCall/onnx_tf_prefix_ReduceMean_112/reduction_indices"], "attr": {"T": {"type": "DT_FLOAT"}, "keep_dims": {"b": true}, "Tidx": {"type": "DT_INT32"}}}, {"name": "PartitionedCall/onnx_tf_prefix_Add_114", "op": "AddV2", "input": ["PartitionedCall/onnx_tf_prefix_ReduceMean_112", "unknown_2"], "attr": {"T": {"type": "DT_FLOAT"}}}, {"name": "PartitionedCall/onnx_tf_prefix_Sqrt_115", "op": "Rsqrt", "input": ["PartitionedCall/onnx_tf_prefix_Add_114"], "attr": {"T": {"type": "DT_FLOAT"}}}, {"name": "PartitionedCall/onnx_tf_prefix_Div_116", "op": "Mul", "input": ["unknown_41", "PartitionedCall/onnx_tf_prefix_Sqrt_115"], "attr": {"T": {"type": "DT_FLOAT"}, "_grappler_ArithmeticOptimizer_MinimizeBroadcasts": {"b": true}}}, {"name": "PartitionedCall/onnx_tf_prefix_Mul_117", "op": "Mul", "input": ["PartitionedCall/onnx_tf_prefix_Div_116", "PartitionedCall/onnx_tf_prefix_Sub_109"], "attr": {"_grappler_ArithmeticOptimizer_MinimizeBroadcasts": {"b": true}, "T": {"type": "DT_FLOAT"}}}, {"name": "PartitionedCall/onnx_tf_prefix_Add_118", "op": "AddV2", "input": ["PartitionedCall/onnx_tf_prefix_Mul_117", "unknown_42"], "attr": {"T": {"type": "DT_FLOAT"}}}, {"name": "PartitionedCall/convolution_8", "op": "Conv2D", "input": ["PartitionedCall/onnx_tf_prefix_Add_118", "PartitionedCall/split_8"], "device": "/device:CPU:0", "attr": {"data_format": {"s": "TkhXQw=="}, "padding": {"s": "VkFMSUQ="}, "use_cudnn_on_gpu": {"b": true}, "dilations": {"list": {"i": ["1", "1", "1", "1"]}}, "T": {"type": "DT_FLOAT"}, "explicit_paddings": {"list": {}}, "strides": {"list": {"i": ["1", "1", "1", "1"]}}}}, {"name": "PartitionedCall/Add_12", "op": "AddV2", "input": ["PartitionedCall/convolution_8", "unknown_44"], "attr": {"T": {"type": "DT_FLOAT"}}}, {"name": "PartitionedCall/transpose_38", "op": "Transpose", "input": ["PartitionedCall/Add_12", "PartitionedCall/transpose_38/perm"], "attr": {"Tperm": {"type": "DT_INT32"}, "T": {"type": "DT_FLOAT"}}}, {"name": "PartitionedCall/onnx_tf_prefix_Mul_126", "op": "Mul", "input": ["unknown_13", "PartitionedCall/transpose_38"], "attr": {"T": {"type": "DT_FLOAT"}, "_grappler_ArithmeticOptimizer_MinimizeBroadcasts": {"b": true}}}, {"name": "PartitionedCall/onnx_tf_prefix_Div_122", "op": "Mul", "input": ["PartitionedCall/transpose_38", "ConstantFolding/PartitionedCall/onnx_tf_prefix_Div_122_recip"], "attr": {"T": {"type": "DT_FLOAT"}}}, {"name": "PartitionedCall/onnx_tf_prefix_Erf_123", "op": "Erf", "input": ["PartitionedCall/onnx_tf_prefix_Div_122"], "attr": {"T": {"type": "DT_FLOAT"}}}, {"name": "PartitionedCall/onnx_tf_prefix_Add_125", "op": "AddV2", "input": ["PartitionedCall/onnx_tf_prefix_Erf_123", "unknown_12"], "attr": {"T": {"type": "DT_FLOAT"}}}, {"name": "PartitionedCall/onnx_tf_prefix_Mul_128", "op": "Mul", "input": ["PartitionedCall/onnx_tf_prefix_Mul_126", "PartitionedCall/onnx_tf_prefix_Add_125"], "attr": {"_grappler_ArithmeticOptimizer_MinimizeBroadcasts": {"b": true}, "T": {"type": "DT_FLOAT"}}}, {"name": "PartitionedCall/transpose_40", "op": "Transpose", "input": ["PartitionedCall/onnx_tf_prefix_Mul_128", "PartitionedCall/transpose_40/perm"], "attr": {"T": {"type": "DT_FLOAT"}, "Tperm": {"type": "DT_INT32"}}}, {"name": "PartitionedCall/convolution_9", "op": "Conv2D", "input": ["PartitionedCall/transpose_40", "PartitionedCall/split_9"], "device": "/device:CPU:0", "attr": {"dilations": {"list": {"i": ["1", "1", "1", "1"]}}, "explicit_paddings": {"list": {}}, "padding": {"s": "VkFMSUQ="}, "use_cudnn_on_gpu": {"b": true}, "data_format": {"s": "TkhXQw=="}, "T": {"type": "DT_FLOAT"}, "strides": {"list": {"i": ["1", "1", "1", "1"]}}}}, {"name": "PartitionedCall/Add_13", "op": "AddV2", "input": ["PartitionedCall/convolution_9", "unknown_46"], "attr": {"T": {"type": "DT_FLOAT"}}}, {"name": "PartitionedCall/transpose_41", "op": "Transpose", "input": ["PartitionedCall/Add_13", "PartitionedCall/transpose_41/perm"], "attr": {"T": {"type": "DT_FLOAT"}, "Tperm": {"type": "DT_INT32"}}}, {"name": "PartitionedCall/onnx_tf_prefix_Mul_130", "op": "Mul", "input": ["PartitionedCall/transpose_41", "unknown_47"], "attr": {"T": {"type": "DT_FLOAT"}}}, {"name": "PartitionedCall/onnx_tf_prefix_Add_131", "op": "AddV2", "input": ["PartitionedCall/onnx_tf_prefix_Mul_130", "PartitionedCall/onnx_tf_prefix_Add_105"], "attr": {"T": {"type": "DT_FLOAT"}}}, {"name": "PartitionedCall/onnx_tf_prefix_Transpose_132", "op": "Transpose", "input": ["PartitionedCall/onnx_tf_prefix_Add_131", "PartitionedCall/onnx_tf_prefix_Transpose_132/perm"], "attr": {"T": {"type": "DT_FLOAT"}, "Tperm": {"type": "DT_INT32"}}}, {"name": "PartitionedCall/onnx_tf_prefix_ReduceMean_133", "op": "Mean", "input": ["PartitionedCall/onnx_tf_prefix_Transpose_132", "PartitionedCall/onnx_tf_prefix_ReduceMean_133/reduction_indices"], "attr": {"Tidx": {"type": "DT_INT32"}, "keep_dims": {"b": true}, "T": {"type": "DT_FLOAT"}}}, {"name": "PartitionedCall/onnx_tf_prefix_Sub_134", "op": "Sub", "input": ["PartitionedCall/onnx_tf_prefix_Transpose_132", "PartitionedCall/onnx_tf_prefix_ReduceMean_133"], "attr": {"T": {"type": "DT_FLOAT"}}}, {"name": "PartitionedCall/onnx_tf_prefix_Pow_136", "op": "Square", "input": ["PartitionedCall/onnx_tf_prefix_Sub_134"], "attr": {"T": {"type": "DT_FLOAT"}}}, {"name": "PartitionedCall/onnx_tf_prefix_ReduceMean_137", "op": "Mean", "input": ["PartitionedCall/onnx_tf_prefix_Pow_136", "PartitionedCall/onnx_tf_prefix_ReduceMean_137/reduction_indices"], "attr": {"keep_dims": {"b": true}, "Tidx": {"type": "DT_INT32"}, "T": {"type": "DT_FLOAT"}}}, {"name": "PartitionedCall/onnx_tf_prefix_Add_139", "op": "AddV2", "input": ["PartitionedCall/onnx_tf_prefix_ReduceMean_137", "unknown_2"], "attr": {"T": {"type": "DT_FLOAT"}}}, {"name": "PartitionedCall/onnx_tf_prefix_Sqrt_140", "op": "Rsqrt", "input": ["PartitionedCall/onnx_tf_prefix_Add_139"], "attr": {"T": {"type": "DT_FLOAT"}}}, {"name": "PartitionedCall/onnx_tf_prefix_Div_141", "op": "Mul", "input": ["unknown_48", "PartitionedCall/onnx_tf_prefix_Sqrt_140"], "attr": {"T": {"type": "DT_FLOAT"}, "_grappler_ArithmeticOptimizer_MinimizeBroadcasts": {"b": true}}}, {"name": "PartitionedCall/onnx_tf_prefix_Mul_142", "op": "Mul", "input": ["PartitionedCall/onnx_tf_prefix_Div_141", "PartitionedCall/onnx_tf_prefix_Sub_134"], "attr": {"T": {"type": "DT_FLOAT"}, "_grappler_ArithmeticOptimizer_MinimizeBroadcasts": {"b": true}}}, {"name": "PartitionedCall/onnx_tf_prefix_Add_143", "op": "AddV2", "input": ["PartitionedCall/onnx_tf_prefix_Mul_142", "unknown_49"], "attr": {"T": {"type": "DT_FLOAT"}}}, {"name": "PartitionedCall/convolution_10", "op": "Conv2D", "input": ["PartitionedCall/onnx_tf_prefix_Add_143", "PartitionedCall/split_10"], "device": "/device:CPU:0", "attr": {"dilations": {"list": {"i": ["1", "1", "1", "1"]}}, "padding": {"s": "VkFMSUQ="}, "use_cudnn_on_gpu": {"b": true}, "explicit_paddings": {"list": {}}, "data_format": {"s": "TkhXQw=="}, "strides": {"list": {"i": ["1", "2", "2", "1"]}}, "T": {"type": "DT_FLOAT"}}}, {"name": "PartitionedCall/Add_14", "op": "AddV2", "input": ["PartitionedCall/convolution_10", "unknown_51"], "attr": {"T": {"type": "DT_FLOAT"}}}, {"name": "PartitionedCall/transpose_44", "op": "Transpose", "input": ["PartitionedCall/Add_14", "PartitionedCall/transpose_44/perm"], "attr": {"T": {"type": "DT_FLOAT"}, "Tperm": {"type": "DT_INT32"}}}, {"name": "PartitionedCall/Pad_4", "op": "Pad", "input": ["PartitionedCall/transpose_44", "PartitionedCall/Const_4"], "attr": {"T": {"type": "DT_FLOAT"}, "Tpaddings": {"type": "DT_INT32"}}}, {"name": "PartitionedCall/transpose_46", "op": "Transpose", "input": ["PartitionedCall/Pad_4", "PartitionedCall/transpose_46/perm"], "attr": {"T": {"type": "DT_FLOAT"}, "Tperm": {"type": "DT_INT32"}}}, {"name": "PartitionedCall/depthwise_4", "op": "DepthwiseConv2dNative", "input": ["PartitionedCall/transpose_46", "PartitionedCall/Reshape_4"], "attr": {"padding": {"s": "VkFMSUQ="}, "data_format": {"s": "TkhXQw=="}, "dilations": {"list": {"i": ["1", "1", "1", "1"]}}, "explicit_paddings": {"list": {}}, "strides": {"list": {"i": ["1", "1", "1", "1"]}}, "T": {"type": "DT_FLOAT"}}}, {"name": "PartitionedCall/Add_15", "op": "AddV2", "input": ["PartitionedCall/depthwise_4", "unknown_53"], "attr": {"T": {"type": "DT_FLOAT"}}}, {"name": "PartitionedCall/onnx_tf_prefix_ReduceMean_148", "op": "Mean", "input": ["PartitionedCall/Add_15", "PartitionedCall/onnx_tf_prefix_ReduceMean_148/reduction_indices"], "attr": {"keep_dims": {"b": true}, "Tidx": {"type": "DT_INT32"}, "T": {"type": "DT_FLOAT"}}}, {"name": "PartitionedCall/onnx_tf_prefix_Sub_149", "op": "Sub", "input": ["PartitionedCall/Add_15", "PartitionedCall/onnx_tf_prefix_ReduceMean_148"], "attr": {"T": {"type": "DT_FLOAT"}}}, {"name": "PartitionedCall/onnx_tf_prefix_Pow_151", "op": "Square", "input": ["PartitionedCall/onnx_tf_prefix_Sub_149"], "attr": {"T": {"type": "DT_FLOAT"}}}, {"name": "PartitionedCall/onnx_tf_prefix_ReduceMean_152", "op": "Mean", "input": ["PartitionedCall/onnx_tf_prefix_Pow_151", "PartitionedCall/onnx_tf_prefix_ReduceMean_152/reduction_indices"], "attr": {"T": {"type": "DT_FLOAT"}, "Tidx": {"type": "DT_INT32"}, "keep_dims": {"b": true}}}, {"name": "PartitionedCall/onnx_tf_prefix_Add_154", "op": "AddV2", "input": ["PartitionedCall/onnx_tf_prefix_ReduceMean_152", "unknown_2"], "attr": {"T": {"type": "DT_FLOAT"}}}, {"name": "PartitionedCall/onnx_tf_prefix_Sqrt_155", "op": "Rsqrt", "input": ["PartitionedCall/onnx_tf_prefix_Add_154"], "attr": {"T": {"type": "DT_FLOAT"}}}, {"name": "PartitionedCall/onnx_tf_prefix_Div_156", "op": "Mul", "input": ["unknown_54", "PartitionedCall/onnx_tf_prefix_Sqrt_155"], "attr": {"T": {"type": "DT_FLOAT"}, "_grappler_ArithmeticOptimizer_MinimizeBroadcasts": {"b": true}}}, {"name": "PartitionedCall/onnx_tf_prefix_Mul_157", "op": "Mul", "input": ["PartitionedCall/onnx_tf_prefix_Div_156", "PartitionedCall/onnx_tf_prefix_Sub_149"], "attr": {"T": {"type": "DT_FLOAT"}, "_grappler_ArithmeticOptimizer_MinimizeBroadcasts": {"b": true}}}, {"name": "PartitionedCall/onnx_tf_prefix_Add_158", "op": "AddV2", "input": ["PartitionedCall/onnx_tf_prefix_Mul_157", "unknown_55"], "attr": {"T": {"type": "DT_FLOAT"}}}, {"name": "PartitionedCall/convolution_11", "op": "Conv2D", "input": ["PartitionedCall/onnx_tf_prefix_Add_158", "PartitionedCall/split_11"], "device": "/device:CPU:0", "attr": {"data_format": {"s": "TkhXQw=="}, "T": {"type": "DT_FLOAT"}, "strides": {"list": {"i": ["1", "1", "1", "1"]}}, "padding": {"s": "VkFMSUQ="}, "use_cudnn_on_gpu": {"b": true}, "explicit_paddings": {"list": {}}, "dilations": {"list": {"i": ["1", "1", "1", "1"]}}}}, {"name": "PartitionedCall/Add_16", "op": "AddV2", "input": ["PartitionedCall/convolution_11", "unknown_57"], "attr": {"T": {"type": "DT_FLOAT"}}}, {"name": "PartitionedCall/transpose_50", "op": "Transpose", "input": ["PartitionedCall/Add_16", "PartitionedCall/transpose_50/perm"], "attr": {"T": {"type": "DT_FLOAT"}, "Tperm": {"type": "DT_INT32"}}}, {"name": "PartitionedCall/onnx_tf_prefix_Mul_166", "op": "Mul", "input": ["unknown_13", "PartitionedCall/transpose_50"], "attr": {"T": {"type": "DT_FLOAT"}, "_grappler_ArithmeticOptimizer_MinimizeBroadcasts": {"b": true}}}, {"name": "PartitionedCall/onnx_tf_prefix_Div_162", "op": "Mul", "input": ["PartitionedCall/transpose_50", "ConstantFolding/PartitionedCall/onnx_tf_prefix_Div_162_recip"], "attr": {"T": {"type": "DT_FLOAT"}}}, {"name": "PartitionedCall/onnx_tf_prefix_Erf_163", "op": "Erf", "input": ["PartitionedCall/onnx_tf_prefix_Div_162"], "attr": {"T": {"type": "DT_FLOAT"}}}, {"name": "PartitionedCall/onnx_tf_prefix_Add_165", "op": "AddV2", "input": ["PartitionedCall/onnx_tf_prefix_Erf_163", "unknown_12"], "attr": {"T": {"type": "DT_FLOAT"}}}, {"name": "PartitionedCall/onnx_tf_prefix_Mul_168", "op": "Mul", "input": ["PartitionedCall/onnx_tf_prefix_Mul_166", "PartitionedCall/onnx_tf_prefix_Add_165"], "attr": {"T": {"type": "DT_FLOAT"}, "_grappler_ArithmeticOptimizer_MinimizeBroadcasts": {"b": true}}}, {"name": "PartitionedCall/transpose_52", "op": "Transpose", "input": ["PartitionedCall/onnx_tf_prefix_Mul_168", "PartitionedCall/transpose_52/perm"], "attr": {"T": {"type": "DT_FLOAT"}, "Tperm": {"type": "DT_INT32"}}}, {"name": "PartitionedCall/convolution_12", "op": "Conv2D", "input": ["PartitionedCall/transpose_52", "PartitionedCall/split_12"], "device": "/device:CPU:0", "attr": {"use_cudnn_on_gpu": {"b": true}, "strides": {"list": {"i": ["1", "1", "1", "1"]}}, "explicit_paddings": {"list": {}}, "data_format": {"s": "TkhXQw=="}, "dilations": {"list": {"i": ["1", "1", "1", "1"]}}, "padding": {"s": "VkFMSUQ="}, "T": {"type": "DT_FLOAT"}}}, {"name": "PartitionedCall/Add_17", "op": "AddV2", "input": ["PartitionedCall/convolution_12", "unknown_59"], "attr": {"T": {"type": "DT_FLOAT"}}}, {"name": "PartitionedCall/transpose_53", "op": "Transpose", "input": ["PartitionedCall/Add_17", "PartitionedCall/transpose_53/perm"], "attr": {"Tperm": {"type": "DT_INT32"}, "T": {"type": "DT_FLOAT"}}}, {"name": "PartitionedCall/onnx_tf_prefix_Mul_170", "op": "Mul", "input": ["PartitionedCall/transpose_53", "unknown_60"], "attr": {"T": {"type": "DT_FLOAT"}}}, {"name": "PartitionedCall/onnx_tf_prefix_Add_171", "op": "AddV2", "input": ["PartitionedCall/onnx_tf_prefix_Mul_170", "PartitionedCall/transpose_44"], "attr": {"T": {"type": "DT_FLOAT"}}}, {"name": "PartitionedCall/Pad_5", "op": "Pad", "input": ["PartitionedCall/onnx_tf_prefix_Add_171", "PartitionedCall/Const_5"], "attr": {"Tpaddings": {"type": "DT_INT32"}, "T": {"type": "DT_FLOAT"}}}, {"name": "PartitionedCall/transpose_55", "op": "Transpose", "input": ["PartitionedCall/Pad_5", "PartitionedCall/transpose_55/perm"], "attr": {"T": {"type": "DT_FLOAT"}, "Tperm": {"type": "DT_INT32"}}}, {"name": "PartitionedCall/depthwise_5", "op": "DepthwiseConv2dNative", "input": ["PartitionedCall/transpose_55", "PartitionedCall/Reshape_5"], "attr": {"padding": {"s": "VkFMSUQ="}, "T": {"type": "DT_FLOAT"}, "explicit_paddings": {"list": {}}, "data_format": {"s": "TkhXQw=="}, "strides": {"list": {"i": ["1", "1", "1", "1"]}}, "dilations": {"list": {"i": ["1", "1", "1", "1"]}}}}, {"name": "PartitionedCall/Add_18", "op": "AddV2", "input": ["PartitionedCall/depthwise_5", "unknown_62"], "attr": {"T": {"type": "DT_FLOAT"}}}, {"name": "PartitionedCall/onnx_tf_prefix_ReduceMean_174", "op": "Mean", "input": ["PartitionedCall/Add_18", "PartitionedCall/onnx_tf_prefix_ReduceMean_174/reduction_indices"], "attr": {"keep_dims": {"b": true}, "Tidx": {"type": "DT_INT32"}, "T": {"type": "DT_FLOAT"}}}, {"name": "PartitionedCall/onnx_tf_prefix_Sub_175", "op": "Sub", "input": ["PartitionedCall/Add_18", "PartitionedCall/onnx_tf_prefix_ReduceMean_174"], "attr": {"T": {"type": "DT_FLOAT"}}}, {"name": "PartitionedCall/onnx_tf_prefix_Pow_177", "op": "Square", "input": ["PartitionedCall/onnx_tf_prefix_Sub_175"], "attr": {"T": {"type": "DT_FLOAT"}}}, {"name": "PartitionedCall/onnx_tf_prefix_ReduceMean_178", "op": "Mean", "input": ["PartitionedCall/onnx_tf_prefix_Pow_177", "PartitionedCall/onnx_tf_prefix_ReduceMean_178/reduction_indices"], "attr": {"keep_dims": {"b": true}, "Tidx": {"type": "DT_INT32"}, "T": {"type": "DT_FLOAT"}}}, {"name": "PartitionedCall/onnx_tf_prefix_Add_180", "op": "AddV2", "input": ["PartitionedCall/onnx_tf_prefix_ReduceMean_178", "unknown_2"], "attr": {"T": {"type": "DT_FLOAT"}}}, {"name": "PartitionedCall/onnx_tf_prefix_Sqrt_181", "op": "Rsqrt", "input": ["PartitionedCall/onnx_tf_prefix_Add_180"], "attr": {"T": {"type": "DT_FLOAT"}}}, {"name": "PartitionedCall/onnx_tf_prefix_Div_182", "op": "Mul", "input": ["unknown_63", "PartitionedCall/onnx_tf_prefix_Sqrt_181"], "attr": {"T": {"type": "DT_FLOAT"}, "_grappler_ArithmeticOptimizer_MinimizeBroadcasts": {"b": true}}}, {"name": "PartitionedCall/onnx_tf_prefix_Mul_183", "op": "Mul", "input": ["PartitionedCall/onnx_tf_prefix_Div_182", "PartitionedCall/onnx_tf_prefix_Sub_175"], "attr": {"_grappler_ArithmeticOptimizer_MinimizeBroadcasts": {"b": true}, "T": {"type": "DT_FLOAT"}}}, {"name": "PartitionedCall/onnx_tf_prefix_Add_184", "op": "AddV2", "input": ["PartitionedCall/onnx_tf_prefix_Mul_183", "unknown_64"], "attr": {"T": {"type": "DT_FLOAT"}}}, {"name": "PartitionedCall/convolution_13", "op": "Conv2D", "input": ["PartitionedCall/onnx_tf_prefix_Add_184", "PartitionedCall/split_13"], "device": "/device:CPU:0", "attr": {"strides": {"list": {"i": ["1", "1", "1", "1"]}}, "data_format": {"s": "TkhXQw=="}, "T": {"type": "DT_FLOAT"}, "use_cudnn_on_gpu": {"b": true}, "dilations": {"list": {"i": ["1", "1", "1", "1"]}}, "padding": {"s": "VkFMSUQ="}, "explicit_paddings": {"list": {}}}}, {"name": "PartitionedCall/Add_19", "op": "AddV2", "input": ["PartitionedCall/convolution_13", "unknown_66"], "attr": {"T": {"type": "DT_FLOAT"}}}, {"name": "PartitionedCall/transpose_59", "op": "Transpose", "input": ["PartitionedCall/Add_19", "PartitionedCall/transpose_59/perm"], "attr": {"T": {"type": "DT_FLOAT"}, "Tperm": {"type": "DT_INT32"}}}, {"name": "PartitionedCall/onnx_tf_prefix_Mul_192", "op": "Mul", "input": ["unknown_13", "PartitionedCall/transpose_59"], "attr": {"T": {"type": "DT_FLOAT"}, "_grappler_ArithmeticOptimizer_MinimizeBroadcasts": {"b": true}}}, {"name": "PartitionedCall/onnx_tf_prefix_Div_188", "op": "Mul", "input": ["PartitionedCall/transpose_59", "ConstantFolding/PartitionedCall/onnx_tf_prefix_Div_188_recip"], "attr": {"T": {"type": "DT_FLOAT"}}}, {"name": "PartitionedCall/onnx_tf_prefix_Erf_189", "op": "Erf", "input": ["PartitionedCall/onnx_tf_prefix_Div_188"], "attr": {"T": {"type": "DT_FLOAT"}}}, {"name": "PartitionedCall/onnx_tf_prefix_Add_191", "op": "AddV2", "input": ["PartitionedCall/onnx_tf_prefix_Erf_189", "unknown_12"], "attr": {"T": {"type": "DT_FLOAT"}}}, {"name": "PartitionedCall/onnx_tf_prefix_Mul_194", "op": "Mul", "input": ["PartitionedCall/onnx_tf_prefix_Mul_192", "PartitionedCall/onnx_tf_prefix_Add_191"], "attr": {"_grappler_ArithmeticOptimizer_MinimizeBroadcasts": {"b": true}, "T": {"type": "DT_FLOAT"}}}, {"name": "PartitionedCall/transpose_61", "op": "Transpose", "input": ["PartitionedCall/onnx_tf_prefix_Mul_194", "PartitionedCall/transpose_61/perm"], "attr": {"T": {"type": "DT_FLOAT"}, "Tperm": {"type": "DT_INT32"}}}, {"name": "PartitionedCall/convolution_14", "op": "Conv2D", "input": ["PartitionedCall/transpose_61", "PartitionedCall/split_14"], "device": "/device:CPU:0", "attr": {"dilations": {"list": {"i": ["1", "1", "1", "1"]}}, "strides": {"list": {"i": ["1", "1", "1", "1"]}}, "data_format": {"s": "TkhXQw=="}, "explicit_paddings": {"list": {}}, "padding": {"s": "VkFMSUQ="}, "use_cudnn_on_gpu": {"b": true}, "T": {"type": "DT_FLOAT"}}}, {"name": "PartitionedCall/Add_20", "op": "AddV2", "input": ["PartitionedCall/convolution_14", "unknown_68"], "attr": {"T": {"type": "DT_FLOAT"}}}, {"name": "PartitionedCall/transpose_62", "op": "Transpose", "input": ["PartitionedCall/Add_20", "PartitionedCall/transpose_62/perm"], "attr": {"T": {"type": "DT_FLOAT"}, "Tperm": {"type": "DT_INT32"}}}, {"name": "PartitionedCall/onnx_tf_prefix_Mul_196", "op": "Mul", "input": ["PartitionedCall/transpose_62", "unknown_69"], "attr": {"T": {"type": "DT_FLOAT"}}}, {"name": "PartitionedCall/onnx_tf_prefix_Add_197", "op": "AddV2", "input": ["PartitionedCall/onnx_tf_prefix_Mul_196", "PartitionedCall/onnx_tf_prefix_Add_171"], "attr": {"T": {"type": "DT_FLOAT"}}}, {"name": "PartitionedCall/Pad_6", "op": "Pad", "input": ["PartitionedCall/onnx_tf_prefix_Add_197", "PartitionedCall/Const_6"], "attr": {"Tpaddings": {"type": "DT_INT32"}, "T": {"type": "DT_FLOAT"}}}, {"name": "PartitionedCall/transpose_64", "op": "Transpose", "input": ["PartitionedCall/Pad_6", "PartitionedCall/transpose_64/perm"], "attr": {"Tperm": {"type": "DT_INT32"}, "T": {"type": "DT_FLOAT"}}}, {"name": "PartitionedCall/depthwise_6", "op": "DepthwiseConv2dNative", "input": ["PartitionedCall/transpose_64", "PartitionedCall/Reshape_6"], "attr": {"dilations": {"list": {"i": ["1", "1", "1", "1"]}}, "explicit_paddings": {"list": {}}, "T": {"type": "DT_FLOAT"}, "padding": {"s": "VkFMSUQ="}, "strides": {"list": {"i": ["1", "1", "1", "1"]}}, "data_format": {"s": "TkhXQw=="}}}, {"name": "PartitionedCall/Add_21", "op": "AddV2", "input": ["PartitionedCall/depthwise_6", "unknown_71"], "attr": {"T": {"type": "DT_FLOAT"}}}, {"name": "PartitionedCall/onnx_tf_prefix_ReduceMean_200", "op": "Mean", "input": ["PartitionedCall/Add_21", "PartitionedCall/onnx_tf_prefix_ReduceMean_200/reduction_indices"], "attr": {"keep_dims": {"b": true}, "T": {"type": "DT_FLOAT"}, "Tidx": {"type": "DT_INT32"}}}, {"name": "PartitionedCall/onnx_tf_prefix_Sub_201", "op": "Sub", "input": ["PartitionedCall/Add_21", "PartitionedCall/onnx_tf_prefix_ReduceMean_200"], "attr": {"T": {"type": "DT_FLOAT"}}}, {"name": "PartitionedCall/onnx_tf_prefix_Pow_203", "op": "Square", "input": ["PartitionedCall/onnx_tf_prefix_Sub_201"], "attr": {"T": {"type": "DT_FLOAT"}}}, {"name": "PartitionedCall/onnx_tf_prefix_ReduceMean_204", "op": "Mean", "input": ["PartitionedCall/onnx_tf_prefix_Pow_203", "PartitionedCall/onnx_tf_prefix_ReduceMean_204/reduction_indices"], "attr": {"Tidx": {"type": "DT_INT32"}, "keep_dims": {"b": true}, "T": {"type": "DT_FLOAT"}}}, {"name": "PartitionedCall/onnx_tf_prefix_Add_206", "op": "AddV2", "input": ["PartitionedCall/onnx_tf_prefix_ReduceMean_204", "unknown_2"], "attr": {"T": {"type": "DT_FLOAT"}}}, {"name": "PartitionedCall/onnx_tf_prefix_Sqrt_207", "op": "Rsqrt", "input": ["PartitionedCall/onnx_tf_prefix_Add_206"], "attr": {"T": {"type": "DT_FLOAT"}}}, {"name": "PartitionedCall/onnx_tf_prefix_Div_208", "op": "Mul", "input": ["unknown_72", "PartitionedCall/onnx_tf_prefix_Sqrt_207"], "attr": {"T": {"type": "DT_FLOAT"}, "_grappler_ArithmeticOptimizer_MinimizeBroadcasts": {"b": true}}}, {"name": "PartitionedCall/onnx_tf_prefix_Mul_209", "op": "Mul", "input": ["PartitionedCall/onnx_tf_prefix_Div_208", "PartitionedCall/onnx_tf_prefix_Sub_201"], "attr": {"_grappler_ArithmeticOptimizer_MinimizeBroadcasts": {"b": true}, "T": {"type": "DT_FLOAT"}}}, {"name": "PartitionedCall/onnx_tf_prefix_Add_210", "op": "AddV2", "input": ["PartitionedCall/onnx_tf_prefix_Mul_209", "unknown_73"], "attr": {"T": {"type": "DT_FLOAT"}}}, {"name": "PartitionedCall/convolution_15", "op": "Conv2D", "input": ["PartitionedCall/onnx_tf_prefix_Add_210", "PartitionedCall/split_15"], "device": "/device:CPU:0", "attr": {"strides": {"list": {"i": ["1", "1", "1", "1"]}}, "padding": {"s": "VkFMSUQ="}, "dilations": {"list": {"i": ["1", "1", "1", "1"]}}, "data_format": {"s": "TkhXQw=="}, "T": {"type": "DT_FLOAT"}, "explicit_paddings": {"list": {}}, "use_cudnn_on_gpu": {"b": true}}}, {"name": "PartitionedCall/Add_22", "op": "AddV2", "input": ["PartitionedCall/convolution_15", "unknown_75"], "attr": {"T": {"type": "DT_FLOAT"}}}, {"name": "PartitionedCall/transpose_68", "op": "Transpose", "input": ["PartitionedCall/Add_22", "PartitionedCall/transpose_68/perm"], "attr": {"Tperm": {"type": "DT_INT32"}, "T": {"type": "DT_FLOAT"}}}, {"name": "PartitionedCall/onnx_tf_prefix_Mul_218", "op": "Mul", "input": ["unknown_13", "PartitionedCall/transpose_68"], "attr": {"T": {"type": "DT_FLOAT"}, "_grappler_ArithmeticOptimizer_MinimizeBroadcasts": {"b": true}}}, {"name": "PartitionedCall/onnx_tf_prefix_Div_214", "op": "Mul", "input": ["PartitionedCall/transpose_68", "ConstantFolding/PartitionedCall/onnx_tf_prefix_Div_214_recip"], "attr": {"T": {"type": "DT_FLOAT"}}}, {"name": "PartitionedCall/onnx_tf_prefix_Erf_215", "op": "Erf", "input": ["PartitionedCall/onnx_tf_prefix_Div_214"], "attr": {"T": {"type": "DT_FLOAT"}}}, {"name": "PartitionedCall/onnx_tf_prefix_Add_217", "op": "AddV2", "input": ["PartitionedCall/onnx_tf_prefix_Erf_215", "unknown_12"], "attr": {"T": {"type": "DT_FLOAT"}}}, {"name": "PartitionedCall/onnx_tf_prefix_Mul_220", "op": "Mul", "input": ["PartitionedCall/onnx_tf_prefix_Mul_218", "PartitionedCall/onnx_tf_prefix_Add_217"], "attr": {"_grappler_ArithmeticOptimizer_MinimizeBroadcasts": {"b": true}, "T": {"type": "DT_FLOAT"}}}, {"name": "PartitionedCall/transpose_70", "op": "Transpose", "input": ["PartitionedCall/onnx_tf_prefix_Mul_220", "PartitionedCall/transpose_70/perm"], "attr": {"Tperm": {"type": "DT_INT32"}, "T": {"type": "DT_FLOAT"}}}, {"name": "PartitionedCall/convolution_16", "op": "Conv2D", "input": ["PartitionedCall/transpose_70", "PartitionedCall/split_16"], "device": "/device:CPU:0", "attr": {"strides": {"list": {"i": ["1", "1", "1", "1"]}}, "dilations": {"list": {"i": ["1", "1", "1", "1"]}}, "padding": {"s": "VkFMSUQ="}, "T": {"type": "DT_FLOAT"}, "use_cudnn_on_gpu": {"b": true}, "explicit_paddings": {"list": {}}, "data_format": {"s": "TkhXQw=="}}}, {"name": "PartitionedCall/Add_23", "op": "AddV2", "input": ["PartitionedCall/convolution_16", "unknown_77"], "attr": {"T": {"type": "DT_FLOAT"}}}, {"name": "PartitionedCall/transpose_71", "op": "Transpose", "input": ["PartitionedCall/Add_23", "PartitionedCall/transpose_71/perm"], "attr": {"Tperm": {"type": "DT_INT32"}, "T": {"type": "DT_FLOAT"}}}, {"name": "PartitionedCall/onnx_tf_prefix_Mul_222", "op": "Mul", "input": ["PartitionedCall/transpose_71", "unknown_78"], "attr": {"T": {"type": "DT_FLOAT"}}}, {"name": "PartitionedCall/onnx_tf_prefix_Add_223", "op": "AddV2", "input": ["PartitionedCall/onnx_tf_prefix_Mul_222", "PartitionedCall/onnx_tf_prefix_Add_197"], "attr": {"T": {"type": "DT_FLOAT"}}}, {"name": "PartitionedCall/Pad_7", "op": "Pad", "input": ["PartitionedCall/onnx_tf_prefix_Add_223", "PartitionedCall/Const_7"], "attr": {"T": {"type": "DT_FLOAT"}, "Tpaddings": {"type": "DT_INT32"}}}, {"name": "PartitionedCall/transpose_73", "op": "Transpose", "input": ["PartitionedCall/Pad_7", "PartitionedCall/transpose_73/perm"], "attr": {"T": {"type": "DT_FLOAT"}, "Tperm": {"type": "DT_INT32"}}}, {"name": "PartitionedCall/depthwise_7", "op": "DepthwiseConv2dNative", "input": ["PartitionedCall/transpose_73", "PartitionedCall/Reshape_7"], "attr": {"dilations": {"list": {"i": ["1", "1", "1", "1"]}}, "strides": {"list": {"i": ["1", "1", "1", "1"]}}, "T": {"type": "DT_FLOAT"}, "padding": {"s": "VkFMSUQ="}, "explicit_paddings": {"list": {}}, "data_format": {"s": "TkhXQw=="}}}, {"name": "PartitionedCall/Add_24", "op": "AddV2", "input": ["PartitionedCall/depthwise_7", "unknown_80"], "attr": {"T": {"type": "DT_FLOAT"}}}, {"name": "PartitionedCall/onnx_tf_prefix_ReduceMean_226", "op": "Mean", "input": ["PartitionedCall/Add_24", "PartitionedCall/onnx_tf_prefix_ReduceMean_226/reduction_indices"], "attr": {"Tidx": {"type": "DT_INT32"}, "T": {"type": "DT_FLOAT"}, "keep_dims": {"b": true}}}, {"name": "PartitionedCall/onnx_tf_prefix_Sub_227", "op": "Sub", "input": ["PartitionedCall/Add_24", "PartitionedCall/onnx_tf_prefix_ReduceMean_226"], "attr": {"T": {"type": "DT_FLOAT"}}}, {"name": "PartitionedCall/onnx_tf_prefix_Pow_229", "op": "Square", "input": ["PartitionedCall/onnx_tf_prefix_Sub_227"], "attr": {"T": {"type": "DT_FLOAT"}}}, {"name": "PartitionedCall/onnx_tf_prefix_ReduceMean_230", "op": "Mean", "input": ["PartitionedCall/onnx_tf_prefix_Pow_229", "PartitionedCall/onnx_tf_prefix_ReduceMean_230/reduction_indices"], "attr": {"keep_dims": {"b": true}, "Tidx": {"type": "DT_INT32"}, "T": {"type": "DT_FLOAT"}}}, {"name": "PartitionedCall/onnx_tf_prefix_Add_232", "op": "AddV2", "input": ["PartitionedCall/onnx_tf_prefix_ReduceMean_230", "unknown_2"], "attr": {"T": {"type": "DT_FLOAT"}}}, {"name": "PartitionedCall/onnx_tf_prefix_Sqrt_233", "op": "Rsqrt", "input": ["PartitionedCall/onnx_tf_prefix_Add_232"], "attr": {"T": {"type": "DT_FLOAT"}}}, {"name": "PartitionedCall/onnx_tf_prefix_Div_234", "op": "Mul", "input": ["unknown_81", "PartitionedCall/onnx_tf_prefix_Sqrt_233"], "attr": {"T": {"type": "DT_FLOAT"}, "_grappler_ArithmeticOptimizer_MinimizeBroadcasts": {"b": true}}}, {"name": "PartitionedCall/onnx_tf_prefix_Mul_235", "op": "Mul", "input": ["PartitionedCall/onnx_tf_prefix_Div_234", "PartitionedCall/onnx_tf_prefix_Sub_227"], "attr": {"_grappler_ArithmeticOptimizer_MinimizeBroadcasts": {"b": true}, "T": {"type": "DT_FLOAT"}}}, {"name": "PartitionedCall/onnx_tf_prefix_Add_236", "op": "AddV2", "input": ["PartitionedCall/onnx_tf_prefix_Mul_235", "unknown_82"], "attr": {"T": {"type": "DT_FLOAT"}}}, {"name": "PartitionedCall/convolution_17", "op": "Conv2D", "input": ["PartitionedCall/onnx_tf_prefix_Add_236", "PartitionedCall/split_17"], "device": "/device:CPU:0", "attr": {"explicit_paddings": {"list": {}}, "strides": {"list": {"i": ["1", "1", "1", "1"]}}, "use_cudnn_on_gpu": {"b": true}, "padding": {"s": "VkFMSUQ="}, "data_format": {"s": "TkhXQw=="}, "T": {"type": "DT_FLOAT"}, "dilations": {"list": {"i": ["1", "1", "1", "1"]}}}}, {"name": "PartitionedCall/Add_25", "op": "AddV2", "input": ["PartitionedCall/convolution_17", "unknown_84"], "attr": {"T": {"type": "DT_FLOAT"}}}, {"name": "PartitionedCall/transpose_77", "op": "Transpose", "input": ["PartitionedCall/Add_25", "PartitionedCall/transpose_77/perm"], "attr": {"Tperm": {"type": "DT_INT32"}, "T": {"type": "DT_FLOAT"}}}, {"name": "PartitionedCall/onnx_tf_prefix_Mul_244", "op": "Mul", "input": ["unknown_13", "PartitionedCall/transpose_77"], "attr": {"_grappler_ArithmeticOptimizer_MinimizeBroadcasts": {"b": true}, "T": {"type": "DT_FLOAT"}}}, {"name": "PartitionedCall/onnx_tf_prefix_Div_240", "op": "Mul", "input": ["PartitionedCall/transpose_77", "ConstantFolding/PartitionedCall/onnx_tf_prefix_Div_240_recip"], "attr": {"T": {"type": "DT_FLOAT"}}}, {"name": "PartitionedCall/onnx_tf_prefix_Erf_241", "op": "Erf", "input": ["PartitionedCall/onnx_tf_prefix_Div_240"], "attr": {"T": {"type": "DT_FLOAT"}}}, {"name": "PartitionedCall/onnx_tf_prefix_Add_243", "op": "AddV2", "input": ["PartitionedCall/onnx_tf_prefix_Erf_241", "unknown_12"], "attr": {"T": {"type": "DT_FLOAT"}}}, {"name": "PartitionedCall/onnx_tf_prefix_Mul_246", "op": "Mul", "input": ["PartitionedCall/onnx_tf_prefix_Mul_244", "PartitionedCall/onnx_tf_prefix_Add_243"], "attr": {"T": {"type": "DT_FLOAT"}, "_grappler_ArithmeticOptimizer_MinimizeBroadcasts": {"b": true}}}, {"name": "PartitionedCall/transpose_79", "op": "Transpose", "input": ["PartitionedCall/onnx_tf_prefix_Mul_246", "PartitionedCall/transpose_79/perm"], "attr": {"T": {"type": "DT_FLOAT"}, "Tperm": {"type": "DT_INT32"}}}, {"name": "PartitionedCall/convolution_18", "op": "Conv2D", "input": ["PartitionedCall/transpose_79", "PartitionedCall/split_18"], "device": "/device:CPU:0", "attr": {"padding": {"s": "VkFMSUQ="}, "use_cudnn_on_gpu": {"b": true}, "data_format": {"s": "TkhXQw=="}, "explicit_paddings": {"list": {}}, "dilations": {"list": {"i": ["1", "1", "1", "1"]}}, "T": {"type": "DT_FLOAT"}, "strides": {"list": {"i": ["1", "1", "1", "1"]}}}}, {"name": "PartitionedCall/Add_26", "op": "AddV2", "input": ["PartitionedCall/convolution_18", "unknown_86"], "attr": {"T": {"type": "DT_FLOAT"}}}, {"name": "PartitionedCall/transpose_80", "op": "Transpose", "input": ["PartitionedCall/Add_26", "PartitionedCall/transpose_80/perm"], "attr": {"Tperm": {"type": "DT_INT32"}, "T": {"type": "DT_FLOAT"}}}, {"name": "PartitionedCall/onnx_tf_prefix_Mul_248", "op": "Mul", "input": ["PartitionedCall/transpose_80", "unknown_87"], "attr": {"T": {"type": "DT_FLOAT"}}}, {"name": "PartitionedCall/onnx_tf_prefix_Add_249", "op": "AddV2", "input": ["PartitionedCall/onnx_tf_prefix_Mul_248", "PartitionedCall/onnx_tf_prefix_Add_223"], "attr": {"T": {"type": "DT_FLOAT"}}}, {"name": "PartitionedCall/Pad_8", "op": "Pad", "input": ["PartitionedCall/onnx_tf_prefix_Add_249", "PartitionedCall/Const_8"], "attr": {"Tpaddings": {"type": "DT_INT32"}, "T": {"type": "DT_FLOAT"}}}, {"name": "PartitionedCall/transpose_82", "op": "Transpose", "input": ["PartitionedCall/Pad_8", "PartitionedCall/transpose_82/perm"], "attr": {"T": {"type": "DT_FLOAT"}, "Tperm": {"type": "DT_INT32"}}}, {"name": "PartitionedCall/depthwise_8", "op": "DepthwiseConv2dNative", "input": ["PartitionedCall/transpose_82", "PartitionedCall/Reshape_8"], "attr": {"data_format": {"s": "TkhXQw=="}, "T": {"type": "DT_FLOAT"}, "strides": {"list": {"i": ["1", "1", "1", "1"]}}, "padding": {"s": "VkFMSUQ="}, "dilations": {"list": {"i": ["1", "1", "1", "1"]}}, "explicit_paddings": {"list": {}}}}, {"name": "PartitionedCall/Add_27", "op": "AddV2", "input": ["PartitionedCall/depthwise_8", "unknown_89"], "attr": {"T": {"type": "DT_FLOAT"}}}, {"name": "PartitionedCall/onnx_tf_prefix_ReduceMean_252", "op": "Mean", "input": ["PartitionedCall/Add_27", "PartitionedCall/onnx_tf_prefix_ReduceMean_252/reduction_indices"], "attr": {"keep_dims": {"b": true}, "T": {"type": "DT_FLOAT"}, "Tidx": {"type": "DT_INT32"}}}, {"name": "PartitionedCall/onnx_tf_prefix_Sub_253", "op": "Sub", "input": ["PartitionedCall/Add_27", "PartitionedCall/onnx_tf_prefix_ReduceMean_252"], "attr": {"T": {"type": "DT_FLOAT"}}}, {"name": "PartitionedCall/onnx_tf_prefix_Pow_255", "op": "Square", "input": ["PartitionedCall/onnx_tf_prefix_Sub_253"], "attr": {"T": {"type": "DT_FLOAT"}}}, {"name": "PartitionedCall/onnx_tf_prefix_ReduceMean_256", "op": "Mean", "input": ["PartitionedCall/onnx_tf_prefix_Pow_255", "PartitionedCall/onnx_tf_prefix_ReduceMean_256/reduction_indices"], "attr": {"Tidx": {"type": "DT_INT32"}, "keep_dims": {"b": true}, "T": {"type": "DT_FLOAT"}}}, {"name": "PartitionedCall/onnx_tf_prefix_Add_258", "op": "AddV2", "input": ["PartitionedCall/onnx_tf_prefix_ReduceMean_256", "unknown_2"], "attr": {"T": {"type": "DT_FLOAT"}}}, {"name": "PartitionedCall/onnx_tf_prefix_Sqrt_259", "op": "Rsqrt", "input": ["PartitionedCall/onnx_tf_prefix_Add_258"], "attr": {"T": {"type": "DT_FLOAT"}}}, {"name": "PartitionedCall/onnx_tf_prefix_Div_260", "op": "Mul", "input": ["unknown_90", "PartitionedCall/onnx_tf_prefix_Sqrt_259"], "attr": {"T": {"type": "DT_FLOAT"}, "_grappler_ArithmeticOptimizer_MinimizeBroadcasts": {"b": true}}}, {"name": "PartitionedCall/onnx_tf_prefix_Mul_261", "op": "Mul", "input": ["PartitionedCall/onnx_tf_prefix_Div_260", "PartitionedCall/onnx_tf_prefix_Sub_253"], "attr": {"T": {"type": "DT_FLOAT"}, "_grappler_ArithmeticOptimizer_MinimizeBroadcasts": {"b": true}}}, {"name": "PartitionedCall/onnx_tf_prefix_Add_262", "op": "AddV2", "input": ["PartitionedCall/onnx_tf_prefix_Mul_261", "unknown_91"], "attr": {"T": {"type": "DT_FLOAT"}}}, {"name": "PartitionedCall/convolution_19", "op": "Conv2D", "input": ["PartitionedCall/onnx_tf_prefix_Add_262", "PartitionedCall/split_19"], "device": "/device:CPU:0", "attr": {"dilations": {"list": {"i": ["1", "1", "1", "1"]}}, "padding": {"s": "VkFMSUQ="}, "T": {"type": "DT_FLOAT"}, "use_cudnn_on_gpu": {"b": true}, "strides": {"list": {"i": ["1", "1", "1", "1"]}}, "data_format": {"s": "TkhXQw=="}, "explicit_paddings": {"list": {}}}}, {"name": "PartitionedCall/Add_28", "op": "AddV2", "input": ["PartitionedCall/convolution_19", "unknown_93"], "attr": {"T": {"type": "DT_FLOAT"}}}, {"name": "PartitionedCall/transpose_86", "op": "Transpose", "input": ["PartitionedCall/Add_28", "PartitionedCall/transpose_86/perm"], "attr": {"T": {"type": "DT_FLOAT"}, "Tperm": {"type": "DT_INT32"}}}, {"name": "PartitionedCall/onnx_tf_prefix_Mul_270", "op": "Mul", "input": ["unknown_13", "PartitionedCall/transpose_86"], "attr": {"_grappler_ArithmeticOptimizer_MinimizeBroadcasts": {"b": true}, "T": {"type": "DT_FLOAT"}}}, {"name": "PartitionedCall/onnx_tf_prefix_Div_266", "op": "Mul", "input": ["PartitionedCall/transpose_86", "ConstantFolding/PartitionedCall/onnx_tf_prefix_Div_266_recip"], "attr": {"T": {"type": "DT_FLOAT"}}}, {"name": "PartitionedCall/onnx_tf_prefix_Erf_267", "op": "Erf", "input": ["PartitionedCall/onnx_tf_prefix_Div_266"], "attr": {"T": {"type": "DT_FLOAT"}}}, {"name": "PartitionedCall/onnx_tf_prefix_Add_269", "op": "AddV2", "input": ["PartitionedCall/onnx_tf_prefix_Erf_267", "unknown_12"], "attr": {"T": {"type": "DT_FLOAT"}}}, {"name": "PartitionedCall/onnx_tf_prefix_Mul_272", "op": "Mul", "input": ["PartitionedCall/onnx_tf_prefix_Mul_270", "PartitionedCall/onnx_tf_prefix_Add_269"], "attr": {"_grappler_ArithmeticOptimizer_MinimizeBroadcasts": {"b": true}, "T": {"type": "DT_FLOAT"}}}, {"name": "PartitionedCall/transpose_88", "op": "Transpose", "input": ["PartitionedCall/onnx_tf_prefix_Mul_272", "PartitionedCall/transpose_88/perm"], "attr": {"Tperm": {"type": "DT_INT32"}, "T": {"type": "DT_FLOAT"}}}, {"name": "PartitionedCall/convolution_20", "op": "Conv2D", "input": ["PartitionedCall/transpose_88", "PartitionedCall/split_20"], "device": "/device:CPU:0", "attr": {"data_format": {"s": "TkhXQw=="}, "T": {"type": "DT_FLOAT"}, "explicit_paddings": {"list": {}}, "strides": {"list": {"i": ["1", "1", "1", "1"]}}, "dilations": {"list": {"i": ["1", "1", "1", "1"]}}, "padding": {"s": "VkFMSUQ="}, "use_cudnn_on_gpu": {"b": true}}}, {"name": "PartitionedCall/Add_29", "op": "AddV2", "input": ["PartitionedCall/convolution_20", "unknown_95"], "attr": {"T": {"type": "DT_FLOAT"}}}, {"name": "PartitionedCall/transpose_89", "op": "Transpose", "input": ["PartitionedCall/Add_29", "PartitionedCall/transpose_89/perm"], "attr": {"Tperm": {"type": "DT_INT32"}, "T": {"type": "DT_FLOAT"}}}, {"name": "PartitionedCall/onnx_tf_prefix_Mul_274", "op": "Mul", "input": ["PartitionedCall/transpose_89", "unknown_96"], "attr": {"T": {"type": "DT_FLOAT"}}}, {"name": "PartitionedCall/onnx_tf_prefix_Add_275", "op": "AddV2", "input": ["PartitionedCall/onnx_tf_prefix_Mul_274", "PartitionedCall/onnx_tf_prefix_Add_249"], "attr": {"T": {"type": "DT_FLOAT"}}}, {"name": "PartitionedCall/Pad_9", "op": "Pad", "input": ["PartitionedCall/onnx_tf_prefix_Add_275", "PartitionedCall/Const_9"], "attr": {"Tpaddings": {"type": "DT_INT32"}, "T": {"type": "DT_FLOAT"}}}, {"name": "PartitionedCall/transpose_91", "op": "Transpose", "input": ["PartitionedCall/Pad_9", "PartitionedCall/transpose_91/perm"], "attr": {"T": {"type": "DT_FLOAT"}, "Tperm": {"type": "DT_INT32"}}}, {"name": "PartitionedCall/depthwise_9", "op": "DepthwiseConv2dNative", "input": ["PartitionedCall/transpose_91", "PartitionedCall/Reshape_9"], "attr": {"padding": {"s": "VkFMSUQ="}, "T": {"type": "DT_FLOAT"}, "data_format": {"s": "TkhXQw=="}, "explicit_paddings": {"list": {}}, "strides": {"list": {"i": ["1", "1", "1", "1"]}}, "dilations": {"list": {"i": ["1", "1", "1", "1"]}}}}, {"name": "PartitionedCall/Add_30", "op": "AddV2", "input": ["PartitionedCall/depthwise_9", "unknown_98"], "attr": {"T": {"type": "DT_FLOAT"}}}, {"name": "PartitionedCall/onnx_tf_prefix_ReduceMean_278", "op": "Mean", "input": ["PartitionedCall/Add_30", "PartitionedCall/onnx_tf_prefix_ReduceMean_278/reduction_indices"], "attr": {"Tidx": {"type": "DT_INT32"}, "keep_dims": {"b": true}, "T": {"type": "DT_FLOAT"}}}, {"name": "PartitionedCall/onnx_tf_prefix_Sub_279", "op": "Sub", "input": ["PartitionedCall/Add_30", "PartitionedCall/onnx_tf_prefix_ReduceMean_278"], "attr": {"T": {"type": "DT_FLOAT"}}}, {"name": "PartitionedCall/onnx_tf_prefix_Pow_281", "op": "Square", "input": ["PartitionedCall/onnx_tf_prefix_Sub_279"], "attr": {"T": {"type": "DT_FLOAT"}}}, {"name": "PartitionedCall/onnx_tf_prefix_ReduceMean_282", "op": "Mean", "input": ["PartitionedCall/onnx_tf_prefix_Pow_281", "PartitionedCall/onnx_tf_prefix_ReduceMean_282/reduction_indices"], "attr": {"T": {"type": "DT_FLOAT"}, "Tidx": {"type": "DT_INT32"}, "keep_dims": {"b": true}}}, {"name": "PartitionedCall/onnx_tf_prefix_Add_284", "op": "AddV2", "input": ["PartitionedCall/onnx_tf_prefix_ReduceMean_282", "unknown_2"], "attr": {"T": {"type": "DT_FLOAT"}}}, {"name": "PartitionedCall/onnx_tf_prefix_Sqrt_285", "op": "Rsqrt", "input": ["PartitionedCall/onnx_tf_prefix_Add_284"], "attr": {"T": {"type": "DT_FLOAT"}}}, {"name": "PartitionedCall/onnx_tf_prefix_Div_286", "op": "Mul", "input": ["unknown_99", "PartitionedCall/onnx_tf_prefix_Sqrt_285"], "attr": {"_grappler_ArithmeticOptimizer_MinimizeBroadcasts": {"b": true}, "T": {"type": "DT_FLOAT"}}}, {"name": "PartitionedCall/onnx_tf_prefix_Mul_287", "op": "Mul", "input": ["PartitionedCall/onnx_tf_prefix_Div_286", "PartitionedCall/onnx_tf_prefix_Sub_279"], "attr": {"T": {"type": "DT_FLOAT"}, "_grappler_ArithmeticOptimizer_MinimizeBroadcasts": {"b": true}}}, {"name": "PartitionedCall/onnx_tf_prefix_Add_288", "op": "AddV2", "input": ["PartitionedCall/onnx_tf_prefix_Mul_287", "unknown_100"], "attr": {"T": {"type": "DT_FLOAT"}}}, {"name": "PartitionedCall/convolution_21", "op": "Conv2D", "input": ["PartitionedCall/onnx_tf_prefix_Add_288", "PartitionedCall/split_21"], "device": "/device:CPU:0", "attr": {"strides": {"list": {"i": ["1", "1", "1", "1"]}}, "use_cudnn_on_gpu": {"b": true}, "padding": {"s": "VkFMSUQ="}, "explicit_paddings": {"list": {}}, "dilations": {"list": {"i": ["1", "1", "1", "1"]}}, "T": {"type": "DT_FLOAT"}, "data_format": {"s": "TkhXQw=="}}}, {"name": "PartitionedCall/Add_31", "op": "AddV2", "input": ["PartitionedCall/convolution_21", "unknown_102"], "attr": {"T": {"type": "DT_FLOAT"}}}, {"name": "PartitionedCall/transpose_95", "op": "Transpose", "input": ["PartitionedCall/Add_31", "PartitionedCall/transpose_95/perm"], "attr": {"T": {"type": "DT_FLOAT"}, "Tperm": {"type": "DT_INT32"}}}, {"name": "PartitionedCall/onnx_tf_prefix_Mul_296", "op": "Mul", "input": ["unknown_13", "PartitionedCall/transpose_95"], "attr": {"_grappler_ArithmeticOptimizer_MinimizeBroadcasts": {"b": true}, "T": {"type": "DT_FLOAT"}}}, {"name": "PartitionedCall/onnx_tf_prefix_Div_292", "op": "Mul", "input": ["PartitionedCall/transpose_95", "ConstantFolding/PartitionedCall/onnx_tf_prefix_Div_292_recip"], "attr": {"T": {"type": "DT_FLOAT"}}}, {"name": "PartitionedCall/onnx_tf_prefix_Erf_293", "op": "Erf", "input": ["PartitionedCall/onnx_tf_prefix_Div_292"], "attr": {"T": {"type": "DT_FLOAT"}}}, {"name": "PartitionedCall/onnx_tf_prefix_Add_295", "op": "AddV2", "input": ["PartitionedCall/onnx_tf_prefix_Erf_293", "unknown_12"], "attr": {"T": {"type": "DT_FLOAT"}}}, {"name": "PartitionedCall/onnx_tf_prefix_Mul_298", "op": "Mul", "input": ["PartitionedCall/onnx_tf_prefix_Mul_296", "PartitionedCall/onnx_tf_prefix_Add_295"], "attr": {"T": {"type": "DT_FLOAT"}, "_grappler_ArithmeticOptimizer_MinimizeBroadcasts": {"b": true}}}, {"name": "PartitionedCall/transpose_97", "op": "Transpose", "input": ["PartitionedCall/onnx_tf_prefix_Mul_298", "PartitionedCall/transpose_97/perm"], "attr": {"T": {"type": "DT_FLOAT"}, "Tperm": {"type": "DT_INT32"}}}, {"name": "PartitionedCall/convolution_22", "op": "Conv2D", "input": ["PartitionedCall/transpose_97", "PartitionedCall/split_22"], "device": "/device:CPU:0", "attr": {"use_cudnn_on_gpu": {"b": true}, "padding": {"s": "VkFMSUQ="}, "strides": {"list": {"i": ["1", "1", "1", "1"]}}, "dilations": {"list": {"i": ["1", "1", "1", "1"]}}, "T": {"type": "DT_FLOAT"}, "data_format": {"s": "TkhXQw=="}, "explicit_paddings": {"list": {}}}}, {"name": "PartitionedCall/Add_32", "op": "AddV2", "input": ["PartitionedCall/convolution_22", "unknown_104"], "attr": {"T": {"type": "DT_FLOAT"}}}, {"name": "PartitionedCall/transpose_98", "op": "Transpose", "input": ["PartitionedCall/Add_32", "PartitionedCall/transpose_98/perm"], "attr": {"T": {"type": "DT_FLOAT"}, "Tperm": {"type": "DT_INT32"}}}, {"name": "PartitionedCall/onnx_tf_prefix_Mul_300", "op": "Mul", "input": ["PartitionedCall/transpose_98", "unknown_105"], "attr": {"T": {"type": "DT_FLOAT"}}}, {"name": "PartitionedCall/onnx_tf_prefix_Add_301", "op": "AddV2", "input": ["PartitionedCall/onnx_tf_prefix_Mul_300", "PartitionedCall/onnx_tf_prefix_Add_275"], "attr": {"T": {"type": "DT_FLOAT"}}}, {"name": "PartitionedCall/Pad_10", "op": "Pad", "input": ["PartitionedCall/onnx_tf_prefix_Add_301", "PartitionedCall/Const_10"], "attr": {"Tpaddings": {"type": "DT_INT32"}, "T": {"type": "DT_FLOAT"}}}, {"name": "PartitionedCall/transpose_100", "op": "Transpose", "input": ["PartitionedCall/Pad_10", "PartitionedCall/transpose_100/perm"], "attr": {"T": {"type": "DT_FLOAT"}, "Tperm": {"type": "DT_INT32"}}}, {"name": "PartitionedCall/depthwise_10", "op": "DepthwiseConv2dNative", "input": ["PartitionedCall/transpose_100", "PartitionedCall/Reshape_10"], "attr": {"data_format": {"s": "TkhXQw=="}, "dilations": {"list": {"i": ["1", "1", "1", "1"]}}, "T": {"type": "DT_FLOAT"}, "strides": {"list": {"i": ["1", "1", "1", "1"]}}, "padding": {"s": "VkFMSUQ="}, "explicit_paddings": {"list": {}}}}, {"name": "PartitionedCall/Add_33", "op": "AddV2", "input": ["PartitionedCall/depthwise_10", "unknown_107"], "attr": {"T": {"type": "DT_FLOAT"}}}, {"name": "PartitionedCall/onnx_tf_prefix_ReduceMean_304", "op": "Mean", "input": ["PartitionedCall/Add_33", "PartitionedCall/onnx_tf_prefix_ReduceMean_304/reduction_indices"], "attr": {"keep_dims": {"b": true}, "T": {"type": "DT_FLOAT"}, "Tidx": {"type": "DT_INT32"}}}, {"name": "PartitionedCall/onnx_tf_prefix_Sub_305", "op": "Sub", "input": ["PartitionedCall/Add_33", "PartitionedCall/onnx_tf_prefix_ReduceMean_304"], "attr": {"T": {"type": "DT_FLOAT"}}}, {"name": "PartitionedCall/onnx_tf_prefix_Pow_307", "op": "Square", "input": ["PartitionedCall/onnx_tf_prefix_Sub_305"], "attr": {"T": {"type": "DT_FLOAT"}}}, {"name": "PartitionedCall/onnx_tf_prefix_ReduceMean_308", "op": "Mean", "input": ["PartitionedCall/onnx_tf_prefix_Pow_307", "PartitionedCall/onnx_tf_prefix_ReduceMean_308/reduction_indices"], "attr": {"keep_dims": {"b": true}, "T": {"type": "DT_FLOAT"}, "Tidx": {"type": "DT_INT32"}}}, {"name": "PartitionedCall/onnx_tf_prefix_Add_310", "op": "AddV2", "input": ["PartitionedCall/onnx_tf_prefix_ReduceMean_308", "unknown_2"], "attr": {"T": {"type": "DT_FLOAT"}}}, {"name": "PartitionedCall/onnx_tf_prefix_Sqrt_311", "op": "Rsqrt", "input": ["PartitionedCall/onnx_tf_prefix_Add_310"], "attr": {"T": {"type": "DT_FLOAT"}}}, {"name": "PartitionedCall/onnx_tf_prefix_Div_312", "op": "Mul", "input": ["unknown_108", "PartitionedCall/onnx_tf_prefix_Sqrt_311"], "attr": {"_grappler_ArithmeticOptimizer_MinimizeBroadcasts": {"b": true}, "T": {"type": "DT_FLOAT"}}}, {"name": "PartitionedCall/onnx_tf_prefix_Mul_313", "op": "Mul", "input": ["PartitionedCall/onnx_tf_prefix_Div_312", "PartitionedCall/onnx_tf_prefix_Sub_305"], "attr": {"T": {"type": "DT_FLOAT"}, "_grappler_ArithmeticOptimizer_MinimizeBroadcasts": {"b": true}}}, {"name": "PartitionedCall/onnx_tf_prefix_Add_314", "op": "AddV2", "input": ["PartitionedCall/onnx_tf_prefix_Mul_313", "unknown_109"], "attr": {"T": {"type": "DT_FLOAT"}}}, {"name": "PartitionedCall/convolution_23", "op": "Conv2D", "input": ["PartitionedCall/onnx_tf_prefix_Add_314", "PartitionedCall/split_23"], "device": "/device:CPU:0", "attr": {"explicit_paddings": {"list": {}}, "T": {"type": "DT_FLOAT"}, "use_cudnn_on_gpu": {"b": true}, "dilations": {"list": {"i": ["1", "1", "1", "1"]}}, "padding": {"s": "VkFMSUQ="}, "strides": {"list": {"i": ["1", "1", "1", "1"]}}, "data_format": {"s": "TkhXQw=="}}}, {"name": "PartitionedCall/Add_34", "op": "AddV2", "input": ["PartitionedCall/convolution_23", "unknown_111"], "attr": {"T": {"type": "DT_FLOAT"}}}, {"name": "PartitionedCall/transpose_104", "op": "Transpose", "input": ["PartitionedCall/Add_34", "PartitionedCall/transpose_104/perm"], "attr": {"Tperm": {"type": "DT_INT32"}, "T": {"type": "DT_FLOAT"}}}, {"name": "PartitionedCall/onnx_tf_prefix_Mul_322", "op": "Mul", "input": ["unknown_13", "PartitionedCall/transpose_104"], "attr": {"T": {"type": "DT_FLOAT"}, "_grappler_ArithmeticOptimizer_MinimizeBroadcasts": {"b": true}}}, {"name": "PartitionedCall/onnx_tf_prefix_Div_318", "op": "Mul", "input": ["PartitionedCall/transpose_104", "ConstantFolding/PartitionedCall/onnx_tf_prefix_Div_318_recip"], "attr": {"T": {"type": "DT_FLOAT"}}}, {"name": "PartitionedCall/onnx_tf_prefix_Erf_319", "op": "Erf", "input": ["PartitionedCall/onnx_tf_prefix_Div_318"], "attr": {"T": {"type": "DT_FLOAT"}}}, {"name": "PartitionedCall/onnx_tf_prefix_Add_321", "op": "AddV2", "input": ["PartitionedCall/onnx_tf_prefix_Erf_319", "unknown_12"], "attr": {"T": {"type": "DT_FLOAT"}}}, {"name": "PartitionedCall/onnx_tf_prefix_Mul_324", "op": "Mul", "input": ["PartitionedCall/onnx_tf_prefix_Mul_322", "PartitionedCall/onnx_tf_prefix_Add_321"], "attr": {"T": {"type": "DT_FLOAT"}, "_grappler_ArithmeticOptimizer_MinimizeBroadcasts": {"b": true}}}, {"name": "PartitionedCall/transpose_106", "op": "Transpose", "input": ["PartitionedCall/onnx_tf_prefix_Mul_324", "PartitionedCall/transpose_106/perm"], "attr": {"Tperm": {"type": "DT_INT32"}, "T": {"type": "DT_FLOAT"}}}, {"name": "PartitionedCall/convolution_24", "op": "Conv2D", "input": ["PartitionedCall/transpose_106", "PartitionedCall/split_24"], "device": "/device:CPU:0", "attr": {"explicit_paddings": {"list": {}}, "use_cudnn_on_gpu": {"b": true}, "T": {"type": "DT_FLOAT"}, "padding": {"s": "VkFMSUQ="}, "strides": {"list": {"i": ["1", "1", "1", "1"]}}, "dilations": {"list": {"i": ["1", "1", "1", "1"]}}, "data_format": {"s": "TkhXQw=="}}}, {"name": "PartitionedCall/Add_35", "op": "AddV2", "input": ["PartitionedCall/convolution_24", "unknown_113"], "attr": {"T": {"type": "DT_FLOAT"}}}, {"name": "PartitionedCall/transpose_107", "op": "Transpose", "input": ["PartitionedCall/Add_35", "PartitionedCall/transpose_107/perm"], "attr": {"Tperm": {"type": "DT_INT32"}, "T": {"type": "DT_FLOAT"}}}, {"name": "PartitionedCall/onnx_tf_prefix_Mul_326", "op": "Mul", "input": ["PartitionedCall/transpose_107", "unknown_114"], "attr": {"T": {"type": "DT_FLOAT"}}}, {"name": "PartitionedCall/onnx_tf_prefix_Add_327", "op": "AddV2", "input": ["PartitionedCall/onnx_tf_prefix_Mul_326", "PartitionedCall/onnx_tf_prefix_Add_301"], "attr": {"T": {"type": "DT_FLOAT"}}}, {"name": "PartitionedCall/Pad_11", "op": "Pad", "input": ["PartitionedCall/onnx_tf_prefix_Add_327", "PartitionedCall/Const_11"], "attr": {"T": {"type": "DT_FLOAT"}, "Tpaddings": {"type": "DT_INT32"}}}, {"name": "PartitionedCall/transpose_109", "op": "Transpose", "input": ["PartitionedCall/Pad_11", "PartitionedCall/transpose_109/perm"], "attr": {"T": {"type": "DT_FLOAT"}, "Tperm": {"type": "DT_INT32"}}}, {"name": "PartitionedCall/depthwise_11", "op": "DepthwiseConv2dNative", "input": ["PartitionedCall/transpose_109", "PartitionedCall/Reshape_11"], "attr": {"data_format": {"s": "TkhXQw=="}, "explicit_paddings": {"list": {}}, "strides": {"list": {"i": ["1", "1", "1", "1"]}}, "dilations": {"list": {"i": ["1", "1", "1", "1"]}}, "padding": {"s": "VkFMSUQ="}, "T": {"type": "DT_FLOAT"}}}, {"name": "PartitionedCall/Add_36", "op": "AddV2", "input": ["PartitionedCall/depthwise_11", "unknown_116"], "attr": {"T": {"type": "DT_FLOAT"}}}, {"name": "PartitionedCall/onnx_tf_prefix_ReduceMean_330", "op": "Mean", "input": ["PartitionedCall/Add_36", "PartitionedCall/onnx_tf_prefix_ReduceMean_330/reduction_indices"], "attr": {"T": {"type": "DT_FLOAT"}, "Tidx": {"type": "DT_INT32"}, "keep_dims": {"b": true}}}, {"name": "PartitionedCall/onnx_tf_prefix_Sub_331", "op": "Sub", "input": ["PartitionedCall/Add_36", "PartitionedCall/onnx_tf_prefix_ReduceMean_330"], "attr": {"T": {"type": "DT_FLOAT"}}}, {"name": "PartitionedCall/onnx_tf_prefix_Pow_333", "op": "Square", "input": ["PartitionedCall/onnx_tf_prefix_Sub_331"], "attr": {"T": {"type": "DT_FLOAT"}}}, {"name": "PartitionedCall/onnx_tf_prefix_ReduceMean_334", "op": "Mean", "input": ["PartitionedCall/onnx_tf_prefix_Pow_333", "PartitionedCall/onnx_tf_prefix_ReduceMean_334/reduction_indices"], "attr": {"Tidx": {"type": "DT_INT32"}, "keep_dims": {"b": true}, "T": {"type": "DT_FLOAT"}}}, {"name": "PartitionedCall/onnx_tf_prefix_Add_336", "op": "AddV2", "input": ["PartitionedCall/onnx_tf_prefix_ReduceMean_334", "unknown_2"], "attr": {"T": {"type": "DT_FLOAT"}}}, {"name": "PartitionedCall/onnx_tf_prefix_Sqrt_337", "op": "Rsqrt", "input": ["PartitionedCall/onnx_tf_prefix_Add_336"], "attr": {"T": {"type": "DT_FLOAT"}}}, {"name": "PartitionedCall/onnx_tf_prefix_Div_338", "op": "Mul", "input": ["unknown_117", "PartitionedCall/onnx_tf_prefix_Sqrt_337"], "attr": {"_grappler_ArithmeticOptimizer_MinimizeBroadcasts": {"b": true}, "T": {"type": "DT_FLOAT"}}}, {"name": "PartitionedCall/onnx_tf_prefix_Mul_339", "op": "Mul", "input": ["PartitionedCall/onnx_tf_prefix_Div_338", "PartitionedCall/onnx_tf_prefix_Sub_331"], "attr": {"_grappler_ArithmeticOptimizer_MinimizeBroadcasts": {"b": true}, "T": {"type": "DT_FLOAT"}}}, {"name": "PartitionedCall/onnx_tf_prefix_Add_340", "op": "AddV2", "input": ["PartitionedCall/onnx_tf_prefix_Mul_339", "unknown_118"], "attr": {"T": {"type": "DT_FLOAT"}}}, {"name": "PartitionedCall/convolution_25", "op": "Conv2D", "input": ["PartitionedCall/onnx_tf_prefix_Add_340", "PartitionedCall/split_25"], "device": "/device:CPU:0", "attr": {"data_format": {"s": "TkhXQw=="}, "dilations": {"list": {"i": ["1", "1", "1", "1"]}}, "padding": {"s": "VkFMSUQ="}, "T": {"type": "DT_FLOAT"}, "strides": {"list": {"i": ["1", "1", "1", "1"]}}, "use_cudnn_on_gpu": {"b": true}, "explicit_paddings": {"list": {}}}}, {"name": "PartitionedCall/Add_37", "op": "AddV2", "input": ["PartitionedCall/convolution_25", "unknown_120"], "attr": {"T": {"type": "DT_FLOAT"}}}, {"name": "PartitionedCall/transpose_113", "op": "Transpose", "input": ["PartitionedCall/Add_37", "PartitionedCall/transpose_113/perm"], "attr": {"Tperm": {"type": "DT_INT32"}, "T": {"type": "DT_FLOAT"}}}, {"name": "PartitionedCall/onnx_tf_prefix_Mul_348", "op": "Mul", "input": ["unknown_13", "PartitionedCall/transpose_113"], "attr": {"_grappler_ArithmeticOptimizer_MinimizeBroadcasts": {"b": true}, "T": {"type": "DT_FLOAT"}}}, {"name": "PartitionedCall/onnx_tf_prefix_Div_344", "op": "Mul", "input": ["PartitionedCall/transpose_113", "ConstantFolding/PartitionedCall/onnx_tf_prefix_Div_344_recip"], "attr": {"T": {"type": "DT_FLOAT"}}}, {"name": "PartitionedCall/onnx_tf_prefix_Erf_345", "op": "Erf", "input": ["PartitionedCall/onnx_tf_prefix_Div_344"], "attr": {"T": {"type": "DT_FLOAT"}}}, {"name": "PartitionedCall/onnx_tf_prefix_Add_347", "op": "AddV2", "input": ["PartitionedCall/onnx_tf_prefix_Erf_345", "unknown_12"], "attr": {"T": {"type": "DT_FLOAT"}}}, {"name": "PartitionedCall/onnx_tf_prefix_Mul_350", "op": "Mul", "input": ["PartitionedCall/onnx_tf_prefix_Mul_348", "PartitionedCall/onnx_tf_prefix_Add_347"], "attr": {"T": {"type": "DT_FLOAT"}, "_grappler_ArithmeticOptimizer_MinimizeBroadcasts": {"b": true}}}, {"name": "PartitionedCall/transpose_115", "op": "Transpose", "input": ["PartitionedCall/onnx_tf_prefix_Mul_350", "PartitionedCall/transpose_115/perm"], "attr": {"Tperm": {"type": "DT_INT32"}, "T": {"type": "DT_FLOAT"}}}, {"name": "PartitionedCall/convolution_26", "op": "Conv2D", "input": ["PartitionedCall/transpose_115", "PartitionedCall/split_26"], "device": "/device:CPU:0", "attr": {"strides": {"list": {"i": ["1", "1", "1", "1"]}}, "T": {"type": "DT_FLOAT"}, "padding": {"s": "VkFMSUQ="}, "data_format": {"s": "TkhXQw=="}, "explicit_paddings": {"list": {}}, "use_cudnn_on_gpu": {"b": true}, "dilations": {"list": {"i": ["1", "1", "1", "1"]}}}}, {"name": "PartitionedCall/Add_38", "op": "AddV2", "input": ["PartitionedCall/convolution_26", "unknown_122"], "attr": {"T": {"type": "DT_FLOAT"}}}, {"name": "PartitionedCall/transpose_116", "op": "Transpose", "input": ["PartitionedCall/Add_38", "PartitionedCall/transpose_116/perm"], "attr": {"Tperm": {"type": "DT_INT32"}, "T": {"type": "DT_FLOAT"}}}, {"name": "PartitionedCall/onnx_tf_prefix_Mul_352", "op": "Mul", "input": ["PartitionedCall/transpose_116", "unknown_123"], "attr": {"T": {"type": "DT_FLOAT"}}}, {"name": "PartitionedCall/onnx_tf_prefix_Add_353", "op": "AddV2", "input": ["PartitionedCall/onnx_tf_prefix_Mul_352", "PartitionedCall/onnx_tf_prefix_Add_327"], "attr": {"T": {"type": "DT_FLOAT"}}}, {"name": "PartitionedCall/onnx_tf_prefix_Transpose_354", "op": "Transpose", "input": ["PartitionedCall/onnx_tf_prefix_Add_353", "PartitionedCall/onnx_tf_prefix_Transpose_354/perm"], "attr": {"T": {"type": "DT_FLOAT"}, "Tperm": {"type": "DT_INT32"}}}, {"name": "PartitionedCall/onnx_tf_prefix_ReduceMean_355", "op": "Mean", "input": ["PartitionedCall/onnx_tf_prefix_Transpose_354", "PartitionedCall/onnx_tf_prefix_ReduceMean_355/reduction_indices"], "attr": {"Tidx": {"type": "DT_INT32"}, "keep_dims": {"b": true}, "T": {"type": "DT_FLOAT"}}}, {"name": "PartitionedCall/onnx_tf_prefix_Sub_356", "op": "Sub", "input": ["PartitionedCall/onnx_tf_prefix_Transpose_354", "PartitionedCall/onnx_tf_prefix_ReduceMean_355"], "attr": {"T": {"type": "DT_FLOAT"}}}, {"name": "PartitionedCall/onnx_tf_prefix_Pow_358", "op": "Square", "input": ["PartitionedCall/onnx_tf_prefix_Sub_356"], "attr": {"T": {"type": "DT_FLOAT"}}}, {"name": "PartitionedCall/onnx_tf_prefix_ReduceMean_359", "op": "Mean", "input": ["PartitionedCall/onnx_tf_prefix_Pow_358", "PartitionedCall/onnx_tf_prefix_ReduceMean_359/reduction_indices"], "attr": {"keep_dims": {"b": true}, "T": {"type": "DT_FLOAT"}, "Tidx": {"type": "DT_INT32"}}}, {"name": "PartitionedCall/onnx_tf_prefix_Add_361", "op": "AddV2", "input": ["PartitionedCall/onnx_tf_prefix_ReduceMean_359", "unknown_2"], "attr": {"T": {"type": "DT_FLOAT"}}}, {"name": "PartitionedCall/onnx_tf_prefix_Sqrt_362", "op": "Rsqrt", "input": ["PartitionedCall/onnx_tf_prefix_Add_361"], "attr": {"T": {"type": "DT_FLOAT"}}}, {"name": "PartitionedCall/onnx_tf_prefix_Div_363", "op": "Mul", "input": ["unknown_124", "PartitionedCall/onnx_tf_prefix_Sqrt_362"], "attr": {"_grappler_ArithmeticOptimizer_MinimizeBroadcasts": {"b": true}, "T": {"type": "DT_FLOAT"}}}, {"name": "PartitionedCall/onnx_tf_prefix_Mul_364", "op": "Mul", "input": ["PartitionedCall/onnx_tf_prefix_Div_363", "PartitionedCall/onnx_tf_prefix_Sub_356"], "attr": {"_grappler_ArithmeticOptimizer_MinimizeBroadcasts": {"b": true}, "T": {"type": "DT_FLOAT"}}}, {"name": "PartitionedCall/onnx_tf_prefix_Add_365", "op": "AddV2", "input": ["PartitionedCall/onnx_tf_prefix_Mul_364", "unknown_125"], "attr": {"T": {"type": "DT_FLOAT"}}}, {"name": "PartitionedCall/convolution_27", "op": "Conv2D", "input": ["PartitionedCall/onnx_tf_prefix_Add_365", "PartitionedCall/split_27"], "device": "/device:CPU:0", "attr": {"data_format": {"s": "TkhXQw=="}, "dilations": {"list": {"i": ["1", "1", "1", "1"]}}, "strides": {"list": {"i": ["1", "2", "2", "1"]}}, "padding": {"s": "VkFMSUQ="}, "explicit_paddings": {"list": {}}, "use_cudnn_on_gpu": {"b": true}, "T": {"type": "DT_FLOAT"}}}, {"name": "PartitionedCall/Add_39", "op": "AddV2", "input": ["PartitionedCall/convolution_27", "unknown_127"], "attr": {"T": {"type": "DT_FLOAT"}}}, {"name": "PartitionedCall/transpose_119", "op": "Transpose", "input": ["PartitionedCall/Add_39", "PartitionedCall/transpose_119/perm"], "attr": {"Tperm": {"type": "DT_INT32"}, "T": {"type": "DT_FLOAT"}}}, {"name": "PartitionedCall/Pad_12", "op": "Pad", "input": ["PartitionedCall/transpose_119", "PartitionedCall/Const_12"], "attr": {"Tpaddings": {"type": "DT_INT32"}, "T": {"type": "DT_FLOAT"}}}, {"name": "PartitionedCall/transpose_121", "op": "Transpose", "input": ["PartitionedCall/Pad_12", "PartitionedCall/transpose_121/perm"], "attr": {"Tperm": {"type": "DT_INT32"}, "T": {"type": "DT_FLOAT"}}}, {"name": "PartitionedCall/depthwise_12", "op": "DepthwiseConv2dNative", "input": ["PartitionedCall/transpose_121", "PartitionedCall/Reshape_12"], "attr": {"T": {"type": "DT_FLOAT"}, "padding": {"s": "VkFMSUQ="}, "explicit_paddings": {"list": {}}, "dilations": {"list": {"i": ["1", "1", "1", "1"]}}, "strides": {"list": {"i": ["1", "1", "1", "1"]}}, "data_format": {"s": "TkhXQw=="}}}, {"name": "PartitionedCall/Add_40", "op": "AddV2", "input": ["PartitionedCall/depthwise_12", "unknown_129"], "attr": {"T": {"type": "DT_FLOAT"}}}, {"name": "PartitionedCall/onnx_tf_prefix_ReduceMean_370", "op": "Mean", "input": ["PartitionedCall/Add_40", "PartitionedCall/onnx_tf_prefix_ReduceMean_370/reduction_indices"], "attr": {"Tidx": {"type": "DT_INT32"}, "keep_dims": {"b": true}, "T": {"type": "DT_FLOAT"}}}, {"name": "PartitionedCall/onnx_tf_prefix_Sub_371", "op": "Sub", "input": ["PartitionedCall/Add_40", "PartitionedCall/onnx_tf_prefix_ReduceMean_370"], "attr": {"T": {"type": "DT_FLOAT"}}}, {"name": "PartitionedCall/onnx_tf_prefix_Pow_373", "op": "Square", "input": ["PartitionedCall/onnx_tf_prefix_Sub_371"], "attr": {"T": {"type": "DT_FLOAT"}}}, {"name": "PartitionedCall/onnx_tf_prefix_ReduceMean_374", "op": "Mean", "input": ["PartitionedCall/onnx_tf_prefix_Pow_373", "PartitionedCall/onnx_tf_prefix_ReduceMean_374/reduction_indices"], "attr": {"Tidx": {"type": "DT_INT32"}, "keep_dims": {"b": true}, "T": {"type": "DT_FLOAT"}}}, {"name": "PartitionedCall/onnx_tf_prefix_Add_376", "op": "AddV2", "input": ["PartitionedCall/onnx_tf_prefix_ReduceMean_374", "unknown_2"], "attr": {"T": {"type": "DT_FLOAT"}}}, {"name": "PartitionedCall/onnx_tf_prefix_Sqrt_377", "op": "Rsqrt", "input": ["PartitionedCall/onnx_tf_prefix_Add_376"], "attr": {"T": {"type": "DT_FLOAT"}}}, {"name": "PartitionedCall/onnx_tf_prefix_Div_378", "op": "Mul", "input": ["unknown_130", "PartitionedCall/onnx_tf_prefix_Sqrt_377"], "attr": {"_grappler_ArithmeticOptimizer_MinimizeBroadcasts": {"b": true}, "T": {"type": "DT_FLOAT"}}}, {"name": "PartitionedCall/onnx_tf_prefix_Mul_379", "op": "Mul", "input": ["PartitionedCall/onnx_tf_prefix_Div_378", "PartitionedCall/onnx_tf_prefix_Sub_371"], "attr": {"_grappler_ArithmeticOptimizer_MinimizeBroadcasts": {"b": true}, "T": {"type": "DT_FLOAT"}}}, {"name": "PartitionedCall/onnx_tf_prefix_Add_380", "op": "AddV2", "input": ["PartitionedCall/onnx_tf_prefix_Mul_379", "unknown_131"], "attr": {"T": {"type": "DT_FLOAT"}}}, {"name": "PartitionedCall/convolution_28", "op": "Conv2D", "input": ["PartitionedCall/onnx_tf_prefix_Add_380", "PartitionedCall/split_28"], "device": "/device:CPU:0", "attr": {"data_format": {"s": "TkhXQw=="}, "padding": {"s": "VkFMSUQ="}, "use_cudnn_on_gpu": {"b": true}, "dilations": {"list": {"i": ["1", "1", "1", "1"]}}, "T": {"type": "DT_FLOAT"}, "explicit_paddings": {"list": {}}, "strides": {"list": {"i": ["1", "1", "1", "1"]}}}}, {"name": "PartitionedCall/Add_41", "op": "AddV2", "input": ["PartitionedCall/convolution_28", "unknown_133"], "attr": {"T": {"type": "DT_FLOAT"}}}, {"name": "PartitionedCall/transpose_125", "op": "Transpose", "input": ["PartitionedCall/Add_41", "PartitionedCall/transpose_125/perm"], "attr": {"Tperm": {"type": "DT_INT32"}, "T": {"type": "DT_FLOAT"}}}, {"name": "PartitionedCall/onnx_tf_prefix_Mul_388", "op": "Mul", "input": ["unknown_13", "PartitionedCall/transpose_125"], "attr": {"_grappler_ArithmeticOptimizer_MinimizeBroadcasts": {"b": true}, "T": {"type": "DT_FLOAT"}}}, {"name": "PartitionedCall/onnx_tf_prefix_Div_384", "op": "Mul", "input": ["PartitionedCall/transpose_125", "ConstantFolding/PartitionedCall/onnx_tf_prefix_Div_384_recip"], "attr": {"T": {"type": "DT_FLOAT"}}}, {"name": "PartitionedCall/onnx_tf_prefix_Erf_385", "op": "Erf", "input": ["PartitionedCall/onnx_tf_prefix_Div_384"], "attr": {"T": {"type": "DT_FLOAT"}}}, {"name": "PartitionedCall/onnx_tf_prefix_Add_387", "op": "AddV2", "input": ["PartitionedCall/onnx_tf_prefix_Erf_385", "unknown_12"], "attr": {"T": {"type": "DT_FLOAT"}}}, {"name": "PartitionedCall/onnx_tf_prefix_Mul_390", "op": "Mul", "input": ["PartitionedCall/onnx_tf_prefix_Mul_388", "PartitionedCall/onnx_tf_prefix_Add_387"], "attr": {"_grappler_ArithmeticOptimizer_MinimizeBroadcasts": {"b": true}, "T": {"type": "DT_FLOAT"}}}, {"name": "PartitionedCall/transpose_127", "op": "Transpose", "input": ["PartitionedCall/onnx_tf_prefix_Mul_390", "PartitionedCall/transpose_127/perm"], "attr": {"T": {"type": "DT_FLOAT"}, "Tperm": {"type": "DT_INT32"}}}, {"name": "PartitionedCall/convolution_29", "op": "Conv2D", "input": ["PartitionedCall/transpose_127", "PartitionedCall/split_29"], "device": "/device:CPU:0", "attr": {"strides": {"list": {"i": ["1", "1", "1", "1"]}}, "T": {"type": "DT_FLOAT"}, "padding": {"s": "VkFMSUQ="}, "use_cudnn_on_gpu": {"b": true}, "data_format": {"s": "TkhXQw=="}, "explicit_paddings": {"list": {}}, "dilations": {"list": {"i": ["1", "1", "1", "1"]}}}}, {"name": "PartitionedCall/Add_42", "op": "AddV2", "input": ["PartitionedCall/convolution_29", "unknown_135"], "attr": {"T": {"type": "DT_FLOAT"}}}, {"name": "PartitionedCall/transpose_128", "op": "Transpose", "input": ["PartitionedCall/Add_42", "PartitionedCall/transpose_128/perm"], "attr": {"Tperm": {"type": "DT_INT32"}, "T": {"type": "DT_FLOAT"}}}, {"name": "PartitionedCall/onnx_tf_prefix_Mul_392", "op": "Mul", "input": ["PartitionedCall/transpose_128", "unknown_136"], "attr": {"T": {"type": "DT_FLOAT"}}}, {"name": "PartitionedCall/onnx_tf_prefix_Add_393", "op": "AddV2", "input": ["PartitionedCall/onnx_tf_prefix_Mul_392", "PartitionedCall/transpose_119"], "attr": {"T": {"type": "DT_FLOAT"}}}, {"name": "PartitionedCall/Pad_13", "op": "Pad", "input": ["PartitionedCall/onnx_tf_prefix_Add_393", "PartitionedCall/Const_13"], "attr": {"T": {"type": "DT_FLOAT"}, "Tpaddings": {"type": "DT_INT32"}}}, {"name": "PartitionedCall/transpose_130", "op": "Transpose", "input": ["PartitionedCall/Pad_13", "PartitionedCall/transpose_130/perm"], "attr": {"Tperm": {"type": "DT_INT32"}, "T": {"type": "DT_FLOAT"}}}, {"name": "PartitionedCall/depthwise_13", "op": "DepthwiseConv2dNative", "input": ["PartitionedCall/transpose_130", "PartitionedCall/Reshape_13"], "attr": {"strides": {"list": {"i": ["1", "1", "1", "1"]}}, "explicit_paddings": {"list": {}}, "padding": {"s": "VkFMSUQ="}, "T": {"type": "DT_FLOAT"}, "dilations": {"list": {"i": ["1", "1", "1", "1"]}}, "data_format": {"s": "TkhXQw=="}}}, {"name": "PartitionedCall/Add_43", "op": "AddV2", "input": ["PartitionedCall/depthwise_13", "unknown_138"], "attr": {"T": {"type": "DT_FLOAT"}}}, {"name": "PartitionedCall/onnx_tf_prefix_ReduceMean_396", "op": "Mean", "input": ["PartitionedCall/Add_43", "PartitionedCall/onnx_tf_prefix_ReduceMean_396/reduction_indices"], "attr": {"Tidx": {"type": "DT_INT32"}, "T": {"type": "DT_FLOAT"}, "keep_dims": {"b": true}}}, {"name": "PartitionedCall/onnx_tf_prefix_Sub_397", "op": "Sub", "input": ["PartitionedCall/Add_43", "PartitionedCall/onnx_tf_prefix_ReduceMean_396"], "attr": {"T": {"type": "DT_FLOAT"}}}, {"name": "PartitionedCall/onnx_tf_prefix_Pow_399", "op": "Square", "input": ["PartitionedCall/onnx_tf_prefix_Sub_397"], "attr": {"T": {"type": "DT_FLOAT"}}}, {"name": "PartitionedCall/onnx_tf_prefix_ReduceMean_400", "op": "Mean", "input": ["PartitionedCall/onnx_tf_prefix_Pow_399", "PartitionedCall/onnx_tf_prefix_ReduceMean_400/reduction_indices"], "attr": {"T": {"type": "DT_FLOAT"}, "Tidx": {"type": "DT_INT32"}, "keep_dims": {"b": true}}}, {"name": "PartitionedCall/onnx_tf_prefix_Add_402", "op": "AddV2", "input": ["PartitionedCall/onnx_tf_prefix_ReduceMean_400", "unknown_2"], "attr": {"T": {"type": "DT_FLOAT"}}}, {"name": "PartitionedCall/onnx_tf_prefix_Sqrt_403", "op": "Rsqrt", "input": ["PartitionedCall/onnx_tf_prefix_Add_402"], "attr": {"T": {"type": "DT_FLOAT"}}}, {"name": "PartitionedCall/onnx_tf_prefix_Div_404", "op": "Mul", "input": ["unknown_139", "PartitionedCall/onnx_tf_prefix_Sqrt_403"], "attr": {"_grappler_ArithmeticOptimizer_MinimizeBroadcasts": {"b": true}, "T": {"type": "DT_FLOAT"}}}, {"name": "PartitionedCall/onnx_tf_prefix_Mul_405", "op": "Mul", "input": ["PartitionedCall/onnx_tf_prefix_Div_404", "PartitionedCall/onnx_tf_prefix_Sub_397"], "attr": {"T": {"type": "DT_FLOAT"}, "_grappler_ArithmeticOptimizer_MinimizeBroadcasts": {"b": true}}}, {"name": "PartitionedCall/onnx_tf_prefix_Add_406", "op": "AddV2", "input": ["PartitionedCall/onnx_tf_prefix_Mul_405", "unknown_140"], "attr": {"T": {"type": "DT_FLOAT"}}}, {"name": "PartitionedCall/convolution_30", "op": "Conv2D", "input": ["PartitionedCall/onnx_tf_prefix_Add_406", "PartitionedCall/split_30"], "device": "/device:CPU:0", "attr": {"padding": {"s": "VkFMSUQ="}, "use_cudnn_on_gpu": {"b": true}, "dilations": {"list": {"i": ["1", "1", "1", "1"]}}, "T": {"type": "DT_FLOAT"}, "data_format": {"s": "TkhXQw=="}, "explicit_paddings": {"list": {}}, "strides": {"list": {"i": ["1", "1", "1", "1"]}}}}, {"name": "PartitionedCall/Add_44", "op": "AddV2", "input": ["PartitionedCall/convolution_30", "unknown_142"], "attr": {"T": {"type": "DT_FLOAT"}}}, {"name": "PartitionedCall/transpose_134", "op": "Transpose", "input": ["PartitionedCall/Add_44", "PartitionedCall/transpose_134/perm"], "attr": {"T": {"type": "DT_FLOAT"}, "Tperm": {"type": "DT_INT32"}}}, {"name": "PartitionedCall/onnx_tf_prefix_Mul_414", "op": "Mul", "input": ["unknown_13", "PartitionedCall/transpose_134"], "attr": {"_grappler_ArithmeticOptimizer_MinimizeBroadcasts": {"b": true}, "T": {"type": "DT_FLOAT"}}}, {"name": "PartitionedCall/onnx_tf_prefix_Div_410", "op": "Mul", "input": ["PartitionedCall/transpose_134", "ConstantFolding/PartitionedCall/onnx_tf_prefix_Div_410_recip"], "attr": {"T": {"type": "DT_FLOAT"}}}, {"name": "PartitionedCall/onnx_tf_prefix_Erf_411", "op": "Erf", "input": ["PartitionedCall/onnx_tf_prefix_Div_410"], "attr": {"T": {"type": "DT_FLOAT"}}}, {"name": "PartitionedCall/onnx_tf_prefix_Add_413", "op": "AddV2", "input": ["PartitionedCall/onnx_tf_prefix_Erf_411", "unknown_12"], "attr": {"T": {"type": "DT_FLOAT"}}}, {"name": "PartitionedCall/onnx_tf_prefix_Mul_416", "op": "Mul", "input": ["PartitionedCall/onnx_tf_prefix_Mul_414", "PartitionedCall/onnx_tf_prefix_Add_413"], "attr": {"_grappler_ArithmeticOptimizer_MinimizeBroadcasts": {"b": true}, "T": {"type": "DT_FLOAT"}}}, {"name": "PartitionedCall/transpose_136", "op": "Transpose", "input": ["PartitionedCall/onnx_tf_prefix_Mul_416", "PartitionedCall/transpose_136/perm"], "attr": {"Tperm": {"type": "DT_INT32"}, "T": {"type": "DT_FLOAT"}}}, {"name": "PartitionedCall/convolution_31", "op": "Conv2D", "input": ["PartitionedCall/transpose_136", "PartitionedCall/split_31"], "device": "/device:CPU:0", "attr": {"dilations": {"list": {"i": ["1", "1", "1", "1"]}}, "T": {"type": "DT_FLOAT"}, "explicit_paddings": {"list": {}}, "data_format": {"s": "TkhXQw=="}, "use_cudnn_on_gpu": {"b": true}, "padding": {"s": "VkFMSUQ="}, "strides": {"list": {"i": ["1", "1", "1", "1"]}}}}, {"name": "PartitionedCall/Add_45", "op": "AddV2", "input": ["PartitionedCall/convolution_31", "unknown_144"], "attr": {"T": {"type": "DT_FLOAT"}}}, {"name": "PartitionedCall/transpose_137", "op": "Transpose", "input": ["PartitionedCall/Add_45", "PartitionedCall/transpose_137/perm"], "attr": {"Tperm": {"type": "DT_INT32"}, "T": {"type": "DT_FLOAT"}}}, {"name": "PartitionedCall/onnx_tf_prefix_Mul_418", "op": "Mul", "input": ["PartitionedCall/transpose_137", "unknown_145"], "attr": {"T": {"type": "DT_FLOAT"}}}, {"name": "PartitionedCall/onnx_tf_prefix_Add_419", "op": "AddV2", "input": ["PartitionedCall/onnx_tf_prefix_Mul_418", "PartitionedCall/onnx_tf_prefix_Add_393"], "attr": {"T": {"type": "DT_FLOAT"}}}, {"name": "PartitionedCall/Max", "op": "Max", "input": ["PartitionedCall/onnx_tf_prefix_Add_419", "ConstantFolding/PartitionedCall/split_32-folded-1"], "attr": {"T": {"type": "DT_FLOAT"}, "Tidx": {"type": "DT_INT32"}, "keep_dims": {"b": true}}}, {"name": "PartitionedCall/Mean", "op": "Mean", "input": ["PartitionedCall/onnx_tf_prefix_Add_419", "ConstantFolding/PartitionedCall/split_33-folded-1"], "attr": {"T": {"type": "DT_FLOAT"}, "Tidx": {"type": "DT_INT32"}, "keep_dims": {"b": true}}}, {"name": "PartitionedCall/onnx_tf_prefix_Concat_422", "op": "ConcatV2", "input": ["PartitionedCall/Max", "PartitionedCall/Mean", "PartitionedCall/onnx_tf_prefix_Concat_422/axis"], "attr": {"Tidx": {"type": "DT_INT32"}, "N": {"i": "2"}, "T": {"type": "DT_FLOAT"}}}, {"name": "PartitionedCall/onnx_tf_prefix_Reshape_423", "op": "Reshape", "input": ["PartitionedCall/onnx_tf_prefix_Concat_422", "PartitionedCall/add_46"], "attr": {"T": {"type": "DT_FLOAT"}, "Tshape": {"type": "DT_INT64"}}}, {"name": "PartitionedCall/onnx_tf_prefix_BatchNormalization_424/mul_1", "op": "Mul", "input": ["PartitionedCall/onnx_tf_prefix_Reshape_423", "PartitionedCall/onnx_tf_prefix_BatchNormalization_424/mul"], "attr": {"T": {"type": "DT_FLOAT"}}}, {"name": "PartitionedCall/onnx_tf_prefix_BatchNormalization_424/add_1", "op": "AddV2", "input": ["PartitionedCall/onnx_tf_prefix_BatchNormalization_424/mul_1", "PartitionedCall/onnx_tf_prefix_BatchNormalization_424/sub"], "attr": {"T": {"type": "DT_FLOAT"}}}, {"name": "PartitionedCall/onnx_tf_prefix_MatMul_425", "op": "MatMul", "input": ["PartitionedCall/onnx_tf_prefix_BatchNormalization_424/add_1", "unknown_151"], "device": "/device:CPU:0", "attr": {"transpose_b": {"b": false}, "T": {"type": "DT_FLOAT"}, "transpose_a": {"b": false}}}, {"name": "PartitionedCall/onnx_tf_prefix_Relu_426", "op": "Relu", "input": ["PartitionedCall/onnx_tf_prefix_MatMul_425"], "attr": {"T": {"type": "DT_FLOAT"}}}, {"name": "PartitionedCall/onnx_tf_prefix_BatchNormalization_427/mul_1", "op": "Mul", "input": ["PartitionedCall/onnx_tf_prefix_Relu_426", "PartitionedCall/onnx_tf_prefix_BatchNormalization_427/mul"], "attr": {"T": {"type": "DT_FLOAT"}}}, {"name": "PartitionedCall/onnx_tf_prefix_BatchNormalization_427/add_1", "op": "AddV2", "input": ["PartitionedCall/onnx_tf_prefix_BatchNormalization_427/mul_1", "PartitionedCall/onnx_tf_prefix_BatchNormalization_427/sub"], "attr": {"T": {"type": "DT_FLOAT"}}}, {"name": "PartitionedCall/onnx_tf_prefix_MatMul_428", "op": "MatMul", "input": ["PartitionedCall/onnx_tf_prefix_BatchNormalization_427/add_1", "unknown_156"], "device": "/device:CPU:0", "attr": {"T": {"type": "DT_FLOAT"}, "transpose_b": {"b": false}, "transpose_a": {"b": false}}}, {"name": "Identity", "op": "Identity", "input": ["PartitionedCall/onnx_tf_prefix_MatMul_428"], "attr": {"T": {"type": "DT_FLOAT"}}}], "library": {}, "versions": {"producer": 1205}}, "weightsManifest": [{"paths": ["group1-shard1of4.bin", "group1-shard2of4.bin", "group1-shard3of4.bin", "group1-shard4of4.bin"], "weights": [{"name": "ConstantFolding/PartitionedCall/split_32-folded-1", "shape": [2], "dtype": "int32"}, {"name": "unknown_139", "shape": [640], "dtype": "float32", "quantization": {"dtype": "uint8", "min": 0.162554070353508, "scale": 0.020332574669052573, "original_dtype": "float32"}}, {"name": "PartitionedCall/onnx_tf_prefix_ReduceMean_400/reduction_indices", "shape": [], "dtype": "int32"}, {"name": "PartitionedCall/Const_13", "shape": [4, 2], "dtype": "int32"}, {"name": "PartitionedCall/transpose_130/perm", "shape": [4], "dtype": "int32"}, {"name": "PartitionedCall/Reshape_13", "shape": [7, 7, 640, 1], "dtype": "float32", "quantization": {"dtype": "uint8", "min": -0.5361548870217566, "scale": 0.0053084642279381845, "original_dtype": "float32"}}, {"name": "unknown_138", "shape": [640], "dtype": "float32", "quantization": {"dtype": "uint8", "min": -4.580933428745643, "scale": 0.02256617452584061, "original_dtype": "float32"}}, {"name": "PartitionedCall/onnx_tf_prefix_ReduceMean_396/reduction_indices", "shape": [], "dtype": "int32"}, {"name": "unknown_140", "shape": [640], "dtype": "float32", "quantization": {"dtype": "uint8", "min": -2.596289480433745, "scale": 0.02257643026464126, "original_dtype": "float32"}}, {"name": "PartitionedCall/split_30", "shape": [1, 1, 640, 2560], "dtype": "float32", "quantization": {"dtype": "uint8", "min": -0.3478439288980821, "scale": 0.002655297167160932, "original_dtype": "float32"}}, {"name": "unknown_142", "shape": [2560], "dtype": "float32", "quantization": {"dtype": "uint8", "min": -1.91399543986601, "scale": 0.010813533558565028, "original_dtype": "float32"}}, {"name": "PartitionedCall/transpose_134/perm", "shape": [4], "dtype": "int32"}, {"name": "ConstantFolding/PartitionedCall/onnx_tf_prefix_Div_410_recip", "shape": [], "dtype": "float32", "quantization": {"dtype": "uint8", "min": 0.7071067690849304, "scale": 1.0, "original_dtype": "float32"}}, {"name": "PartitionedCall/transpose_136/perm", "shape": [4], "dtype": "int32"}, {"name": "PartitionedCall/split_31", "shape": [1, 1, 2560, 640], "dtype": "float32", "quantization": {"dtype": "uint8", "min": -0.5777646597693948, "scale": 0.005349672775642545, "original_dtype": "float32"}}, {"name": "unknown_144", "shape": [640], "dtype": "float32", "quantization": {"dtype": "uint8", "min": -0.890175964873211, "scale": 0.0038204977033185024, "original_dtype": "float32"}}, {"name": "PartitionedCall/transpose_137/perm", "shape": [4], "dtype": "int32"}, {"name": "unknown_145", "shape": [1, 640, 1, 1], "dtype": "float32", "quantization": {"dtype": "uint8", "min": -10.665289875105316, "scale": 0.08397866043390012, "original_dtype": "float32"}}, {"name": "unknown_130", "shape": [640], "dtype": "float32", "quantization": {"dtype": "uint8", "min": 0.11803925782442093, "scale": 0.013542783464871202, "original_dtype": "float32"}}, {"name": "PartitionedCall/onnx_tf_prefix_ReduceMean_374/reduction_indices", "shape": [], "dtype": "int32"}, {"name": "PartitionedCall/Const_12", "shape": [4, 2], "dtype": "int32"}, {"name": "PartitionedCall/transpose_121/perm", "shape": [4], "dtype": "int32"}, {"name": "PartitionedCall/Reshape_12", "shape": [7, 7, 640, 1], "dtype": "float32", "quantization": {"dtype": "uint8", "min": -0.4292283549028284, "scale": 0.00476920394336476, "original_dtype": "float32"}}, {"name": "unknown_129", "shape": [640], "dtype": "float32", "quantization": {"dtype": "uint8", "min": -4.040123217246111, "scale": 0.02071858060126211, "original_dtype": "float32"}}, {"name": "PartitionedCall/onnx_tf_prefix_ReduceMean_370/reduction_indices", "shape": [], "dtype": "int32"}, {"name": "unknown_131", "shape": [640], "dtype": "float32", "quantization": {"dtype": "uint8", "min": -4.578209623635984, "scale": 0.03031926903070188, "original_dtype": "float32"}}, {"name": "PartitionedCall/split_28", "shape": [1, 1, 640, 2560], "dtype": "float32", "quantization": {"dtype": "uint8", "min": -0.3879837335324755, "scale": 0.003031122918222465, "original_dtype": "float32"}}, {"name": "unknown_133", "shape": [2560], "dtype": "float32", "quantization": {"dtype": "uint8", "min": -1.787163244976717, "scale": 0.013853978643230364, "original_dtype": "float32"}}, {"name": "PartitionedCall/transpose_125/perm", "shape": [4], "dtype": "int32"}, {"name": "ConstantFolding/PartitionedCall/onnx_tf_prefix_Div_384_recip", "shape": [], "dtype": "float32", "quantization": {"dtype": "uint8", "min": 0.7071067690849304, "scale": 1.0, "original_dtype": "float32"}}, {"name": "PartitionedCall/transpose_127/perm", "shape": [4], "dtype": "int32"}, {"name": "PartitionedCall/split_29", "shape": [1, 1, 2560, 640], "dtype": "float32", "quantization": {"dtype": "uint8", "min": -0.7348996442906996, "scale": 0.004965538137099322, "original_dtype": "float32"}}, {"name": "unknown_135", "shape": [640], "dtype": "float32", "quantization": {"dtype": "uint8", "min": -0.5201534364737717, "scale": 0.004408079970116709, "original_dtype": "float32"}}, {"name": "PartitionedCall/transpose_128/perm", "shape": [4], "dtype": "int32"}, {"name": "unknown_136", "shape": [1, 640, 1, 1], "dtype": "float32", "quantization": {"dtype": "uint8", "min": -8.810536343443628, "scale": 0.06883231518315334, "original_dtype": "float32"}}, {"name": "unknown_124", "shape": [320], "dtype": "float32", "quantization": {"dtype": "uint8", "min": -0.015065947532945987, "scale": 0.007532973766472994, "original_dtype": "float32"}}, {"name": "PartitionedCall/onnx_tf_prefix_ReduceMean_359/reduction_indices", "shape": [], "dtype": "int32"}, {"name": "unknown_117", "shape": [320], "dtype": "float32", "quantization": {"dtype": "uint8", "min": 0.05928821861743927, "scale": 0.017069144517767663, "original_dtype": "float32"}}, {"name": "PartitionedCall/onnx_tf_prefix_ReduceMean_334/reduction_indices", "shape": [], "dtype": "int32"}, {"name": "PartitionedCall/Const_11", "shape": [4, 2], "dtype": "int32"}, {"name": "PartitionedCall/transpose_109/perm", "shape": [4], "dtype": "int32"}, {"name": "PartitionedCall/Reshape_11", "shape": [7, 7, 320, 1], "dtype": "float32", "quantization": {"dtype": "uint8", "min": -0.44909760157267253, "scale": 0.0033021882468578863, "original_dtype": "float32"}}, {"name": "unknown_116", "shape": [320], "dtype": "float32", "quantization": {"dtype": "uint8", "min": -2.7559526331284467, "scale": 0.01435391996421066, "original_dtype": "float32"}}, {"name": "PartitionedCall/onnx_tf_prefix_ReduceMean_330/reduction_indices", "shape": [], "dtype": "int32"}, {"name": "unknown_118", "shape": [320], "dtype": "float32", "quantization": {"dtype": "uint8", "min": -1.2485933303833008, "scale": 0.019818941752115887, "original_dtype": "float32"}}, {"name": "PartitionedCall/split_25", "shape": [1, 1, 320, 1280], "dtype": "float32", "quantization": {"dtype": "uint8", "min": -0.35569317551220164, "scale": 0.0031201155746684354, "original_dtype": "float32"}}, {"name": "unknown_120", "shape": [1280], "dtype": "float32", "quantization": {"dtype": "uint8", "min": -2.148129753037995, "scale": 0.011426222090627634, "original_dtype": "float32"}}, {"name": "PartitionedCall/transpose_113/perm", "shape": [4], "dtype": "int32"}, {"name": "ConstantFolding/PartitionedCall/onnx_tf_prefix_Div_344_recip", "shape": [], "dtype": "float32", "quantization": {"dtype": "uint8", "min": 0.7071067690849304, "scale": 1.0, "original_dtype": "float32"}}, {"name": "PartitionedCall/transpose_115/perm", "shape": [4], "dtype": "int32"}, {"name": "PartitionedCall/split_26", "shape": [1, 1, 1280, 320], "dtype": "float32", "quantization": {"dtype": "uint8", "min": -0.852792873102076, "scale": 0.005199956543305341, "original_dtype": "float32"}}, {"name": "unknown_122", "shape": [320], "dtype": "float32", "quantization": {"dtype": "uint8", "min": -1.7352410711494146, "scale": 0.008108603136212218, "original_dtype": "float32"}}, {"name": "PartitionedCall/transpose_116/perm", "shape": [4], "dtype": "int32"}, {"name": "unknown_123", "shape": [1, 320, 1, 1], "dtype": "float32", "quantization": {"dtype": "uint8", "min": -20.915335756189684, "scale": 0.18346785751043582, "original_dtype": "float32"}}, {"name": "unknown_108", "shape": [320], "dtype": "float32", "quantization": {"dtype": "uint8", "min": 0.15856042504310608, "scale": 0.01101284062161165, "original_dtype": "float32"}}, {"name": "PartitionedCall/onnx_tf_prefix_ReduceMean_308/reduction_indices", "shape": [], "dtype": "int32"}, {"name": "PartitionedCall/Const_10", "shape": [4, 2], "dtype": "int32"}, {"name": "PartitionedCall/transpose_100/perm", "shape": [4], "dtype": "int32"}, {"name": "PartitionedCall/Reshape_10", "shape": [7, 7, 320, 1], "dtype": "float32", "quantization": {"dtype": "uint8", "min": -0.37581829779288345, "scale": 0.0030554333153892965, "original_dtype": "float32"}}, {"name": "unknown_107", "shape": [320], "dtype": "float32", "quantization": {"dtype": "uint8", "min": -0.9116208787057913, "scale": 0.008287462533689012, "original_dtype": "float32"}}, {"name": "PartitionedCall/onnx_tf_prefix_ReduceMean_304/reduction_indices", "shape": [], "dtype": "int32"}, {"name": "unknown_109", "shape": [320], "dtype": "float32", "quantization": {"dtype": "uint8", "min": -1.4152577348783903, "scale": 0.017051298010583017, "original_dtype": "float32"}}, {"name": "PartitionedCall/split_23", "shape": [1, 1, 320, 1280], "dtype": "float32", "quantization": {"dtype": "uint8", "min": -0.42611160979551427, "scale": 0.0032281182560266234, "original_dtype": "float32"}}, {"name": "unknown_111", "shape": [1280], "dtype": "float32", "quantization": {"dtype": "uint8", "min": -2.5194631712109437, "scale": 0.013190906655554679, "original_dtype": "float32"}}, {"name": "PartitionedCall/transpose_104/perm", "shape": [4], "dtype": "int32"}, {"name": "ConstantFolding/PartitionedCall/onnx_tf_prefix_Div_318_recip", "shape": [], "dtype": "float32", "quantization": {"dtype": "uint8", "min": 0.7071067690849304, "scale": 1.0, "original_dtype": "float32"}}, {"name": "PartitionedCall/transpose_106/perm", "shape": [4], "dtype": "int32"}, {"name": "PartitionedCall/split_24", "shape": [1, 1, 1280, 320], "dtype": "float32", "quantization": {"dtype": "uint8", "min": -0.7846387748624765, "scale": 0.00472673960760528, "original_dtype": "float32"}}, {"name": "unknown_113", "shape": [320], "dtype": "float32", "quantization": {"dtype": "uint8", "min": -2.118580422565049, "scale": 0.00985386243053511, "original_dtype": "float32"}}, {"name": "PartitionedCall/transpose_107/perm", "shape": [4], "dtype": "int32"}, {"name": "unknown_114", "shape": [1, 320, 1, 1], "dtype": "float32", "quantization": {"dtype": "uint8", "min": -5.208821666941923, "scale": 0.10016964744119083, "original_dtype": "float32"}}, {"name": "unknown_99", "shape": [320], "dtype": "float32", "quantization": {"dtype": "uint8", "min": -0.010829435508040821, "scale": 0.010829435508040821, "original_dtype": "float32"}}, {"name": "PartitionedCall/onnx_tf_prefix_ReduceMean_282/reduction_indices", "shape": [], "dtype": "int32"}, {"name": "PartitionedCall/Const_9", "shape": [4, 2], "dtype": "int32"}, {"name": "PartitionedCall/transpose_91/perm", "shape": [4], "dtype": "int32"}, {"name": "PartitionedCall/Reshape_9", "shape": [7, 7, 320, 1], "dtype": "float32", "quantization": {"dtype": "uint8", "min": -0.32869314866907456, "scale": 0.002672302021699793, "original_dtype": "float32"}}, {"name": "unknown_98", "shape": [320], "dtype": "float32", "quantization": {"dtype": "uint8", "min": -0.6595241592210882, "scale": 0.004426336639067706, "original_dtype": "float32"}}, {"name": "PartitionedCall/onnx_tf_prefix_ReduceMean_278/reduction_indices", "shape": [], "dtype": "int32"}, {"name": "unknown_100", "shape": [320], "dtype": "float32", "quantization": {"dtype": "uint8", "min": -1.96189703801099, "scale": 0.01147308209363152, "original_dtype": "float32"}}, {"name": "PartitionedCall/split_21", "shape": [1, 1, 320, 1280], "dtype": "float32", "quantization": {"dtype": "uint8", "min": -0.40642109513282776, "scale": 0.0035340964794158937, "original_dtype": "float32"}}, {"name": "unknown_102", "shape": [1280], "dtype": "float32", "quantization": {"dtype": "uint8", "min": -2.39971661567688, "scale": 0.008838412224077712, "original_dtype": "float32"}}, {"name": "PartitionedCall/transpose_95/perm", "shape": [4], "dtype": "int32"}, {"name": "ConstantFolding/PartitionedCall/onnx_tf_prefix_Div_292_recip", "shape": [], "dtype": "float32", "quantization": {"dtype": "uint8", "min": 0.7071067690849304, "scale": 1.0, "original_dtype": "float32"}}, {"name": "PartitionedCall/transpose_97/perm", "shape": [4], "dtype": "int32"}, {"name": "PartitionedCall/split_22", "shape": [1, 1, 1280, 320], "dtype": "float32", "quantization": {"dtype": "uint8", "min": -0.47113870966668225, "scale": 0.00636673931982003, "original_dtype": "float32"}}, {"name": "unknown_104", "shape": [320], "dtype": "float32", "quantization": {"dtype": "uint8", "min": -0.4530937292996575, "scale": 0.01678124923332065, "original_dtype": "float32"}}, {"name": "PartitionedCall/transpose_98/perm", "shape": [4], "dtype": "int32"}, {"name": "unknown_105", "shape": [1, 320, 1, 1], "dtype": "float32", "quantization": {"dtype": "uint8", "min": -9.441870184505687, "scale": 0.05245483435836493, "original_dtype": "float32"}}, {"name": "unknown_90", "shape": [320], "dtype": "float32", "quantization": {"dtype": "uint8", "min": 0.1893071085214615, "scale": 0.010654456416765849, "original_dtype": "float32"}}, {"name": "PartitionedCall/onnx_tf_prefix_ReduceMean_256/reduction_indices", "shape": [], "dtype": "int32"}, {"name": "PartitionedCall/Const_8", "shape": [4, 2], "dtype": "int32"}, {"name": "PartitionedCall/transpose_82/perm", "shape": [4], "dtype": "int32"}, {"name": "PartitionedCall/Reshape_8", "shape": [7, 7, 320, 1], "dtype": "float32", "quantization": {"dtype": "uint8", "min": -0.41708466936560235, "scale": 0.0030895160693748323, "original_dtype": "float32"}}, {"name": "unknown_89", "shape": [320], "dtype": "float32", "quantization": {"dtype": "uint8", "min": -0.5252509622012868, "scale": 0.004103523142197553, "original_dtype": "float32"}}, {"name": "PartitionedCall/onnx_tf_prefix_ReduceMean_252/reduction_indices", "shape": [], "dtype": "int32"}, {"name": "unknown_91", "shape": [320], "dtype": "float32", "quantization": {"dtype": "uint8", "min": -3.199712916449004, "scale": 0.01893321252336689, "original_dtype": "float32"}}, {"name": "PartitionedCall/split_19", "shape": [1, 1, 320, 1280], "dtype": "float32", "quantization": {"dtype": "uint8", "min": -0.4189731373506434, "scale": 0.0034914428112553615, "original_dtype": "float32"}}, {"name": "unknown_93", "shape": [1280], "dtype": "float32", "quantization": {"dtype": "uint8", "min": -2.198261863343856, "scale": 0.009009269931737115, "original_dtype": "float32"}}, {"name": "PartitionedCall/transpose_86/perm", "shape": [4], "dtype": "int32"}, {"name": "ConstantFolding/PartitionedCall/onnx_tf_prefix_Div_266_recip", "shape": [], "dtype": "float32", "quantization": {"dtype": "uint8", "min": 0.7071067690849304, "scale": 1.0, "original_dtype": "float32"}}, {"name": "PartitionedCall/transpose_88/perm", "shape": [4], "dtype": "int32"}, {"name": "PartitionedCall/split_20", "shape": [1, 1, 1280, 320], "dtype": "float32", "quantization": {"dtype": "uint8", "min": -0.5927211351254407, "scale": 0.004203695993797452, "original_dtype": "float32"}}, {"name": "unknown_95", "shape": [320], "dtype": "float32", "quantization": {"dtype": "uint8", "min": -3.3815167618732827, "scale": 0.015511544779235241, "original_dtype": "float32"}}, {"name": "PartitionedCall/transpose_89/perm", "shape": [4], "dtype": "int32"}, {"name": "unknown_96", "shape": [1, 320, 1, 1], "dtype": "float32", "quantization": {"dtype": "uint8", "min": -1.5787664263856178, "scale": 0.02722011079975203, "original_dtype": "float32"}}, {"name": "unknown_81", "shape": [320], "dtype": "float32", "quantization": {"dtype": "uint8", "min": 0.21698510646820068, "scale": 0.009978829645643048, "original_dtype": "float32"}}, {"name": "PartitionedCall/onnx_tf_prefix_ReduceMean_230/reduction_indices", "shape": [], "dtype": "int32"}, {"name": "PartitionedCall/Const_7", "shape": [4, 2], "dtype": "int32"}, {"name": "PartitionedCall/transpose_73/perm", "shape": [4], "dtype": "int32"}, {"name": "PartitionedCall/Reshape_7", "shape": [7, 7, 320, 1], "dtype": "float32", "quantization": {"dtype": "uint8", "min": -0.3155310093187818, "scale": 0.0025446049138611437, "original_dtype": "float32"}}, {"name": "unknown_80", "shape": [320], "dtype": "float32", "quantization": {"dtype": "uint8", "min": -0.3986830479958478, "scale": 0.005177701922023998, "original_dtype": "float32"}}, {"name": "PartitionedCall/onnx_tf_prefix_ReduceMean_226/reduction_indices", "shape": [], "dtype": "int32"}, {"name": "unknown_82", "shape": [320], "dtype": "float32", "quantization": {"dtype": "uint8", "min": -2.0700743268517887, "scale": 0.013355318237753475, "original_dtype": "float32"}}, {"name": "PartitionedCall/split_17", "shape": [1, 1, 320, 1280], "dtype": "float32", "quantization": {"dtype": "uint8", "min": -0.6546349618949142, "scale": 0.005114335639804017, "original_dtype": "float32"}}, {"name": "unknown_84", "shape": [1280], "dtype": "float32", "quantization": {"dtype": "uint8", "min": -2.3986315727233887, "scale": 0.009130579496131224, "original_dtype": "float32"}}, {"name": "PartitionedCall/transpose_77/perm", "shape": [4], "dtype": "int32"}, {"name": "ConstantFolding/PartitionedCall/onnx_tf_prefix_Div_240_recip", "shape": [], "dtype": "float32", "quantization": {"dtype": "uint8", "min": 0.7071067690849304, "scale": 1.0, "original_dtype": "float32"}}, {"name": "PartitionedCall/transpose_79/perm", "shape": [4], "dtype": "int32"}, {"name": "PartitionedCall/split_18", "shape": [1, 1, 1280, 320], "dtype": "float32", "quantization": {"dtype": "uint8", "min": -0.6673237711775537, "scale": 0.004980028143116072, "original_dtype": "float32"}}, {"name": "unknown_86", "shape": [320], "dtype": "float32", "quantization": {"dtype": "uint8", "min": -2.917798679015216, "scale": 0.014095645792344038, "original_dtype": "float32"}}, {"name": "PartitionedCall/transpose_80/perm", "shape": [4], "dtype": "int32"}, {"name": "unknown_87", "shape": [1, 320, 1, 1], "dtype": "float32", "quantization": {"dtype": "uint8", "min": -1.6375360227098652, "scale": 0.025586500354841644, "original_dtype": "float32"}}, {"name": "unknown_72", "shape": [320], "dtype": "float32", "quantization": {"dtype": "uint8", "min": 0.3385562598705292, "scale": 0.007739793669943716, "original_dtype": "float32"}}, {"name": "PartitionedCall/onnx_tf_prefix_ReduceMean_204/reduction_indices", "shape": [], "dtype": "int32"}, {"name": "PartitionedCall/Const_6", "shape": [4, 2], "dtype": "int32"}, {"name": "PartitionedCall/transpose_64/perm", "shape": [4], "dtype": "int32"}, {"name": "PartitionedCall/Reshape_6", "shape": [7, 7, 320, 1], "dtype": "float32", "quantization": {"dtype": "uint8", "min": -0.29903800113528384, "scale": 0.0024511311568465887, "original_dtype": "float32"}}, {"name": "unknown_71", "shape": [320], "dtype": "float32", "quantization": {"dtype": "uint8", "min": -0.4233806988772224, "scale": 0.00286068039781907, "original_dtype": "float32"}}, {"name": "PartitionedCall/onnx_tf_prefix_ReduceMean_200/reduction_indices", "shape": [], "dtype": "int32"}, {"name": "unknown_73", "shape": [320], "dtype": "float32", "quantization": {"dtype": "uint8", "min": -1.1855582742130055, "scale": 0.010585341734044693, "original_dtype": "float32"}}, {"name": "PartitionedCall/split_15", "shape": [1, 1, 320, 1280], "dtype": "float32", "quantization": {"dtype": "uint8", "min": -0.49471322695414227, "scale": 0.0038054863611857097, "original_dtype": "float32"}}, {"name": "unknown_75", "shape": [1280], "dtype": "float32", "quantization": {"dtype": "uint8", "min": -2.6275546550750732, "scale": 0.009580114659141091, "original_dtype": "float32"}}, {"name": "PartitionedCall/transpose_68/perm", "shape": [4], "dtype": "int32"}, {"name": "ConstantFolding/PartitionedCall/onnx_tf_prefix_Div_214_recip", "shape": [], "dtype": "float32", "quantization": {"dtype": "uint8", "min": 0.7071067690849304, "scale": 1.0, "original_dtype": "float32"}}, {"name": "PartitionedCall/transpose_70/perm", "shape": [4], "dtype": "int32"}, {"name": "PartitionedCall/split_16", "shape": [1, 1, 1280, 320], "dtype": "float32", "quantization": {"dtype": "uint8", "min": -0.7180230823217654, "scale": 0.005790508728401334, "original_dtype": "float32"}}, {"name": "unknown_77", "shape": [320], "dtype": "float32", "quantization": {"dtype": "uint8", "min": -0.8242223531592126, "scale": 0.016820864350188012, "original_dtype": "float32"}}, {"name": "PartitionedCall/transpose_71/perm", "shape": [4], "dtype": "int32"}, {"name": "unknown_78", "shape": [1, 320, 1, 1], "dtype": "float32", "quantization": {"dtype": "uint8", "min": -2.552043981178134, "scale": 0.015656711540970147, "original_dtype": "float32"}}, {"name": "unknown_63", "shape": [320], "dtype": "float32", "quantization": {"dtype": "uint8", "min": 0.5024722218513489, "scale": 0.007887537105410706, "original_dtype": "float32"}}, {"name": "PartitionedCall/onnx_tf_prefix_ReduceMean_178/reduction_indices", "shape": [], "dtype": "int32"}, {"name": "PartitionedCall/Const_5", "shape": [4, 2], "dtype": "int32"}, {"name": "PartitionedCall/transpose_55/perm", "shape": [4], "dtype": "int32"}, {"name": "PartitionedCall/Reshape_5", "shape": [7, 7, 320, 1], "dtype": "float32", "quantization": {"dtype": "uint8", "min": -0.32707388401031495, "scale": 0.0026809334754943847, "original_dtype": "float32"}}, {"name": "unknown_62", "shape": [320], "dtype": "float32", "quantization": {"dtype": "uint8", "min": -0.4982056449441349, "scale": 0.004613015230964212, "original_dtype": "float32"}}, {"name": "PartitionedCall/onnx_tf_prefix_ReduceMean_174/reduction_indices", "shape": [], "dtype": "int32"}, {"name": "unknown_64", "shape": [320], "dtype": "float32", "quantization": {"dtype": "uint8", "min": -1.362089422637341, "scale": 0.014968015633377374, "original_dtype": "float32"}}, {"name": "PartitionedCall/split_13", "shape": [1, 1, 320, 1280], "dtype": "float32", "quantization": {"dtype": "uint8", "min": -0.5371037202722886, "scale": 0.004196122814627255, "original_dtype": "float32"}}, {"name": "unknown_66", "shape": [1280], "dtype": "float32", "quantization": {"dtype": "uint8", "min": -2.3969802856445312, "scale": 0.009078965146167605, "original_dtype": "float32"}}, {"name": "PartitionedCall/transpose_59/perm", "shape": [4], "dtype": "int32"}, {"name": "ConstantFolding/PartitionedCall/onnx_tf_prefix_Div_188_recip", "shape": [], "dtype": "float32", "quantization": {"dtype": "uint8", "min": 0.7071067690849304, "scale": 1.0, "original_dtype": "float32"}}, {"name": "PartitionedCall/transpose_61/perm", "shape": [4], "dtype": "int32"}, {"name": "PartitionedCall/split_14", "shape": [1, 1, 1280, 320], "dtype": "float32", "quantization": {"dtype": "uint8", "min": -0.7323849224576764, "scale": 0.004725064015855976, "original_dtype": "float32"}}, {"name": "unknown_68", "shape": [320], "dtype": "float32", "quantization": {"dtype": "uint8", "min": -0.580705171472886, "scale": 0.005986651252297794, "original_dtype": "float32"}}, {"name": "PartitionedCall/transpose_62/perm", "shape": [4], "dtype": "int32"}, {"name": "unknown_69", "shape": [1, 320, 1, 1], "dtype": "float32", "quantization": {"dtype": "uint8", "min": -3.91381038684471, "scale": 0.019667388878616632, "original_dtype": "float32"}}, {"name": "unknown_54", "shape": [320], "dtype": "float32", "quantization": {"dtype": "uint8", "min": 0.39767512679100037, "scale": 0.008942323221879846, "original_dtype": "float32"}}, {"name": "PartitionedCall/onnx_tf_prefix_ReduceMean_152/reduction_indices", "shape": [], "dtype": "int32"}, {"name": "PartitionedCall/Const_4", "shape": [4, 2], "dtype": "int32"}, {"name": "PartitionedCall/transpose_46/perm", "shape": [4], "dtype": "int32"}, {"name": "PartitionedCall/Reshape_4", "shape": [7, 7, 320, 1], "dtype": "float32", "quantization": {"dtype": "uint8", "min": -0.37075571499618826, "scale": 0.0029899654435176473, "original_dtype": "float32"}}, {"name": "unknown_53", "shape": [320], "dtype": "float32", "quantization": {"dtype": "uint8", "min": -0.24302058272502, "scale": 0.0054004573938893335, "original_dtype": "float32"}}, {"name": "PartitionedCall/onnx_tf_prefix_ReduceMean_148/reduction_indices", "shape": [], "dtype": "int32"}, {"name": "unknown_55", "shape": [320], "dtype": "float32", "quantization": {"dtype": "uint8", "min": -1.3870002896178002, "scale": 0.010835939762639064, "original_dtype": "float32"}}, {"name": "PartitionedCall/split_11", "shape": [1, 1, 320, 1280], "dtype": "float32", "quantization": {"dtype": "uint8", "min": -0.46328916386062025, "scale": 0.00425035930147358, "original_dtype": "float32"}}, {"name": "unknown_57", "shape": [1280], "dtype": "float32", "quantization": {"dtype": "uint8", "min": -2.744173049926758, "scale": 0.010059440661879146, "original_dtype": "float32"}}, {"name": "PartitionedCall/transpose_50/perm", "shape": [4], "dtype": "int32"}, {"name": "ConstantFolding/PartitionedCall/onnx_tf_prefix_Div_162_recip", "shape": [], "dtype": "float32", "quantization": {"dtype": "uint8", "min": 0.7071067690849304, "scale": 1.0, "original_dtype": "float32"}}, {"name": "PartitionedCall/transpose_52/perm", "shape": [4], "dtype": "int32"}, {"name": "PartitionedCall/split_12", "shape": [1, 1, 1280, 320], "dtype": "float32", "quantization": {"dtype": "uint8", "min": -0.5797857256496655, "scale": 0.004459890197305119, "original_dtype": "float32"}}, {"name": "unknown_59", "shape": [320], "dtype": "float32", "quantization": {"dtype": "uint8", "min": -0.9090199891258689, "scale": 0.010100222101398543, "original_dtype": "float32"}}, {"name": "PartitionedCall/transpose_53/perm", "shape": [4], "dtype": "int32"}, {"name": "unknown_60", "shape": [1, 320, 1, 1], "dtype": "float32", "quantization": {"dtype": "uint8", "min": -0.6737145837615518, "scale": 0.005477354339524811, "original_dtype": "float32"}}, {"name": "unknown_48", "shape": [160], "dtype": "float32", "quantization": {"dtype": "uint8", "min": -0.2545640959459193, "scale": 0.004628438108107623, "original_dtype": "float32"}}, {"name": "PartitionedCall/onnx_tf_prefix_ReduceMean_137/reduction_indices", "shape": [], "dtype": "int32"}, {"name": "unknown_41", "shape": [160], "dtype": "float32", "quantization": {"dtype": "uint8", "min": -0.0, "scale": 0.012824706889816797, "original_dtype": "float32"}}, {"name": "PartitionedCall/onnx_tf_prefix_ReduceMean_112/reduction_indices", "shape": [], "dtype": "int32"}, {"name": "PartitionedCall/Const_3", "shape": [4, 2], "dtype": "int32"}, {"name": "PartitionedCall/transpose_34/perm", "shape": [4], "dtype": "int32"}, {"name": "PartitionedCall/Reshape_3", "shape": [7, 7, 160, 1], "dtype": "float32", "quantization": {"dtype": "uint8", "min": -0.3189694378890243, "scale": 0.0024536110606848023, "original_dtype": "float32"}}, {"name": "unknown_40", "shape": [160], "dtype": "float32", "quantization": {"dtype": "uint8", "min": -0.4810891333748312, "scale": 0.004111872934827617, "original_dtype": "float32"}}, {"name": "PartitionedCall/onnx_tf_prefix_ReduceMean_108/reduction_indices", "shape": [], "dtype": "int32"}, {"name": "unknown_42", "shape": [160], "dtype": "float32", "quantization": {"dtype": "uint8", "min": -1.893154151766908, "scale": 0.013332071491316252, "original_dtype": "float32"}}, {"name": "PartitionedCall/split_8", "shape": [1, 1, 160, 640], "dtype": "float32", "quantization": {"dtype": "uint8", "min": -0.5349865233196931, "scale": 0.0036642912556143366, "original_dtype": "float32"}}, {"name": "unknown_44", "shape": [640], "dtype": "float32", "quantization": {"dtype": "uint8", "min": -2.203531390311671, "scale": 0.009750138895184385, "original_dtype": "float32"}}, {"name": "PartitionedCall/transpose_38/perm", "shape": [4], "dtype": "int32"}, {"name": "ConstantFolding/PartitionedCall/onnx_tf_prefix_Div_122_recip", "shape": [], "dtype": "float32", "quantization": {"dtype": "uint8", "min": 0.7071067690849304, "scale": 1.0, "original_dtype": "float32"}}, {"name": "PartitionedCall/transpose_40/perm", "shape": [4], "dtype": "int32"}, {"name": "PartitionedCall/split_9", "shape": [1, 1, 640, 160], "dtype": "float32", "quantization": {"dtype": "uint8", "min": -0.5434595125563004, "scale": 0.0038543227840872373, "original_dtype": "float32"}}, {"name": "unknown_46", "shape": [160], "dtype": "float32", "quantization": {"dtype": "uint8", "min": -2.6419586303187352, "scale": 0.014052971437865613, "original_dtype": "float32"}}, {"name": "PartitionedCall/transpose_41/perm", "shape": [4], "dtype": "int32"}, {"name": "unknown_47", "shape": [1, 160, 1, 1], "dtype": "float32", "quantization": {"dtype": "uint8", "min": -5.250809033711751, "scale": 0.061774223926020604, "original_dtype": "float32"}}, {"name": "unknown_32", "shape": [160], "dtype": "float32", "quantization": {"dtype": "uint8", "min": 0.23762282729148865, "scale": 0.00867118706890181, "original_dtype": "float32"}}, {"name": "PartitionedCall/onnx_tf_prefix_ReduceMean_86/reduction_indices", "shape": [], "dtype": "int32"}, {"name": "PartitionedCall/Const_2", "shape": [4, 2], "dtype": "int32"}, {"name": "PartitionedCall/transpose_25/perm", "shape": [4], "dtype": "int32"}, {"name": "PartitionedCall/Reshape_2", "shape": [7, 7, 160, 1], "dtype": "float32", "quantization": {"dtype": "uint8", "min": -0.3231130180405635, "scale": 0.002670355520996393, "original_dtype": "float32"}}, {"name": "unknown_31", "shape": [160], "dtype": "float32", "quantization": {"dtype": "uint8", "min": -0.5364999280256383, "scale": 0.004064393394133624, "original_dtype": "float32"}}, {"name": "PartitionedCall/onnx_tf_prefix_ReduceMean_82/reduction_indices", "shape": [], "dtype": "int32"}, {"name": "unknown_33", "shape": [160], "dtype": "float32", "quantization": {"dtype": "uint8", "min": -1.1489842966491102, "scale": 0.012094571543674843, "original_dtype": "float32"}}, {"name": "PartitionedCall/split_6", "shape": [1, 1, 160, 640], "dtype": "float32", "quantization": {"dtype": "uint8", "min": -0.40598765377904855, "scale": 0.00305253875021841, "original_dtype": "float32"}}, {"name": "unknown_35", "shape": [640], "dtype": "float32", "quantization": {"dtype": "uint8", "min": -3.529487498484406, "scale": 0.014767730119181614, "original_dtype": "float32"}}, {"name": "PartitionedCall/transpose_29/perm", "shape": [4], "dtype": "int32"}, {"name": "ConstantFolding/PartitionedCall/onnx_tf_prefix_Div_96_recip", "shape": [], "dtype": "float32", "quantization": {"dtype": "uint8", "min": 0.7071067690849304, "scale": 1.0, "original_dtype": "float32"}}, {"name": "PartitionedCall/transpose_31/perm", "shape": [4], "dtype": "int32"}, {"name": "PartitionedCall/split_7", "shape": [1, 1, 640, 160], "dtype": "float32", "quantization": {"dtype": "uint8", "min": -0.3805452307065328, "scale": 0.0035900493462880452, "original_dtype": "float32"}}, {"name": "unknown_37", "shape": [160], "dtype": "float32", "quantization": {"dtype": "uint8", "min": -0.9508370455573587, "scale": 0.018285327799179976, "original_dtype": "float32"}}, {"name": "PartitionedCall/transpose_32/perm", "shape": [4], "dtype": "int32"}, {"name": "unknown_38", "shape": [1, 160, 1, 1], "dtype": "float32", "quantization": {"dtype": "uint8", "min": -2.264252701927634, "scale": 0.0233428113600787, "original_dtype": "float32"}}, {"name": "unknown_26", "shape": [80], "dtype": "float32", "quantization": {"dtype": "uint8", "min": -0.0, "scale": 0.006051315915971702, "original_dtype": "float32"}}, {"name": "PartitionedCall/onnx_tf_prefix_ReduceMean_71/reduction_indices", "shape": [], "dtype": "int32"}, {"name": "unknown_19", "shape": [80], "dtype": "float32", "quantization": {"dtype": "uint8", "min": -1.4924544348436242, "scale": 0.023689752934025782, "original_dtype": "float32"}}, {"name": "PartitionedCall/onnx_tf_prefix_ReduceMean_46/reduction_indices", "shape": [], "dtype": "int32"}, {"name": "PartitionedCall/Const_1", "shape": [4, 2], "dtype": "int32"}, {"name": "PartitionedCall/transpose_13/perm", "shape": [4], "dtype": "int32"}, {"name": "PartitionedCall/Reshape_1", "shape": [7, 7, 80, 1], "dtype": "float32", "quantization": {"dtype": "uint8", "min": -0.3974139129414278, "scale": 0.0030807280072978897, "original_dtype": "float32"}}, {"name": "unknown_18", "shape": [80], "dtype": "float32", "quantization": {"dtype": "uint8", "min": -0.09765570768538644, "scale": 0.0006925936715275634, "original_dtype": "float32"}}, {"name": "PartitionedCall/onnx_tf_prefix_ReduceMean_42/reduction_indices", "shape": [], "dtype": "int32"}, {"name": "unknown_20", "shape": [80], "dtype": "float32", "quantization": {"dtype": "uint8", "min": -1.8623144182504392, "scale": 0.016480658568587957, "original_dtype": "float32"}}, {"name": "PartitionedCall/split_3", "shape": [1, 1, 80, 320], "dtype": "float32", "quantization": {"dtype": "uint8", "min": -0.455343856531031, "scale": 0.004216146819731768, "original_dtype": "float32"}}, {"name": "unknown_22", "shape": [320], "dtype": "float32", "quantization": {"dtype": "uint8", "min": -2.637783705486971, "scale": 0.014736221818362965, "original_dtype": "float32"}}, {"name": "PartitionedCall/transpose_17/perm", "shape": [4], "dtype": "int32"}, {"name": "ConstantFolding/PartitionedCall/onnx_tf_prefix_Div_56_recip", "shape": [], "dtype": "float32", "quantization": {"dtype": "uint8", "min": 0.7071067690849304, "scale": 1.0, "original_dtype": "float32"}}, {"name": "PartitionedCall/transpose_19/perm", "shape": [4], "dtype": "int32"}, {"name": "PartitionedCall/split_4", "shape": [1, 1, 320, 80], "dtype": "float32", "quantization": {"dtype": "uint8", "min": -0.8629349000313703, "scale": 0.006689417829700545, "original_dtype": "float32"}}, {"name": "unknown_24", "shape": [80], "dtype": "float32", "quantization": {"dtype": "uint8", "min": -1.5624657560797297, "scale": 0.014334548220914952, "original_dtype": "float32"}}, {"name": "PartitionedCall/transpose_20/perm", "shape": [4], "dtype": "int32"}, {"name": "unknown_25", "shape": [1, 80, 1, 1], "dtype": "float32", "quantization": {"dtype": "uint8", "min": -2.206875052171595, "scale": 0.027245371014464136, "original_dtype": "float32"}}, {"name": "unknown_13", "shape": [], "dtype": "float32", "quantization": {"dtype": "uint8", "min": 0.5, "scale": 1.0, "original_dtype": "float32"}}, {"name": "unknown_7", "shape": [80], "dtype": "float32", "quantization": {"dtype": "uint8", "min": 0.49080130457878113, "scale": 0.019075739734313066, "original_dtype": "float32"}}, {"name": "PartitionedCall/onnx_tf_prefix_ReduceMean_20/reduction_indices", "shape": [], "dtype": "int32"}, {"name": "PartitionedCall/Const", "shape": [4, 2], "dtype": "int32"}, {"name": "PartitionedCall/transpose_4/perm", "shape": [4], "dtype": "int32"}, {"name": "PartitionedCall/Reshape", "shape": [7, 7, 80, 1], "dtype": "float32", "quantization": {"dtype": "uint8", "min": -0.38263390169424166, "scale": 0.0030610712135539335, "original_dtype": "float32"}}, {"name": "unknown_6", "shape": [80], "dtype": "float32", "quantization": {"dtype": "uint8", "min": -0.18763477521784164, "scale": 0.002606038544692245, "original_dtype": "float32"}}, {"name": "PartitionedCall/onnx_tf_prefix_ReduceMean_16/reduction_indices", "shape": [], "dtype": "int32"}, {"name": "unknown_8", "shape": [80], "dtype": "float32", "quantization": {"dtype": "uint8", "min": -2.30060455752354, "scale": 0.016792733996522192, "original_dtype": "float32"}}, {"name": "PartitionedCall/split_1", "shape": [1, 1, 80, 320], "dtype": "float32", "quantization": {"dtype": "uint8", "min": -0.5691506299318052, "scale": 0.0036957833112454884, "original_dtype": "float32"}}, {"name": "unknown_10", "shape": [320], "dtype": "float32", "quantization": {"dtype": "uint8", "min": -2.1162729333428776, "scale": 0.01113827859654146, "original_dtype": "float32"}}, {"name": "PartitionedCall/transpose_8/perm", "shape": [4], "dtype": "int32"}, {"name": "ConstantFolding/PartitionedCall/onnx_tf_prefix_Div_30_recip", "shape": [], "dtype": "float32", "quantization": {"dtype": "uint8", "min": 0.7071067690849304, "scale": 1.0, "original_dtype": "float32"}}, {"name": "unknown_12", "shape": [], "dtype": "float32", "quantization": {"dtype": "uint8", "min": 1.0, "scale": 1.0, "original_dtype": "float32"}}, {"name": "PartitionedCall/transpose_10/perm", "shape": [4], "dtype": "int32"}, {"name": "PartitionedCall/split_2", "shape": [1, 1, 320, 80], "dtype": "float32", "quantization": {"dtype": "uint8", "min": -0.41908123084143095, "scale": 0.003199093365201763, "original_dtype": "float32"}}, {"name": "unknown_15", "shape": [80], "dtype": "float32", "quantization": {"dtype": "uint8", "min": -0.46109270348268394, "scale": 0.008867167374667, "original_dtype": "float32"}}, {"name": "PartitionedCall/transpose_11/perm", "shape": [4], "dtype": "int32"}, {"name": "unknown_16", "shape": [1, 80, 1, 1], "dtype": "float32", "quantization": {"dtype": "uint8", "min": -1.7200876871744792, "scale": 0.012647703582165288, "original_dtype": "float32"}}, {"name": "unknown_3", "shape": [80], "dtype": "float32", "quantization": {"dtype": "uint8", "min": -0.041880224250695285, "scale": 0.013960074750231762, "original_dtype": "float32"}}, {"name": "PartitionedCall/onnx_tf_prefix_ReduceMean_6/reduction_indices", "shape": [], "dtype": "int32"}, {"name": "unknown_2", "shape": [], "dtype": "float32", "quantization": {"dtype": "uint8", "min": 9.999999974752427e-07, "scale": 1.0, "original_dtype": "float32"}}, {"name": "PartitionedCall/split", "shape": [4, 4, 3, 80], "dtype": "float32", "quantization": {"dtype": "uint8", "min": -0.27846571417415844, "scale": 0.0022456912433399872, "original_dtype": "float32"}}, {"name": "unknown_0", "shape": [80], "dtype": "float32", "quantization": {"dtype": "uint8", "min": -1.480499182027929, "scale": 0.01333783046872008, "original_dtype": "float32"}}, {"name": "PartitionedCall/onnx_tf_prefix_ReduceMean_2/reduction_indices", "shape": [], "dtype": "int32"}, {"name": "unknown_4", "shape": [80], "dtype": "float32", "quantization": {"dtype": "uint8", "min": -2.207562766823114, "scale": 0.011618751404332179, "original_dtype": "float32"}}, {"name": "PartitionedCall/onnx_tf_prefix_Transpose_13/perm", "shape": [4], "dtype": "int32"}, {"name": "PartitionedCall/onnx_tf_prefix_Transpose_66/perm", "shape": [4], "dtype": "int32"}, {"name": "PartitionedCall/onnx_tf_prefix_ReduceMean_67/reduction_indices", "shape": [], "dtype": "int32"}, {"name": "unknown_27", "shape": [80], "dtype": "float32", "quantization": {"dtype": "uint8", "min": -0.47090441409279316, "scale": 0.006037236078112733, "original_dtype": "float32"}}, {"name": "PartitionedCall/split_5", "shape": [2, 2, 80, 160], "dtype": "float32", "quantization": {"dtype": "uint8", "min": -0.42347247694052903, "scale": 0.0028613005198684393, "original_dtype": "float32"}}, {"name": "unknown_29", "shape": [160], "dtype": "float32", "quantization": {"dtype": "uint8", "min": -0.5869250129250919, "scale": 0.030890790153952206, "original_dtype": "float32"}}, {"name": "PartitionedCall/transpose_23/perm", "shape": [4], "dtype": "int32"}, {"name": "PartitionedCall/onnx_tf_prefix_Transpose_132/perm", "shape": [4], "dtype": "int32"}, {"name": "PartitionedCall/onnx_tf_prefix_ReduceMean_133/reduction_indices", "shape": [], "dtype": "int32"}, {"name": "unknown_49", "shape": [160], "dtype": "float32", "quantization": {"dtype": "uint8", "min": -0.26670093805182216, "scale": 0.0019467221755607455, "original_dtype": "float32"}}, {"name": "PartitionedCall/split_10", "shape": [2, 2, 160, 320], "dtype": "float32", "quantization": {"dtype": "uint8", "min": -0.3223063653590632, "scale": 0.002537845396528057, "original_dtype": "float32"}}, {"name": "unknown_51", "shape": [320], "dtype": "float32", "quantization": {"dtype": "uint8", "min": -1.6312557613148408, "scale": 0.009946681471431957, "original_dtype": "float32"}}, {"name": "PartitionedCall/transpose_44/perm", "shape": [4], "dtype": "int32"}, {"name": "PartitionedCall/onnx_tf_prefix_Transpose_354/perm", "shape": [4], "dtype": "int32"}, {"name": "PartitionedCall/onnx_tf_prefix_ReduceMean_355/reduction_indices", "shape": [], "dtype": "int32"}, {"name": "unknown_125", "shape": [320], "dtype": "float32", "quantization": {"dtype": "uint8", "min": -0.14132654631839078, "scale": 0.0019098181934917675, "original_dtype": "float32"}}, {"name": "PartitionedCall/split_27", "shape": [2, 2, 320, 640], "dtype": "float32", "quantization": {"dtype": "uint8", "min": -0.4144194581929375, "scale": 0.0032890433189915677, "original_dtype": "float32"}}, {"name": "unknown_127", "shape": [640], "dtype": "float32", "quantization": {"dtype": "uint8", "min": -0.6579514073390587, "scale": 0.004733463362151501, "original_dtype": "float32"}}, {"name": "PartitionedCall/transpose_119/perm", "shape": [4], "dtype": "int32"}, {"name": "ConstantFolding/PartitionedCall/split_33-folded-1", "shape": [2], "dtype": "int32"}, {"name": "PartitionedCall/onnx_tf_prefix_Concat_422/axis", "shape": [], "dtype": "int32"}, {"name": "unknown_146", "shape": [2], "dtype": "int32"}, {"name": "PartitionedCall/Where", "shape": [0, 1], "dtype": "int32"}, {"name": "PartitionedCall/Cast", "shape": [1], "dtype": "int32"}, {"name": "PartitionedCall/GatherV2", "shape": [0], "dtype": "int32"}, {"name": "PartitionedCall/zeros", "shape": [], "dtype": "int32"}, {"name": "PartitionedCall/onnx_tf_prefix_BatchNormalization_424/mul", "shape": [1, 1280], "dtype": "float32", "quantization": {"dtype": "uint8", "min": 0.05002203583717346, "scale": 0.024458803265702492, "original_dtype": "float32"}}, {"name": "PartitionedCall/onnx_tf_prefix_BatchNormalization_424/sub", "shape": [1, 1280], "dtype": "float32", "quantization": {"dtype": "uint8", "min": -4.488629031648823, "scale": 0.028589993832158107, "original_dtype": "float32"}}, {"name": "unknown_151", "shape": [1280, 512], "dtype": "float32", "quantization": {"dtype": "uint8", "min": -0.9074647889417761, "scale": 0.007034610766990512, "original_dtype": "float32"}}, {"name": "PartitionedCall/onnx_tf_prefix_BatchNormalization_427/mul", "shape": [1, 512], "dtype": "float32", "quantization": {"dtype": "uint8", "min": 0.004059079103171825, "scale": 0.00011500008039030374, "original_dtype": "float32"}}, {"name": "PartitionedCall/onnx_tf_prefix_BatchNormalization_427/sub", "shape": [1, 512], "dtype": "float32", "quantization": {"dtype": "uint8", "min": -0.5122260533127131, "scale": 0.002328300242330514, "original_dtype": "float32"}}, {"name": "unknown_156", "shape": [512, 18], "dtype": "float32", "quantization": {"dtype": "uint8", "min": -0.9387162245956121, "scale": 0.006175764635497448, "original_dtype": "float32"}}]}]}